results/2048/tfe_light_model_weights.pt (torch, 13333 bytes, 6 tensors)

net.conv1.weight f4 [16, 1, 4, 4]
-0.219934 0.09411287 0.03000479 -0.10306286 -0.36845526 0.43027255 0.42538497 0.2885913
-0.6166875 0.11136839 0.10137558 0.09723873 0.14431512 0.0076709515 0.2613987 0.08381297
-0.16617826 -0.23763087 -0.80227673 -0.060859527 0.27596286 0.25354308 0.23404925 0.07845695
0.12119585 -0.30426508 0.06497568 0.05440931 -0.12164975 -0.07722619 -0.024344066 -0.06938795
-0.15447637 -0.017538434 -0.29262793 -0.15736604 0.046684403 0.0051289313 0.04999523 -0.08239101
-0.11277911 -0.022873743 -0.19038759 -0.0534308 -0.14450498 -0.24080312 -0.18003172 0.00017139733
0.104883574 0.18378061 0.110793814 0.13688962 -0.14167392 0.36250412 -0.15087497 0.15401427
0.10843425 0.51806676 -0.38565755 0.34736 0.06835327 0.07841776 -0.5070157 -0.23236297
-0.040863603 -0.11265839 -0.063300356 -0.18019086 0.17930959 0.040115487 -0.07223799 -0.078724205
-0.42176008 0.35125738 -0.044972226 -0.07498672 -0.16270716 0.09923187 -0.0782533 -0.12256957
-0.11590619 0.04105783 -0.0217642 -0.024598558 -0.19541249 -0.21783148 -0.09208606 -0.011910699
0.48157147 -0.06961137 -0.2737216 -0.16841581 -0.12639765 0.10257143 0.07422326 -0.121079154
-0.0697072 0.1907606 0.34344807 -0.73817647 0.059342105 -0.42596573 -0.16044833 -0.3152344
0.17406692 0.10920959 0.28990814 0.3088206 0.045290213 0.30667442 -0.5649733 0.12579034
0.19923982 -0.09246709 0.28648108 0.12088264 0.15662344 -0.6962393 -0.2597486 -0.01476229
0.21131268 -0.30939278 -0.002139711 0.31281075 0.045509215 0.05184368 0.2987947 -0.0025271454
0.0021470024 0.124777704 0.060368564 0.0323664 0.06798668 0.17224038 0.40423337 0.07167099
-0.1261448 0.2748825 0.47950235 0.035903677 0.011333784 0.16420211 0.15988755 -0.004228568
0.062919475 -0.23550004 0.042699974 -0.16020939 -0.03563164 -0.14483249 -0.109511204 -0.19459581
-0.045754272 -0.12648617 -0.083541304 0.038373206 -0.06198775 -0.06401045 -0.02257051 0.04793276
0.09664692 0.06875889 0.13229054 -0.335071 0.35620785 0.20677683 -0.050799202 -0.122924335
0.07984232 -0.16322522 -0.85499805 -0.2937064 -0.029915722 0.0724437 -0.11455274 -0.10290987
-0.13348524 0.36432886 -0.41120136 -0.068596445 0.3062384 -0.84496146 -0.2557969 0.22202253
-0.14701001 0.26870483 0.27081087 -0.0933827 0.10218421 0.09477709 -0.068842545 -0.00086170586
-0.21733524 0.115148954 -0.2138278 -0.43355262 0.08297248 0.22194599 -0.41144964 0.111846
0.04883081 -0.060732264 0.32614 -0.14512697 0.08147694 -0.105316214 0.29565006 -0.28407887
0.13468532 0.078558154 0.12974547 0.04452607 0.12006673 -0.04236448 0.20258795 -0.08968073
-0.4248985 -0.55976236 -0.13405432 0.19816893 -0.30708244 -0.39285097 0.29224524 0.04550479
0.1677917 0.027340975 0.066256225 -0.08620466 -0.38791126 0.044143632 -0.07897668 -0.06303929
0.08938857 -0.080643274 -0.13233307 -0.010028517 0.2336702 0.0488147 0.049708523 0.032816835
-0.021778053 0.07799486 -0.42221892 -0.4589867 0.17156433 -0.29412413 0.41618016 -0.009286123
0.28548253 0.08011083 0.04172235 -0.08254051 0.104033574 -0.20791353 -0.118945226 -0.2765381
00000000: 6136 61be 40be c03d 9bcc f53c 9f12 d3bd
00000010: 2ba6 bcbe af4c dc3e 0fcc d93e 3dc2 933e
00000020: 3bdf 1dbf 1c15 e43d 009e cf3d 1925 c73d
00000030: 58c7 133e 9b5c fb3b 0dd6 853e 22a6 ab3d
00000040: a22a 2abe 8255 73be 0262 4dbf d747 79bd
00000050: 014b 8d3e 66d0 813e 9baa 6f3e 0aae a03d
00000060: 8835 f83d a2c8 9bbe f811 853d 4cdc 5e3d
00000070: 8123 f9bd c428 9ebd 356d c7bc 451b 8ebd
00000080: 0e2f 1ebe c3ac 8fbc 54d3 95be 9024 21be
00000090: 2538 3f3d 9810 a83b ccc7 4c3d 9ebc a8bd
000000a0: bcf8 e6bd b761 bbbc f7f4 42be 41da 5abd
000000b0: 1df9 13be 1895 76be 3c5a 38be 1fb9 3339
000000c0: 33cd d63d fc30 3c3e dee7 e23d cb2c 0c3e
000000d0: f812 11be 249a b93e f87e 1abe ebb5 1d3e
000000e0: c712 de3d 06a0 043f e874 c5be 2bd9 b13e
000000f0: cdfc 8b3d 7e99 a03d c8cb 01bf 8ff0 6dbe
00000100: 9860 27bd 71b9 e6bd 9ea3 81bd f483 38be
00000110: ef9c 373e 2350 243d 83f1 93bd 283a a1bd
00000120: f0f0 d7be 02d8 b33e cc34 38bd a392 99bd
00000130: b59c 26be 143a cb3d 4443 a0bd c105 fbbd
00000140: 3960 edbd 412c 283d d64a b2bc ea82 c9bc
00000150: 361a 48be 370f 5fbe 9e97 bcbd 1825 43bc
00000160: 8990 f63e 6890 8ebd 3d25 8cbe 3275 2cbe
00000170: 636e 01be f810 d23d 5d02 983d 59f8 f7bd
00000180: a6c2 8ebd bf56 433e 6dd8 af3e 22f9 3cbf
00000190: b510 733d 2e18 dabe 914c 24be 6766 a1be
000001a0: 993e 323e 47a9 df3d d76e 943e bc1d 9e3e
000001b0: 3b82 393d 6e04 9d3e 17a2 10bf 2fcf 003e
000001c0: 8605 4c3e 635f bdbd a6ad 923e 5191 f73d
000001d0: e561 203e bd3c 32bf c5fd 84be 88dd 71bc
000001e0: 5a62 583e bb68 9ebe 653a 0cbb bb28 a03e
000001f0: df67 3a3d 0a5a 543d 9efb 983e 779e 25bb
00000200: b9b4 0c3b 748b ff3d 0745 773d a192 043d
00000210: 9a3c 8b3d c85f 303e adf7 ce3e 3dc8 923d
00000220: 1a2c 01be 66bd 8c3e 5581 f53e bc0f 133d
00000230: 56b1 393c 9924 283e 90b9 233e cd8f 8abb
00000240: eddb 803d ec26 71be 2be6 2e3d ee0d 24be
00000250: 7cf2 11bd f84e 14be 6947 e0bd 2044 47be
00000260: d568 3bbd 9785 01be b417 abbd 392d 1d3d
00000270: dee6 7dbd e917 83bd cae5 b8bc 2455 443d
00000280: d2ee c53d 76d1 8c3d 2c77 073e 6d8e abbe
00000290: e060 b63e 4ebd 533e d312 50bd c1bf fbbd
000002a0: 5f84 a33d 8324 27be 27e1 5abf af60 96be
000002b0: d111 f5bc 5d5d 943d a09a eabd 69c2 d2bd
000002c0: 5bb0 08be 5089 ba3e fc88 d2be 4b7c 8cbd
000002d0: 48cb 9c3e 654f 58bf d0f7 82be e059 633e
000002e0: cb89 16be ae93 893e b9a7 8a3e 6e3f bfbd
000002f0: f545 d13d 7e1a c23d 52fd 8cbd 1ae4 61ba
00000300: 218d 5ebe 37d3 eb3d adf5 5abe 9cfa ddbe
00000310: 7aed a93d cf45 633e 87a9 d2be 840f e53d
00000320: d102 483d 65c2 78bd d2fb a63e 2a9c 14be
00000330: 62dd a63d 07b0 d7bd 725f 973e c972 91be
00000340: f3ea 093e 19e3 a03d ffdb 043e f860 363d
00000350: 8ce5 f53d 6186 2dbd 3773 4f3e 88aa b7bd
00000360: 4c8c d9be 964c 0fbf 8945 09be ccec 4a3e
00000370: e939 9dbe c323 c9be 2ba1 953e 3b63 3a3d
00000380: 96d1 2b3e 2efa df3c 58b1 873d 128c b0bd
00000390: 4e9c c6be f4cf 343d 87be a1bd be1a 81bd
000003a0: 5b11 b73d 4d28 a5bd 5282 07be a64e 24bc
000003b0: 3e47 6f3e ecf1 473d 2a9b 4b3d f26a 063d
000003c0: e367 b2bc c5bb 9f3d 142d d8be 4e00 ebbe
000003d0: 8fae 2f3e 7097 96be 9115 d53e d324 18bc
000003e0: c42a 923e 2611 a43d 0ee5 2a3d 000b a9bd
000003f0: 8e0f d53d 49e7 54be 8e99 f3bd 6796 8dbe

net.conv1.bias f4 [16]
-0.053728625 0.88430864 -0.21166824 -0.27774516 0.99263346 -0.2510704 0.7652916 1.1598303
-0.5920593 -0.14826839 0.041073706 0.8025331 -0.454266 0.9611829 1.0582403 -0.6212413
00000000: 8c12 5cbd 0d62 623f 8fbf 58be 9d34 8ebe
00000010: 3a1d 7e3f 4d8c 80be 26ea 433f 5275 943f
00000020: 3391 17bf abd3 17be e73c 283d cf72 4d3f
00000030: 8e95 e8be 1510 763f 6b74 873f ab09 1fbf

net.fc1.weight f4 [32, 64]
-0.2335659 0.015430177 -0.0209278 0.38733628 -0.080130756 -0.07236832 0.21422002 0.25766197
-1.1514452 -1.2318854 -0.7083266 -0.8662265 -0.22918616 -0.09273568 -0.1335164 -0.16822867
0.49594226 0.22462858 0.34061489 -0.1306226 -0.70917195 -0.07662563 -1.4418519 -0.27088252
0.46309054 0.26489526 0.052598886 0.05702628 0.23779899 0.28081563 -0.08686554 0.41414306
-0.2023373 -0.15984707 -0.033187464 -0.17165475 -1.2508104 -1.6162982 -1.3618703 -1.5660467
-0.9618637 -0.0019676362 -0.34003007 -0.07717231 0.119357094 0.26136792 0.3775774 0.41569474
0.049820144 0.0126602845 -0.06904908 -0.5618242 0.4636645 -0.087780125 -0.055446375 0.10660607
0.3657977 0.34504253 0.6127788 0.5040321 -0.13730082 -0.48210958 -0.2436946 0.40396217
0.07238488 -0.05305977 -0.12389969 -0.084623106 0.09784886 0.010299752 0.29848382 0.25355682
-1.3178667 -1.2051417 -0.44245902 -0.5880578 -0.10138245 0.27287498 -0.14826852 -0.1798585
0.3470913 0.119898915 -0.11705808 0.07624675 0.04139657 -0.5928878 -1.5076361 0.40003398
0.4171343 -0.035213917 -0.10687801 -0.25582656 0.0697574 -0.37667364 0.1568083 0.28284562
-0.008521527 -0.11592556 -0.22299458 -0.21333344 -1.4022256 -1.2336414 -1.0687596 -1.5425862
-0.36730462 -0.037193242 -0.6162531 0.44586435 0.1305216 -0.15111396 0.066420935 0.023684083
0.18092746 0.054695584 0.11175499 0.1517763 -0.0021981276 0.3366656 0.22812024 0.4212953
0.23434554 0.4229738 0.9069854 0.20862448 0.2135471 -0.20559663 0.3030131 -0.22828779
-0.12555122 -0.19300297 0.008462618 -0.090665564 0.06774464 0.05256094 -0.03855722 -0.14256546
-1.7646644 -0.5542582 -1.0168332 -0.54225934 0.27336702 -0.04762026 0.2874068 0.13723344
0.2680764 0.06904538 0.35643974 0.51345235 -0.6636335 -0.25329587 -1.4610128 -0.28010944
0.058065146 0.25003168 -0.09452896 -0.16069937 0.16142046 0.1560089 0.17762518 0.100770146
-0.061397288 -0.53737235 -0.1588192 -0.16694663 -0.82514036 -1.5253711 -1.1119937 -1.4263935
-0.71167 0.4835999 -0.5352566 -0.05863062 -0.061495952 -0.028728785 -0.015536967 0.03787008
-0.69549257 -0.2859768 -0.290814 0.20290421 0.30343077 -0.16573487 0.19207269 0.28161883
0.22980928 0.1840812 0.8987656 0.39728165 -0.10989312 0.35275802 -0.2553945 -0.71722496
-0.3263687 -0.2823384 -0.05201326 0.096875705 -0.24278817 -0.45803654 0.39455155 -0.12060027
-0.82297426 -0.117755674 -0.8412419 0.7877417 0.010067175 0.44802052 -0.021526547 0.010559392
0.1855831 -0.016246205 0.01816498 0.03539641 0.03999232 0.08942246 -0.69523776 0.82962227
-0.13563524 0.058264606 0.33922476 -0.036683127 0.092198975 -0.16947684 0.27501774 -0.0049787345
-0.17540531 0.08419968 -0.27898306 -0.12468324 -0.5222116 0.55985236 -0.35318854 -0.42527762
-0.901992 0.101758264 -0.66273004 -0.018166048 0.15113324 -0.20767322 -0.09934595 0.059248313
0.09978299 0.16554789 -0.16126107 0.08292432 0.19673283 -0.10037921 0.18085375 0.46626225
-0.13102393 0.1252119 0.21748699 0.24238248 -0.0018124814 -0.7319132 -0.23259291 -0.0300327
00000000: e62b 6fbe dace 7c3c c770 abbc f150 c63e
00000010: 981b a4bd d735 94bd 7e5c 5b3e 45ec 833e
00000020: 8e62 93bf 6cae 9dbf e454 35bf 05c1 5dbf
00000030: c7af 6abe 34ec bdbd 86b8 08be 2344 2cbe
00000040: 25ec fd3e 0905 663e 1365 ae3e eec1 05be
00000050: 4b8c 35bf e6ed 9cbd 9a8e b8bf 1db1 8abe
00000060: 341a ed3e 5aa0 873e ee71 573d 6394 693d
00000070: 9481 733e 11c7 8f3e 8fe6 b1bd 8f0a d43e
00000080: 8231 4fbe f3ae 23be 94ef 07bd 43c6 2fbe
00000090: 8e1a a0bf dce2 cebf c451 aebf 3874 c8bf
000000a0: b33c 76bf 75f3 00bb 6c18 aebe 840c 9ebd
000000b0: 7e71 f43d 04d2 853e d351 c13e f1d5 d43e
000000c0: 3510 4c3d 156d 4f3c 9b69 8dbd b6d3 0fbf
000000d0: 6f65 ed3e 11c6 b3bd bd1b 63bd 4954 da3d
000000e0: d649 bb3e 6aa9 b03e 12df 1c3f 3f08 013f
000000f0: 9698 0cbe 11d7 f6be 148b 79be 21d4 ce3e
00000100: 863e 943d 3455 59bd 1fbf fdbd e14e adbd
00000110: fc64 c83d 4ac0 283c dfd2 983e 33d2 813e
00000120: dbaf a8bf 1542 9abf fd89 e2be f58a 16bf
00000130: 9aa1 cfbd 45b6 8b3e b4d3 17be d42c 38be
00000140: f3b5 b13e 908d f53d 26bc efbd 4227 9c3d
00000150: 738f 293d 7fc7 17bf 38fa c0bf 41d1 cc3e
00000160: a192 d53e 783c 10bd dce2 dabd b3fb 82be
00000170: f8dc 8e3d 5edb c0be 5b92 203e 24d1 903e
00000180: e09d 0bbc 616a edbd b158 64be 1574 5abe
00000190: 217c b3bf f6e7 9dbf 1dcd 88bf 7773 c5bf
000001a0: 5a0f bcbe f157 18bd c3c2 1dbf 5548 e43e
000001b0: 74a7 053e 9ebd 1abe b307 883d 1f05 c23c
000001c0: 0c45 393e 7a08 603d cddf e43d 3f6b 1b3e
000001d0: 760e 10bb 6f5f ac3e 5a98 693e 04b4 d73e
000001e0: 47f8 6f3e 0690 d83e 3230 683f a8a1 553e
000001f0: 17ac 5a3e ec87 52be 8824 9b3e 46c4 69be
00000200: 8090 00be 92a2 45be cba6 0a3c deae b9bd
00000210: b4bd 8a3d 244a 573d 2dee 1dbd aefc 11be
00000220: 86e0 e1bf dee3 0dbf 9727 82bf 82d1 0abf
00000230: c3f6 8b3e 760d 43bd fc26 933e ec86 0c3e
00000240: 4f41 893e aa67 8d3d 457f b63e 9d71 033f
00000250: e3e3 29bf ffaf 81be 7802 bbbf 816a 8fbe
00000260: b8d5 6d3d 2704 803e 6698 c1bd 608e 24be
00000270: 684b 253e ccc0 1f3e 60e3 353e 9460 ce3d
00000280: b97b 7bbd 3c91 09bf 80a1 22be 0ff4 2abe
00000290: 663c 53bf 5c3f c3bf cf55 8ebf 1094 b6bf
000002a0: 0130 36bf 689a f73e 9406 09bf a926 70bd
000002b0: 2ee3 7bbd a158 ebbc c38e 7ebc a81d 1b3d
000002c0: cd0b 32bf 8d6b 92be 93e5 94be 1fc6 4f3e
000002d0: 475b 9b3e 67b6 29be b4ae 443e 5830 903e
000002e0: 2053 6b3e c87f 3c3e 8115 663f 8068 cb3e
000002f0: a50f e1bd b39c b43e 11c3 82be 0e9c 37bf
00000300: cc19 a7be a98e 90be db0b 55bd c566 c63d
00000310: 769d 78be c483 eabe a902 ca3e 46fd f6bd
00000320: 71ae 52bf e329 f1bd a15b 57bf 71a9 493f
00000330: cbf0 243c f262 e53e 7158 b0bc 4d01 2d3c
00000340: 7f09 3e3e c316 85bc b9ce 943c d3fb 103d
00000350: fdce 233d 1f23 b73d 1afb 31bf 2062 543f
00000360: f7e3 0abe dea6 6e3d deae ad3e 0c41 16bd
00000370: d1d2 bc3d 568b 2dbe 20cf 8c3e a724 a3bb
00000380: 739d 33be e270 ac3d ded6 8ebe ed59 ffbd
00000390: a9af 05bf 7c52 0f3f 21d5 b4be fdbd d9be
000003a0: f3e8 66bf a366 d03d ada8 29bf f7d0 94bc
000003b0: acc2 1a3e 4aa8 54be e475 cbbd 5cae 723d
000003c0: 065b cc3d 6385 293e 9f21 25be 3ad4 a93d
000003d0: 5574 493e 9e93 cdbd ba31 393e edb9 ee3e
000003e0: 232b 06be 8c37 003e e9b4 5e3e 1d33 783e
000003f0: c990 edba aa5e 3bbf d62c 6ebe 2307 f6bc

net.fc1.bias f4 [32]
0.6749138 0.48262447 0.6246714 -0.057758715 0.81105214 -0.37603143 0.2150555 -0.2042036
-0.1992248 0.6245645 0.46378282 0.4965756 -0.19028084 0.79326725 0.44383 -0.15608214
-0.08064752 0.66549313 0.655222 0.69264066 0.36712202 -0.12767921 -0.15274774 -0.11523923
-0.0328289 -0.17334878 0.4145903 0.3706402 0.35918716 0.79604197 -0.07653947 0.0428955
00000000: 27c7 2c3f 8e1a f73e 77ea 1f3f 6794 6cbd
00000010: 1da1 4f3f 3187 c0be 8237 5c3e c01a 51be
00000020: 9601 4cbe 76e3 1f3f f174 ed3e 283f fe3e
00000030: fbd8 42be 9013 4b3f b03d e33e ffd3 1fbe
00000040: 872a a5bd c25d 2a3f a1bc 273f e650 313f
00000050: 6bf7 bb3e 57be 02be e769 1cbe 8c02 ecbd
00000060: 9977 06bd 5882 31be 2e45 d43e 8dc4 bd3e
00000070: 61e7 b73e 68c9 4b3f bac0 9cbd 31b3 2f3d

net.out.weight f4 [4, 32]
0.7228669 0.72738224 0.7568969 -0.5918489 0.8972765 -0.7655402 0.55882776 -0.7766124
-0.8785967 0.67743665 0.56692314 0.5935058 -0.52014416 0.91160566 0.7154395 -0.7793366
-0.46825436 0.72036475 0.77568185 0.79513127 0.9207819 -0.04347296 -0.7647698 -0.76134866
-0.32660845 -0.74341536 0.51933193 0.538899 0.78828716 0.87833107 -0.55132085 -1.0720714
0.7265096 0.71471137 0.73917216 -0.7068299 0.8366963 -0.6827232 0.57064986 -0.8364238
-0.86583775 0.67375505 0.58617115 0.5867221 -0.58716786 0.909073 0.7211637 -0.644045
-0.46767685 0.7299201 0.79095435 0.79516983 0.9177003 -0.045435894 -0.6001263 -0.84917045
-0.57436115 -0.7466669 0.59522873 0.54404706 0.7670955 0.90272325 -0.5826096 -0.9718252
0.72857153 0.68982965 0.73986745 -0.9680854 0.805237 -0.77010894 0.5417816 -0.91914344
-0.8980229 0.6596106 0.5778194 0.59138095 -0.61060035 0.97336715 0.6559152 -0.5791913
-0.47108087 0.7013606 0.8270951 0.8151223 0.9255529 -0.3540665 0.0807062 -1.1259742
-0.61397976 -0.6981222 0.61904895 0.5416273 0.78166586 0.8944859 -0.5793387 -0.9376385
0.72908413 0.71841836 0.7559675 -0.5979443 0.8238581 -0.77226156 0.561691 -0.72141534
-0.87810516 0.67320645 0.5725928 0.6185456 -0.60604626 0.9555445 0.6916059 -0.47853708
-0.4719584 0.74651265 0.81420964 0.77807736 0.89190125 -0.6345353 -0.48583028 -0.74088013
-0.8345353 -0.50572664 0.62887734 0.53762066 0.7834551 0.8722008 -0.5376176 -1.12675
00000000: ce0d 393f b935 3a3f ffc3 413f 6983 17bf
00000010: eab3 653f 71fa 43bf 560f 0f3f 12d0 46bf
00000020: b7eb 60bf 7d6c 2d3f e021 113f ffef 173f
00000030: 2b28 05bf fd5e 693f 0b27 373f 9a82 47bf
00000040: 09bf efbe d369 383f 1693 463f b98d 4b3f
00000050: 5db8 6b3f b410 32bd f4c7 43bf bfe7 42bf
00000060: 3939 a7be 7850 3ebf f0f2 043f 49f5 093f
00000070: 30cd 493f 4eda 603f 5d23 0dbf a339 89bf
00000080: 88fc 393f 53f7 363f 633a 3d3f cef2 34bf
00000090: bb31 563f f3c6 2ebf 1c16 123f df1f 56bf
000000a0: 8ba7 5dbf 367b 2c3f 500f 163f 6b33 163f
000000b0: a250 16bf 02b9 683f 2f9e 383f 22e0 24bf
000000c0: 5773 efbe 0bdc 3a3f fc7b 4a3f 4090 4b3f
000000d0: 68ee 6a3f fd1a 3abd e1a1 19bf 3c63 59bf
000000e0: 5509 13bf 9025 3fbf e960 183f ab46 0b3f
000000f0: 5f60 443f df18 673f e725 15bf 89c9 78bf
00000100: aa83 3a3f ad98 303f f467 3d3f 72d4 77bf
00000110: 0324 4e3f dc25 45bf 33b2 0a3f fc4c 6bbf
00000120: d4e4 65bf 3edc 283f f9eb 133f be64 173f
00000130: 4e50 1cbf 972e 793f 0fea 273f e245 14bf
00000140: 8331 f1be 5e8c 333f 81bc 533f dbab 503f
00000150: 09f1 6c3f 3448 b5be 4b49 a53d ec1f 90bf
00000160: c72d 1dbf 23b8 32bf fe79 1e3f 16a8 0a3f
00000170: 411b 483f 07fd 643f 8b4f 14bf 1409 70bf
00000180: 42a5 3a3f 44ea 373f 1687 413f e112 19bf
00000190: 5de8 523f efb2 45bf fbca 0f3f adae 38bf
000001a0: 80cb 60bf 4257 2c3f 7195 123f 0159 1e3f
000001b0: d925 1bbf 909e 743f 160d 313f d002 f5be
000001c0: 88a4 f1be 741b 3f3f 0b70 503f 1430 473f
000001d0: a453 643f e870 22bf bfbe f8be 52aa 3dbf
000001e0: 1ba4 55bf 4d77 01bf 1bfe 203f 82a1 093f
000001f0: 8390 483f 8d48 5f3f 4fa1 09bf 5839 90bf

net.out.bias f4 [4]
-0.10218625 -0.11020002 -0.09744322 -0.11284388
00000000: 0647 d1bd 8cb0 e1bd 5090 c7bd b11a e7bd
