results/2048/tfe_light_model_weights.pt (torch, 13333 bytes, 6 tensors)

net.conv1.weight f4 [16, 1, 4, 4]
-0.13405003 0.17979702 0.032018293 0.08102618 0.13703233 -0.030107837 -0.023775721 -0.045308877
-0.009002514 -0.09293269 -0.041591216 -0.10736507 -0.10194821 -0.01700066 0.118415534 0.053164076
-0.1452003 -0.2036428 0.15485284 0.18636152 0.23892902 0.46057147 0.43445235 0.09089266
0.15102682 0.295313 0.48037633 0.008336358 0.1373204 0.41768792 0.24363887 -0.15014733
0.08590571 0.12742259 -0.16693652 -0.07949486 -0.12669577 0.18474561 -0.07450295 0.18167724
-0.027530408 -0.00045165204 -0.012528017 0.040535107 0.01864039 -0.07307452 -0.009198025 0.10553328
-0.07236557 0.023714764 -0.23547378 0.008581654 -0.030356737 0.11917541 0.24958433 -0.06669812
-0.13400754 0.013925632 0.07681702 0.048613433 -0.041426133 0.056572538 0.0059351 -0.099264406
-0.02005047 0.04803574 0.063260935 -0.092310734 -0.15065919 -0.03413219 -0.13855122 0.08448647
0.11955311 0.11076764 -0.077443875 0.17520764 0.11926149 -0.09104937 -0.013335785 -0.09079385
0.3684075 0.22605172 -0.018388284 0.13787057 -0.0039342055 0.051999085 0.036392298 0.061726164
0.034851454 0.08307649 0.0523321 0.061324596 0.043787885 -0.17820965 -0.10956515 -0.07934133
-0.11464067 0.19130099 0.13573267 -0.07527566 -0.15094455 0.15054949 0.2607562 -0.14161725
-0.03217225 -0.038671277 0.03208639 0.011555522 -0.015300149 0.1266926 -0.13932045 0.009134735
0.06973326 0.11215195 -0.034577414 -0.11956181 0.13620667 -0.063684136 0.21312915 -0.02078507
0.002457148 -0.11732537 0.13940632 -0.06741383 0.1844782 0.06762124 -0.072503544 -0.059819713
-0.06950076 0.0894576 0.058992296 0.16465116 -0.011446462 0.08403743 -0.17641823 -0.1896872
-0.1477567 0.110643245 -0.092674345 0.10134698 -0.001202202 0.09672996 -0.051625565 0.05707208
-0.18498766 0.07803602 0.16253291 -0.062074073 -0.013910931 0.10882103 -0.109076716 -0.02465864
0.17637372 -0.041096546 0.03835171 -0.06879058 -0.16660996 0.15136094 -0.10597934 0.05735806
0.012592096 -0.038162973 0.08397341 0.015193514 0.120283745 -0.13957258 -0.043379605 -0.026494747
0.073518425 -0.061187375 0.009749745 0.010336801 -7.907929e-05 -0.06291206 0.025555138 0.0057751746
0.06655113 -0.066532046 -0.20829524 0.52404034 0.018908124 0.01122032 -0.1916918 0.031534996
0.061079267 0.08124878 0.19343331 0.06617396 -0.02246202 -0.21638729 0.08587424 -0.042198405
-0.16263323 -0.20568168 0.03084272 -0.1598718 0.05309198 0.15710166 0.08154319 0.027386542
0.040460974 -0.11505945 -0.031229045 -0.061739273 -0.0841344 -0.1289205 0.029573629 0.15963796
0.048006516 -0.14949532 0.14019449 -0.0522921 0.013208724 -0.18489869 0.06686305 -0.094211504
0.058911543 0.027903667 0.105172664 0.045765493 -0.0045903516 -0.122275285 -0.08479386 0.16573599
0.060671415 0.08734945 -0.10576838 0.05674359 0.047339145 -0.10556758 0.08298234 0.09041359
-0.1603838 0.057192527 -0.01637286 -0.15107813 0.07185346 0.08730728 -0.010265342 -0.05153447
-0.08347229 0.0024305996 0.1055691 -0.19332086 0.09279278 -0.15219821 0.070331804 0.14268415
0.15265894 0.24074529 -0.14686179 0.08775669 -0.054194972 -0.06746591 0.12840861 -0.1148317
00000000: 6944 09be b61c 383e 9d25 033d 0ef1 a53d
00000010: 3452 0c3e b6a4 f6bc 4dc5 c2bc cd95 39bd
00000020: 487f 13bc 7f53 bebd 8d5b 2abd 38e2 dbbd
00000030: 39ca d0bd f844 8bbc d883 f23d 93c2 593d
00000040: 63af 14be bd87 50be be91 1e3e 8ed5 3e3e
00000050: cfa9 743e 06d0 eb3e 8a70 de3e ee25 ba3d
00000060: c6a6 1a3e 4433 973e e3f3 f53e 3895 083c
00000070: b89d 0c3e 31db d53e 787c 793e 39c0 19be
00000080: 55ef af3d 117b 023e 68f1 2abe 33ce a2bd
00000090: 89bc 01be f42d 3d3e 0195 98bd 9909 3a3e
000000a0: 7387 e1bc b6cb ecb9 5042 4dbc 2408 263d
000000b0: bbb3 983c 18a8 95bd 50b3 16bc d521 d83d
000000c0: 6634 94bd 7745 c23c 0a20 71be 119a 0c3c
000000d0: b1ae f8bc 3d12 f43d 0993 7f3e 0699 88bd
000000e0: 4639 09be 5628 643c 3e52 9d3d e11e 473d
000000f0: 73ae 29bd 9bb8 673d 3a7b c23b 234b cbbd
00000100: e240 a4bc 20c1 443d f38e 813d 690d bdbd
00000110: 6746 1abe 32ce 0bbd 5fe0 0dbe 3e07 ad3d
00000120: 43d8 f43d 25da e23d e59a 9ebd a269 333e
00000130: 5e3f f43d 1878 babd 567e 5abc 20f2 b9bd
00000140: e89f bc3e 1a7a 673e 07a3 96bc f12d 0d3e
00000150: 82ea 80bb fefc 543d 1710 153d 93d4 7c3d
00000160: 66c0 0e3d 0224 aa3d 2f5a 563d 802f 7b3d
00000170: ed5a 333d 977c 36be b263 e0bd b57d a2bd
00000180: bac8 eabd 68e4 433e 81fd 0a3e 202a 9abd
00000190: 3591 1abe a529 1a3e d681 853e 1d04 11be
000001a0: 0dc7 03bd c665 1ebd 056d 033d 5f53 3d3c
000001b0: 7aad 7abc b4bb 013e 05aa 0ebe dba9 153c
000001c0: 50d0 8e3d ecaf e53d 0ca1 0dbd d2dc f4bd
000001d0: c379 0b3e d46c 82bd 873e 5a3e 7345 aabc
000001e0: 1a08 213b 4948 f0bd 88c0 0e3e 4310 8abd
000001f0: dae7 3c3e 017d 8a3d bd7c 94bd 8405 75bd
00000200: 6a56 8ebd 8c35 b73d e8a1 713d 509a 283e
00000210: f189 3bbc d11b ac3d fba6 34be 5d3d 42be
00000220: 884d 17be ed98 e23d 0ccc bdbd 018f cf3d
00000230: 3593 9dba 5b1a c63d 5475 53bd 6ac4 693d
00000240: 686d 3dbe 59d1 9f3d 076f 263e 6241 7ebd
00000250: acea 63bc 8fdd de3d 9d63 dfbd eb00 cabc
00000260: 509b 343e da54 28bd af16 1d3d 13e2 8cbd
00000270: cd9b 2abe 5dfe 1a3e b20b d9bd 49f0 6a3d
00000280: 144f 4e3c c750 1cbd 40fa ab3d 37ee 783c
00000290: 5357 f63d 1dec 0ebe d0ae 31bd 830b d9bc
000002a0: d490 963d 9d9f 7abd 65bd 1f3c b05b 293c
000002b0: 5fd7 a5b8 0ad8 80bd 0259 d13c ad3d bd3b
000002c0: f54b 883d f441 88bd 594b 55be 8227 063f
000002d0: 36e5 9a3c 6fd5 373c db4a 44be d72a 013d
000002e0: 412e 7a3d c365 a63d 6213 463e 3786 873d
000002f0: 4502 b8bc a194 5dbe d5de af3d 3cd8 2cbd
00000300: 5389 26be 389e 52be dfa9 fc3c 6fb5 23be
00000310: fa76 593d 42df 203e 1e00 a73d be59 e03c
00000320: 68ba 253d 4aa4 ebbd 0ed4 ffbc 52e2 7cbd
00000330: a84e acbd bc03 04be 6544 f23c 2278 233e
00000340: 7ba2 443d 4d15 19be 258f 0f3e 3e30 56bd
00000350: 6769 583c 1556 3dbe 7fef 883d f6f1 c0bd
00000360: 3b4d 713d 3b96 e43c c464 d73d 9974 3b3d
00000370: a96a 96bb 776b fabd 67a8 adbd b2b6 293e
00000380: 9782 783d 45e4 b23d 189d d8bd f76b 683d
00000390: b1e6 413d d133 d8bd a5f2 a93d c32a b93d
000003a0: a73b 24be b642 6a3d 6020 86bc 3ab4 1abe
000003b0: e827 933d 29ce b23d f72f 28bc cf15 53bd
000003c0: 85f3 aabd b24a 1f3b 9d34 d83d e7f5 45be
000003d0: 240a be3d d9d9 1bbe 1f0a 903d cb1b 123e
000003e0: a052 1c3e ef85 763e f062 16be c8b9 b33d
000003f0: 8cfb 5dbd 912b 8abd 8c7d 033e e22c ebbd

net.conv1.bias f4 [16]
1.6234463 1.2349969 1.614618 1.4548148 1.6245736 -0.87692755 1.4939187 1.5040162
1.6417447 1.5419527 1.4770931 1.3143895 1.6862956 1.6820333 1.6685022 1.4144361
00000000: 17cd cf3f 6114 9e3f cdab ce3f 5f37 ba3f
00000010: 07f2 cf3f 537e 60bf ba38 bf3f 9a83 c03f
00000020: b124 d23f b55e c53f 6311 bd3f ea3d a83f
00000030: 89d8 d73f de4c d73f 7b91 d53f 3e0c b53f

net.fc1.weight f4 [32, 64]
-0.07884325 0.17062597 0.06400908 0.10953463 0.31979725 0.13381831 0.17265372 -0.10175405
0.36624527 -0.1627708 0.07655939 0.050723094 0.30248237 0.1630655 0.0885281 -0.16189203
-0.35290524 -0.48416018 -0.008554408 -0.16727118 0.21536827 0.6123637 0.7944521 0.55700415
0.41556275 -0.0708713 0.060481187 -0.08143433 0.23570584 0.233891 -0.029690871 0.14681877
-0.35622832 0.13052417 -0.31921348 -0.35384953 -0.10094618 0.17190973 0.0067817164 0.25729898
-0.68081045 0.0867423 -0.10539546 0.02332273 -0.28864318 0.042574584 0.018129118 0.09721561
0.276539 0.1990196 -0.19749342 0.077762626 -0.5962745 -0.3486488 -0.58914477 -0.28180644
-0.15445435 0.051093128 -0.12208747 -0.6152103 0.106647275 -0.18541934 0.06414145 -0.012399971
0.6452516 0.9108309 0.5179107 0.39173764 0.28205934 0.18327533 0.080637656 0.20841296
0.44374412 0.8610746 0.46497765 0.5726998 0.2555761 0.2526188 0.39456853 0.35710487
0.7632375 0.7929284 0.32899094 0.6351231 -1.8239855 -1.8040375 -0.7478288 -0.28518733
0.53002286 0.70127374 0.33115476 0.3002838 0.5036326 0.40482932 0.46675065 0.24306382
0.89534634 0.7091722 0.6491283 0.54253453 0.834007 0.3164616 0.7259586 0.21623892
0.6257689 0.4940122 0.48579317 0.4319578 0.39361593 0.3194955 0.22982721 0.44726077
0.52131987 0.8055495 0.8368161 0.60692877 0.62641716 0.95510685 0.6318826 0.6624931
0.68045396 0.49436915 0.85294867 0.6782538 0.37206692 0.5113589 0.37210226 0.3167592
0.29464838 0.4936242 0.3666105 0.20859471 -0.098766714 -0.011944777 0.022460664 -0.012636547
0.23946813 0.7238162 0.38326547 0.46053985 0.08359575 0.06460588 0.24724786 0.33976418
0.18903407 0.80324686 0.16394693 0.5154004 -1.0305448 -0.70368075 -0.69399744 -0.30077434
0.21299708 0.18891282 0.2195443 0.13777214 0.2957142 0.06778558 0.27071455 0.04229404
0.7210613 0.6886027 0.33354262 0.6877745 0.52058053 0.35993212 0.25101662 0.23044336
0.50569355 0.2019485 0.41732666 0.19595897 0.18047713 0.15901831 0.016176738 0.32046416
0.19637609 0.36237085 0.24561413 0.43637362 0.40410006 0.6436188 0.57929814 0.24728847
0.4798847 0.36783215 0.90494835 0.3557428 0.23021078 0.2408136 0.14923151 0.1508241
0.31355715 0.84816664 0.3085624 0.35586697 0.16506524 -0.09185521 0.04546828 0.38544104
0.16316277 0.7396826 0.43073913 0.5250633 0.19406852 0.09941918 0.21409883 0.18092942
0.2727696 0.79632777 0.25115782 0.3910594 -1.7733468 -1.63797 -1.3192263 -0.42970654
0.42000404 0.3717229 0.29563284 0.05896324 0.45637688 0.1476738 0.29424885 0.21937895
0.8397493 0.8050881 0.6382037 0.75299954 1.0108719 0.42483017 0.6173036 0.10378874
0.414236 0.41889057 0.45501617 0.23614545 0.073035635 0.26377782 0.0025107982 0.3340009
0.25319344 0.6109811 0.7851712 0.62930465 0.739759 0.8683809 0.7434688 0.8800062
0.7588714 0.41420564 1.0263803 0.7388385 0.12849475 0.305425 0.3669619 0.23343423
00000000: 9278 a1bd 93b8 2e3e 3117 833d b153 e03d
00000010: 77bc a33e ab07 093e 23cc 303e 6d64 d0bd
00000020: 8084 bb3e 63ad 26be 2bcb 9c3d 05c3 4f3d
00000030: f8de 9a3e a4fa 263e 384e b53d 06c7 25be
00000040: ffaf b4be d8e3 f7be ca27 0cbc 2349 2bbe
00000050: 8089 5c3e dec3 1c3f 3661 4b3f d397 0e3f
00000060: a4c4 d43e f924 91bd 1fbb 773d 0bc7 a6bd
00000070: df5c 713e 1f81 6f3e 453a f3bc a957 163e
00000080: 8f63 b6be 21a8 053e f36f a3be c42b b5be
00000090: dfbc cebd 1b09 303e 2939 de3b b1bc 833e
000000a0: 9849 2ebf f2a5 b13d 93d9 d7bd 4f0f bf3c
000000b0: 0ac9 93be b062 2e3d 8483 943c fa18 c73d
000000c0: 8596 8d3e cbcb 4b3e b73b 4abe 0342 9f3d
000000d0: 72a5 18bf 1882 b2be 31d2 16bf ef48 90be
000000e0: 4829 1ebe 0747 513d ff08 fabd 6c7e 1dbf
000000f0: e369 da3d 91de 3dbe 985c 833d 3f29 4bbc
00000100: 352f 253f 372c 693f cc95 043f d691 c83e
00000110: 156a 903e 87ac 3b3e 5b25 a53d 356a 553e
00000120: 6e32 e33e 636f 5c3f 8d11 ee3e 749c 123f
00000130: dfda 823e 4057 813e e304 ca3e 73d6 b63e
00000140: 8863 433f 5bfd 4a3f 8071 a83e 6d97 223f
00000150: 5b78 e9bf b3ea e6bf b571 3fbf 1304 92be
00000160: 94af 073f ad86 333f 1e8d a93e ccbe 993e
00000170: 11ee 003f ca45 cf3e f1f9 ee3e b9e5 783e
00000180: 6b35 653f 4f8c 353f 462d 263f 8be3 0a3f
00000190: 7c81 553f 4107 a23e 6cd8 393f bc6d 5d3e
000001a0: 6432 203f 2bef fc3e e2b9 f83e 9329 dd3e
000001b0: 0788 c93e ea94 a33e d357 6b3e 5dff e43e
000001c0: 3875 053f 7e38 4e3f 9439 563f af5f 1b3f
000001d0: e05c 203f e281 743f 0fc3 213f 2699 293f
000001e0: 3b32 2e3f f41d fd3e d85a 5a3f 0ba2 2d3f
000001f0: 8e7f be3e 6be8 023f 3084 be3e 432e a23e
00000200: 27dc 963e 50bc fc3e 5fb4 bb3e da99 553e
00000210: 3446 cabd 07b4 43bc 6dff b73c 8509 4fbc
00000220: 2237 753e 054c 393f 5f3b c43e e1cb eb3e
00000230: 4034 ab3d 1650 843d 8b2e 7d3e 92f5 ad3e
00000240: 2692 413e 96a1 4d3f b4e1 273e 48f1 033f
00000250: e4e8 83bf 6c24 34bf d1a9 31bf 18ff 99be
00000260: e81b 5a3e 5d72 413e 39d0 603e 2414 0d3e
00000270: da67 973e 2bd3 8a3d 199b 8a3e 843c 2d3d
00000280: 7997 383f 4448 303f 19c6 aa3e fd11 303f
00000290: c444 053f 0649 b83e 4085 803e 58f9 6b3e
000002a0: 2275 013f 96cb 4e3e d7ab d53e 78a9 483e
000002b0: ffce 383e b2d5 223e 1485 843c e113 a43e
000002c0: d016 493e ac88 b93e 4582 7b3e 5d6c df3e
000002d0: 34e6 ce3e 34c4 243f e24c 143f 3039 7d3e
000002e0: 73b3 f53e 7f54 bc3e b2aa 673f ec23 b63e
000002f0: 60bc 6b3e d797 763e 25d0 183e a271 1a3e
00000300: 908a a03e 7321 593f e4fb 9d3e 3234 b63e
00000310: dd06 293e 961e bcbd f23c 3a3d 8758 c53e
00000320: 2414 273e d75b 3d3f d789 dc3e 8c6a 063f
00000330: e6b9 463e 489c cb3d b93c 5b3e 9045 393e
00000340: 75a8 8b3e 23dc 4b3f c297 803e f038 c83e
00000350: 07fd e2bf 00a9 d1bf 68dc a8bf 7f02 dcbe
00000360: c50a d73e 7752 be3e 305d 973e 7083 713d
00000370: 3baa e93e cd37 173e c9a7 963e e0a4 603e
00000380: cff9 563f 411a 4e3f 5161 233f 94c4 403f
00000390: 4064 813f 5783 d93e 9c07 1e3f 318f d43d
000003a0: be16 d43e d378 d63e e1f7 e83e 1dd0 713e
000003b0: b593 953d e30d 873e 348c 243b 2a02 ab3e
000003c0: 92a2 813e 4269 1c3f fb00 493f 1c1a 213f
000003d0: d960 3d3f 364e 5e3f f953 3e3f 1648 613f
000003e0: 6545 423f c312 d43e 6e60 833f 8524 3d3f
000003f0: 2194 033e aa60 9c3e 6ee2 bb3e 6209 6f3e

net.fc1.bias f4 [32]
-0.23193814 1.1431813 0.8842686 1.1691554 -0.4310359 -0.5719126 0.88710105 0.96145964
-0.08041022 -0.37947124 1.1340841 1.1171539 -0.2010997 1.20031 1.1783092 1.1400151
-0.33439714 -0.31305307 0.06854114 1.0374423 1.082664 0.21240272 1.2803638 1.1293478
1.2243366 -0.38804892 1.2032368 1.122092 1.0082937 1.2859857 -0.45710754 -0.28314617
00000000: 3181 6dbe c453 923f 6d5f 623f e2a6 953f
00000010: bdb0 dcbe dd68 12bf 0e19 633f 3822 763f
00000020: 1dae a4bd 0e4a c2be ab29 913f e6fe 8e3f
00000030: 14ed 4dbe c2a3 993f d6d2 963f 04ec 913f
00000040: 1a36 abbe 7e48 a0be 4c5f 8c3d e9ca 843f
00000050: bc94 8a3f 1980 593e f6e2 a33f 788e 903f
00000060: 10b7 9c3f 59ae c6be aa03 9a3f b6a0 8f3f
00000070: c50f 813f 2e9b a43f 000a eabe 89f8 90be

net.out.weight f4 [4, 32]
-0.50156057 0.5480775 0.555486 0.5234353 -0.88381433 -1.4187638 0.48830727 0.52018523
-1.8145579 -1.2442142 0.5542434 0.41973934 0.3515365 0.31531405 0.4575407 0.47587973
-1.3251358 -1.124029 0.43661973 0.91923785 0.4890602 -1.6738704 0.40977302 0.50472957
0.42392188 -1.5890135 0.55777454 0.5653756 0.4574799 0.5331031 -1.377001 -0.87317246
-0.63826346 0.38692054 0.42508763 0.67433256 -0.8960684 -1.4758092 0.39872813 0.556272
-1.6910293 -1.1597602 0.48531103 0.3236265 0.29397818 0.4761047 0.5084867 0.50174785
-1.5321038 -1.3310009 0.42961326 0.7259005 0.4133366 -1.4490163 0.5275624 0.3998795
0.5274547 -1.5047662 0.49544033 0.6455677 0.62116975 0.5019502 -1.1055843 -0.9117394
-1.2095779 0.51965415 0.20551455 0.6374238 -1.031387 -1.3842313 0.56980246 0.86751276
-0.7590801 -1.4010577 0.4886069 0.51597834 -0.8611005 0.53962314 0.41530928 0.54312474
-1.4220457 -1.388171 -0.40291107 0.39490053 0.5191093 -1.5880221 0.46553564 0.3763387
0.45448488 -1.0767711 0.4035687 0.55673224 0.73615116 0.41476563 -0.6328123 0.1946045
-1.2680458 0.57011765 0.4833726 0.57824606 -1.0118793 -1.3995174 0.28320047 0.831284
-0.80258954 -1.3830268 0.49712905 0.52379256 -0.82767403 0.58195984 0.56732047 0.3800053
-1.3697025 -1.5404598 -0.399315 0.71112216 0.34959236 -1.6324637 0.5049117 0.530177
0.5113586 -1.1151133 0.33196768 0.55213225 0.43406603 0.41000268 -0.40278322 0.05463241
00000000: 4666 00bf cf4e 0c3f 5534 0e3f dbff 053f
00000010: a841 62bf 0d9a b5bf 6903 fa3e dc2a 053f
00000020: 6f43 e8bf 6942 9fbf e5e2 0d3f 13e8 d63e
00000030: 98fc b33e d870 a13e c642 ea3e 82a6 f33e
00000040: 0d9e a9bf 2fe0 8fbf 9f8c df3e 2c53 6b3f
00000050: 1966 fa3e 6341 d6bf c5cd d13e f535 013f
00000060: 4a0c d93e cb64 cbbf 50ca 0e3f 75bc 103f
00000070: ce3a ea3e 7279 083f 9241 b0bf 3b88 5fbf
00000080: 3c65 23bf 731a c63e 16a5 d93e 0fa1 2c3f
00000090: bd64 65bf 51e7 bcbf 1826 cc3e d767 0e3f
000000a0: a673 d8bf 0673 94bf b07a f83e 5fb2 a53e
000000b0: 4f84 963e ffc3 f33e 2f2c 023f 8c72 003f
000000c0: fa1b c4bf 3d5e aabf 45f6 db3e 9dd4 393f
000000d0: dba0 d33e 5e79 b9bf 540e 073f 01bd cc3e
000000e0: 4507 073f 2e9c c0bf 5baa fd3e ed43 253f
000000f0: fb04 1f3f cf7f 003f c983 8dbf c167 69bf
00000100: 73d3 9abf 0e08 053f 6872 523e 352e 233f
00000110: 7d04 84bf 7e2e b1bf 93de 113f 5115 5e3f
00000120: 1353 42bf dc55 b3bf af2a fa3e 2817 043f
00000130: 1571 5cbf be24 0a3f 6ba3 d43e 390a 0b3f
00000140: 9805 b6bf 96af b1bf 5c4a cebe 6730 ca3e
00000150: 59e4 043f 4f44 cbbf b05a ee3e 77af c03e
00000160: 3eb2 e83e a3d3 89bf 8fa0 ce3e 0186 0e3f
00000170: 6774 3c3f 295c d43e fdff 21bf 6746 473e
00000180: 534f a2bf 3bf3 113f 9d7c f73e ef07 143f
00000190: 4385 81bf 6323 b3bf a7ff 903e 07cf 543f
000001a0: 8276 4dbf 0607 b1bf b387 fe3e 4517 063f
000001b0: 72e2 53bf 52fb 143f ea3b 113f 0e90 c23e
000001c0: 6952 afbf c92d c5bf 0473 ccbe 1a0c 363f
000001d0: c5fd b23e 92f4 d0bf e541 013f aeb9 073f
000001e0: 66e8 023f 08bc 8ebf abf7 a93e 8a58 0d3f
000001f0: e73d de3e dfeb d13e 9a39 cebe 3cc6 5f3d

net.out.bias f4 [4]
0.88466567 0.80807674 0.7245729 0.8085501
00000000: 7379 623f 1ede 4e3f 9c7d 393f 24fd 4e3f
