results/PokerGPU/poker_qnet_final.pth (torch, 134421 bytes, 10 tensors)

0.weight f4 [128, 40]
0	0x3db68ac7	0.089131884
1	0xbbef69dc	-0.0073063206
2	0xbe0b787e	-0.13620183
3	0x3ef94ea3	0.48692808
4	0x3f37f8a9	0.718638
5	0x3dc25b65	0.094900884
6	0x3da2e6c3	0.079541706
7	0x3f342163	0.70363444
8	0xbc5215cc	-0.01282258
9	0x3d917b39	0.07103581
10	0x3dd50342	0.10401012
11	0xbcaf1119	-0.021370457
12	0xbf42fc97	-0.7616667
13	0x3ddd2929	0.10798866
14	0xbe6f4633	-0.23366623
15	0x3d85185e	0.06498788
16	0x3d5534c7	0.052052286
17	0x3d47dd51	0.04879505
18	0x3dd61273	0.10452738
19	0xbd264808	-0.040596038
20	0x3cab2923	0.020893639
21	0x3dc86643	0.0978513
22	0xbbe4cc9d	-0.0069823996
23	0x3df5ed02	0.12008096
24	0x3e0a8468	0.13527071
25	0x3dd7cee6	0.105375096
26	0xbdce45e8	-0.10071927
27	0x3dd5cd69	0.104395695
28	0xbd745d29	-0.059659157
29	0xbe121a00	-0.1426773
30	0xbd67c88b	-0.056587737
31	0xbd776037	-0.060394492
32	0xbdc03208	-0.09384543
33	0x3d61e257	0.055147495
34	0x3e0ff3db	0.14057867
35	0xbe4b6bd7	-0.19865356
36	0x3c504cb9	0.012713605
37	0xbc88ea9c	-0.016713433
38	0xbe6c1dad	-0.23058195
39	0x3e41372d	0.18868704
40	0x3e119c8c	0.14219874
41	0x3db4b53f	0.088236324
42	0x3d9c0c1f	0.076194994
43	0x3e5749a1	0.21024181
44	0xbded2f45	-0.115812816
45	0xbcfe0f4b	-0.031013152
46	0xbd36e41f	-0.044651147
47	0x3cffc125	0.031220028
48	0xbe866722	-0.2625056
49	0xbd3bdbf5	-0.045864064
50	0x3b043f4e	0.0020179334
51	0x3da5ea51	0.08101333
52	0xbe67b91b	-0.22629206
53	0x3d42d8e4	0.047570124
54	0x3e10e788	0.14150822
55	0x3e2e7cb7	0.17039762
56	0xbe3c0d75	-0.18364508
57	0xbdbc4b53	-0.091940545
58	0x3dd61634	0.10453454
59	0xbe2055c2	-0.15657714
60	0xbeb34951	-0.35016873
61	0xbdafa929	-0.085771866
62	0x3c31b70a	0.010846863
63	0xbe229db4	-0.15880471
64	0xbd17f679	-0.03710029
65	0xbd9253e2	-0.071449056
66	0xbeb79eec	-0.35863435
67	0x3bae30fe	0.005315899
68	0xbe95dce3	-0.29270086
69	0xbeaeb50d	-0.34122506
70	0xbdfb43b3	-0.12268772
71	0xbd659182	-0.05604697
72	0xbe1b7de1	-0.15184738
73	0xbde60534	-0.11231461
74	0x3cdcd331	0.026956173
75	0xbe93f553	-0.28898105
76	0xbe42c32e	-0.19019768
77	0xbe17c238	-0.14820182
78	0xbdccb170	-0.09994781
79	0xbdf28731	-0.11842192
80	0x3ed04e13	0.40684566
81	0x3e95f487	0.29288122
82	0x3e990a23	0.29890546
83	0x3e53b786	0.20675477
84	0xbe0f88ec	-0.14017075
85	0xbc06659d	-0.008202937
86	0x3d66e008	0.056365997
87	0x3ed45c49	0.41476658
88	0xbea46936	-0.3211152
89	0xbd52b14d	-0.05143862
90	0x3e4ea3a6	0.20179614
91	0x3df3a6f7	0.118970804
92	0xbf0efa29	-0.55850464
93	0x3b869b34	0.004107857
94	0xbe04f66f	-0.12984632
95	0x3d639e67	0.055570986
96	0xbcb45557	-0.02201335
97	0xbe8d842a	-0.27639896
98	0xbc721c4e	-0.014777256
99	0x3d155fe1	0.03646839
100	0xbda37742	-0.07981731
101	0x3e4dd885	0.20102127
102	0x3c5a1b10	0.013312116
103	0xbeb15bc6	-0.3464033
104	0x3e151423	0.14558463
105	0x3d8abcfe	0.06774329
106	0xbe89181c	-0.26776206
107	0x3e364ace	0.17801973
108	0x3dc5c9fc	0.09657666
109	0xbec647ef	-0.38726756
110	0x3e388382	0.18018916
111	0xbd45ca1a	-0.048288442
112	0xbf000b78	-0.500175
113	0x3da7c4ce	0.081918344
114	0x3ba1599d	0.004924013
115	0xbf00ddc8	-0.5033841
116	0xbd912d2d	-0.07088695
117	0xbbcfaf47	-0.0063380334
118	0xbec2c721	-0.38042548
119	0x3db79d1b	0.08965512
120	0x3e07dbc7	0.13267432
121	0x3e4c2651	0.19936492
122	0x3e23b568	0.1598717
123	0x3e72708b	0.23675744
124	0x3eb54ec4	0.35411656
125	0x3c3f5fe9	0.011680582
126	0x3e170442	0.14747718
127	0x3dd679bb	0.10472437
128	0x3e7f5d01	0.24937822
129	0xbf05c277	-0.52249855
130	0x3b447ac6	0.0029980405
131	0x3d2c2605	0.042028446
132	0xbcf932dd	-0.030419761
133	0xbc88fc7d	-0.016721958
134	0x3e807af4	0.25093806
135	0xbd98f52c	-0.07468638
136	0xbc37a1f5	-0.011208047
137	0x3e3526cf	0.17690586
138	0xbce8b0cc	-0.028404616
139	0x3da35fd9	0.07977266
140	0x3eb09344	0.34487355
141	0xbbc3a6bd	-0.0059708045
142	0x3cc1aaef	0.023641078
143	0x3ea1ca17	0.31599495
144	0xbe0072b8	-0.12543762
145	0xbb846b99	-0.004041147
146	0x3e01cf3c	0.1267671
147	0xbce75697	-0.028239531
148	0x3d713784	0.058890834
149	0x3de0411c	0.10949919
150	0x3de0add2	0.109706536
151	0x3cd3cdda	0.025854994
152	0x3d93b271	0.07211769
153	0x3d35fd02	0.04443074
154	0xbda133e2	-0.07871224
155	0xbda4f19a	-0.08053894
156	0x3d936eac	0.07198843
157	0x3d1f9d5a	0.03896842
158	0xbdeb9d69	-0.11504633
159	0xbbff0d78	-0.007783588
160	0xbe72b7bd	-0.23702903
161	0xbe9509fc	-0.2910918
162	0xbe9e454c	-0.30912244
163	0xbebbfa58	-0.36714435
164	0xbd095e01	-0.033536915
165	0xbe422f3d	-0.18963332
166	0xbd7781fb	-0.060426693
167	0xbe91df57	-0.28490707
168	0x3e0810d5	0.13287671
169	0xbddc6505	-0.107614554
170	0x3d7ffe7a	0.062498547
171	0xbd86fe2a	-0.06591447
172	0xbdcb92ff	-0.09940147
173	0x3dc01a6b	0.09380039
174	0x3ddc2bb5	0.10750524
175	0x3d8b8f26	0.06814413
176	0xbd1b911c	-0.037980184
177	0xbdbf9cb3	-0.0935606
178	0x3dc3d36f	0.09561812
179	0xbdad17e6	-0.08451824
180	0xbca86106	-0.020554077
181	0x3d720e93	0.05909593
182	0x3dd61f2f	0.104551665
183	0x3e22a138	0.15881813
184	0x3dd9fc90	0.106438756
185	0xbdf76285	-0.12079338
186	0x3e1a1146	0.15045652
187	0xbd0f8cc7	-0.035046365
188	0xbdf8f633	-0.12156334
189	0x3da4d3fe	0.08048247
190	0xbb66767a	-0.0035165832
191	0xbc2f9e9a	-0.010718966
192	0x3db83dbe	0.089961514
193	0xbd3714f5	-0.04469772
194	0x3c2e23a6	0.010628616
195	0xbcdd932c	-0.027047716
196	0xbd136847	-0.03598812
197	0xbd6d61e6	-0.05795469
198	0x3e122bbd	0.14274497
199	0x3bc5cba3	0.0060362383
200	0xbdd5f83a	-0.10447736
201	0xbcb06221	-0.021531167
202	0x3df40140	0.11914301
203	0xbf13de14	-0.5776074
204	0xbeb7d4af	-0.35904452
205	0xbe2cb99d	-0.16867681
206	0xbd1951f9	-0.03743169
207	0xbf1c2da6	-0.61007154
208	0x3ef5822e	0.47950882
209	0x3dce6e4c	0.10079631
210	0xbe25ad58	-0.16179407
211	0xbad11b02	-0.0015953484
212	0x3f71a802	0.94396985
213	0xbbfa2f93	-0.007635066
214	0x3eac901b	0.33703694
215	0xbcd711ac	-0.026253544
216	0x3c9a4ef1	0.01883647
217	0x3ebb7642	0.3661366
218	0xb8fe0395	-0.00012112331
219	0xbc98b7f2	-0.0186424
220	0x3ee741d7	0.4516742
221	0x3c5614ba	0.013066465
222	0xbd30220d	-0.043001223
223	0x3ee4f14a	0.4471534
224	0x3cfc8835	0.030826667
225	0xbcb275c5	-0.021784673
226	0x3ee4f73d	0.44719878
227	0xbdd90efd	-0.10598562
228	0x3d746bd5	0.05967315
229	0x3ed85ac7	0.42256758
230	0xbe0d476d	-0.13796778
231	0xbcacfb05	-0.02111579
232	0x3ef67aee	0.48140663
233	0xbc9e74ee	-0.019342866
234	0x3c9d3cae	0.019193973
235	0x3eb07298	0.34462428
236	0xbde36c98	-0.11104697
237	0xbc9ce52c	-0.019152246
238	0x3ef10123	0.4707118
239	0x3af60c41	0.0018771962
240	0xbda00f6f	-0.07815444
241	0xbc9fd916	-0.019512694
242	0x3dfec0f6	0.12439148
243	0xbcb7e8fe	-0.022449967
244	0x3e82a0f5	0.25513425
245	0xbe08515e	-0.13312289
246	0xbe212bde	-0.1573939
247	0xbd8d5d26	-0.06902532
248	0x3da08869	0.07838518
249	0xbe5e5b45	-0.21714504
250	0x3daf5b9f	0.08562397
251	0x3c9022d2	0.017594729
252	0x3b7944ff	0.003803551
253	0x3c9490b4	0.018135406
254	0xbddf5373	-0.109045886
255	0x3d8e57b7	0.06950324

0.bias f4 [128]
0	0xbe034d51	-0.12822463
1	0x3d1eb74f	0.038749035
2	0xbe83059d	-0.2559022
3	0x3e699cde	0.22813746
4	0x3e03a65d	0.12856431
5	0x3f1db035	0.61596996
6	0x3d4bf00e	0.04978948
7	0x3e274912	0.16336468
8	0x3ec12870	0.37726164
9	0x3efb6245	0.4909841
10	0x3ec3dbfc	0.38253772
11	0xbde799fc	-0.11308667
12	0x3e2962c7	0.16541587
13	0x3eb9f10a	0.3631671
14	0x3eac866d	0.3369631
15	0x3eb42d1c	0.35190666
16	0xbe7c0e32	-0.2461479
17	0x3e8d923f	0.2765064
18	0x3f273b59	0.6532493
19	0x3f116bdc	0.56805205
20	0x3f23f8d6	0.6405157
21	0x3e02b310	0.1276362
22	0x3eb9209d	0.36157694
23	0x3f1eeb3a	0.6207768
24	0x3f09fb44	0.53899026
25	0xbec7009a	-0.38867646
26	0xbee3cced	-0.44492283
27	0x3ec1bb3b	0.37838158
28	0xbd0dc0ca	-0.034607686
29	0xbf13cbcd	-0.5773285
30	0x3f024fd6	0.5090307
31	0x3f15cbda	0.5851418
32	0x3f168678	0.58798933
33	0x3ee64a48	0.44978547
34	0x3ecd5c17	0.4010932
35	0x3ee4639c	0.44607246
36	0x3eb10860	0.34576702
37	0xbf23cf4d	-0.6398819
38	0x3e6a97fe	0.22909543
39	0x3f08eac5	0.5348323
40	0x3e82a5ec	0.25517213
41	0x3ebb8564	0.36625206
42	0x3f18d04d	0.5969284
43	0xbd8ce2a8	-0.06879169
44	0x3ebe8a45	0.37214866
45	0x3eb638b3	0.35590133
46	0x3da65652	0.08121933
47	0x3ea845d9	0.3286579
48	0xbb3636e4	-0.0027803713
49	0x3e2e4f15	0.17022355
50	0x3f29376f	0.6610021
51	0x3ea13b4f	0.3149056
52	0xbe73d472	-0.2381151
53	0x3df4b0db	0.11947795
54	0x3e0b31ce	0.13593218
55	0x3eb0a900	0.34503937
56	0x3efd6fe1	0.4949942
57	0xbd715930	-0.058922946
58	0x3f069944	0.52577615
59	0xbdbc5df3	-0.09197607
60	0xbdfee081	-0.124451645
61	0x3f00a5f8	0.5025325
62	0x3f1cc5c5	0.6123927
63	0xbf535121	-0.8254567
64	0xbf95f3a7	-1.1714982
65	0x3de7cf87	0.113188796
66	0x3e5f0714	0.21780044
67	0x3e668d20	0.22514772
68	0x3ee2ed28	0.4432156
69	0x3eecb125	0.462289
70	0x3f1eedbd	0.6208151
71	0x3f31a9ac	0.69399524
72	0xbe13d601	-0.14437105
73	0x3eef3cc0	0.46726036
74	0x3d556a1c	0.052103147
75	0x3f4416ac	0.76597095
76	0x3f226215	0.6343091
77	0x3f235dad	0.6381481
78	0xbf1c800b	-0.6113288
79	0x3db38e76	0.08767407
80	0xbf5956bb	-0.84897965
81	0xbf862455	-1.0479838
82	0xbde20d55	-0.11037699
83	0x3f118d5b	0.56856316
84	0xbe8ee300	-0.27907562
85	0xbe9292c0	-0.28627586
86	0x3ed89b98	0.4230621
87	0xbec772b0	-0.38954687
88	0x3e830142	0.25586897
89	0x3e25df74	0.16198522
90	0xbe9d2a6e	-0.30696434
91	0x3ebcc233	0.36866912
92	0x3eff8107	0.49903128
93	0x3e7c1b01	0.24619676
94	0xbee6ec62	-0.4510222
95	0x3d627179	0.055283997
96	0x3f0784f4	0.52937245
97	0xbf5a98e9	-0.8538957
98	0x3e7614a3	0.2403131
99	0xbe1ffe35	-0.15624316
100	0xbf1d4437	-0.6143221
101	0x3f05a5ae	0.5220593
102	0x3e4e06da	0.20119801
103	0xbe0cc422	-0.13746694
104	0x3db66ca5	0.08907441
105	0xbf6d1cda	-0.9262215
106	0xbb8151cb	-0.003946518
107	0x3e59e96b	0.21280448
108	0x3db58b06	0.08864407
109	0x3e03fbc0	0.12889004
110	0x3db9abde	0.09065984
111	0x3f2596b1	0.6468306
112	0x3e5f2060	0.21789694
113	0xbda72b32	-0.08162536
114	0xbf63e3f0	-0.8901968
115	0x3e871528	0.26383328
116	0xbf1cb225	-0.61209327
117	0x3ebf082d	0.37310925
118	0xbe1aace9	-0.15105022
119	0xbe99f656	-0.30070752
120	0x3e643eee	0.22289631
121	0x3e51f812	0.20504788
122	0xbc807155	-0.01567904
123	0x3f2ccdf6	0.6750177
124	0x3f008af6	0.5021204
125	0xbf927c0f	-1.144411
126	0x3e729870	0.23690963
127	0x3f2ac1d1	0.6670199

2.weight f4 [128, 128]
0	0xbbd146ef	-0.00638663
1	0xbceed5ea	-0.029154737
2	0x3a984bea	0.0011619304
3	0xbcf6235f	-0.030046163
4	0x3d7548ad	0.059883762
5	0xbd190bfe	-0.037364952
6	0xbd3078eb	-0.043084066
7	0xbd1ed336	-0.038775645
8	0x3bf49d3d	0.0074650333
9	0xbbe5cb63	-0.007012771
10	0x3d2a6bb6	0.041606627
11	0x3da2cee2	0.07949616
12	0xbb8ca9bf	-0.0042926962
13	0xbd844506	-0.06458478
14	0xbdc9c8c6	-0.098527476
15	0xbced6f25	-0.028983662
16	0xbb912bbf	-0.004430264
17	0xbd348dd3	-0.044080567
18	0xbdc59b67	-0.09648781
19	0xbca3f9f9	-0.020016657
20	0xbc1e7630	-0.009671733
21	0xbdae7d95	-0.085200466
22	0x3dfa77ea	0.12229903
23	0xbda0cf47	-0.07852035
24	0xbb2dd891	-0.0026526789
25	0xbd9ae8a5	-0.07563905
26	0x3c43684c	0.011926722
27	0xbd74c1d8	-0.059755176
28	0xbdc3de23	-0.095638536
29	0xbd2de79b	-0.042457204
30	0xbdb08c67	-0.086205296
31	0xbdc57d5a	-0.096430495
32	0xbd966832	-0.073440924
33	0x3c1ee50e	0.009698166
34	0x3d13a17a	0.036042668
35	0x3cfcd12d	0.030861462
36	0x3ce409a0	0.02783662
37	0x3d18717f	0.037217613
38	0xbc5fb8c3	-0.0136548905
39	0x3d7f06dd	0.062262405
40	0x3d3ca6d5	0.04605754
41	0xbd45a6ff	-0.048254963
42	0xbd84f183	-0.06491377
43	0xba9dcc4e	-0.0012039037
44	0x3c46a316	0.012123844
45	0x3d1ef622	0.03880895
46	0xbdaebfe9	-0.08532698
47	0xbba6f7fc	-0.00509548
48	0xbd618759	-0.05506072
49	0x3c37b2b9	0.011212044
50	0x3d81f6c7	0.06345897
51	0x3c080883	0.008302811
52	0xbd49831c	-0.0491973
53	0xbd86e75e	-0.065870985
54	0x3d8cf4fd	0.06882665
55	0x3d55731c	0.05211173
56	0xbca6b740	-0.020351052
57	0x3ab13d5b	0.0013522314
58	0xbd62817f	-0.05529928
59	0x3c299b83	0.010352018
60	0x3c6bb9f3	0.0143875955
61	0x3d998aa3	0.07497146
62	0xbe0484f7	-0.12941347
63	0x3cd63753	0.026149428
64	0xb99f9dda	-0.00030444452
65	0xbd11559d	-0.035482038
66	0x3da9545d	0.08268044
67	0xbdbd6217	-0.09247225
68	0xbdda2fa5	-0.10653619
69	0x3d2fcb1d	0.042918313
70	0xbde7a427	-0.113106064
71	0xbdd38312	-0.10327734
72	0x3cd0cfc5	0.025489697
73	0xbce4026b	-0.027833184
74	0x3c2d0386	0.010559922
75	0x3a10b325	0.00055198587
76	0xbd67ad51	-0.05656177
77	0xbcacde62	-0.021102134
78	0x3cf1de19	0.02952485
79	0x3d8473f7	0.06467431
80	0xbc19a216	-0.009377023
81	0xbcb7b91d	-0.022427136
82	0xbd1e53e8	-0.038654238
83	0x3d486729	0.048926506
84	0xbab59339	-0.001385308
85	0x3d1a1ef5	0.03762718
86	0xbd29ba54	-0.041437462
87	0xbdb13cbd	-0.08654163
88	0x3a9dd59e	0.0012041812
89	0x3c8c625b	0.017136743
90	0xbe18f65d	-0.1493773
91	0xb8cae370	-9.674474e-05
92	0xbd73f7a8	-0.059562355
93	0x3993d803	0.00028198966
94	0x3d7e1bdc	0.062038288
95	0xbcff074b	-0.031131407
96	0xbd9b74e0	-0.075906515
97	0x3dd06869	0.10176165
98	0xbd8c2d41	-0.06844569
99	0xbdd917f4	-0.10600272
100	0xbd0fc3ce	-0.035098843
101	0xbd1638da	-0.03667531
102	0xbd367e1c	-0.04455386
103	0x3d0cdf6b	0.034392755
104	0xbd22e5bc	-0.039769873
105	0x3db3369a	0.08750649
106	0xbc61d4fa	-0.013783688
107	0x3cbc30e8	0.022972539
108	0xbd926c4e	-0.07149564
109	0xbd1ea841	-0.03873468
110	0xbc4ea3e3	-0.012612316
111	0x3d6f9075	0.058487374
112	0xbc5ddb4e	-0.013541056
113	0x3c0512a6	0.008122122
114	0x3dbf6d74	0.093470484
115	0xbdc1e3f9	-0.094673105
116	0xbdc3793c	-0.09544608
117	0xbc372a91	-0.011179582
118	0xbd2a1446	-0.04152324
119	0x3b192d4a	0.0023372942
120	0xbd054fa7	-0.032546666
121	0x3bd1918a	0.0063955234
122	0xbd3abf4e	-0.0455926
123	0x3d528ddd	0.051404823
124	0xbd822a1a	-0.063556865
125	0x3d447f0f	0.047972735
126	0xbd362344	-0.044467226
127	0xbd1a6f2a	-0.03770367
128	0xbd16c1fb	-0.036806088
129	0xbd9f4f90	-0.07778847
130	0x3d72f2b2	0.059313484
131	0x3d032096	0.0320135
132	0xbc08e838	-0.0083561465
133	0xbdb2e445	-0.08734945
134	0x3bcf4d90	0.006326385
135	0xbda0965c	-0.07841179
136	0x3d6dce5f	0.05805814
137	0x3cecaa57	0.028889818
138	0x3dd86fdf	0.10568213
139	0xbc3ad8dd	-0.011404243
140	0x3d49e9bd	0.049295176
141	0x3c56168e	0.013066901
142	0xbd4cb67d	-0.049978722
143	0x3bc998ab	0.0061522326
144	0xbc50f950	-0.012754753
145	0x3cd9f525	0.026606152
146	0x3d5a7d13	0.053341936
147	0xbd0994c2	-0.033589132
148	0xbd906737	-0.07050937
149	0xbdf87f71	-0.121336825
150	0xbc831581	-0.016001465
151	0xbd68b0fa	-0.056809403
152	0xbbb2d782	-0.0054578194
153	0xbd1f3588	-0.03886941
154	0xbdbd5628	-0.092449486
155	0xbd369a41	-0.0445807
156	0x3d0fa2db	0.03506742
157	0x3d8cd2ee	0.06876169
158	0x3d479af2	0.04873175
159	0xbb455e5d	-0.003011606
160	0xbbc77d4b	-0.006087934
161	0xbc84d08d	-0.016212726
162	0xbd243d40	-0.040097475
163	0xbd16315d	-0.03666817
164	0x3c861141	0.01636565
165	0xbd1f3f8a	-0.038878955
166	0x3d7980ad	0.06091373
167	0xbdab3d98	-0.083613575
168	0xbd0487ee	-0.032356195
169	0xbd6abc4b	-0.057308476
170	0xbcda7348	-0.026666299
171	0x3d9adf76	0.07562153
172	0xbd8230bf	-0.06356954
173	0xbc745989	-0.014913925
174	0xbdcecb62	-0.10097386
175	0xbd266064	-0.04061927
176	0x3d08155b	0.03322349
177	0x3d42b906	0.047539733
178	0xbdb9e4c7	-0.09076839
179	0xbce36288	-0.027756944
180	0xbdc25d42	-0.09490444
181	0xbcca79c2	-0.024716262
182	0x3bed41c0	0.007240504
183	0xbcc5e55f	-0.024157224
184	0xbc7e39ac	-0.01551668
185	0xbd6aaa77	-0.057291474
186	0xbddf0418	-0.10889453
187	0xbdea9a13	-0.114551686
188	0xbd8ded47	-0.06930023
189	0xbd934d0d	-0.07192431
190	0xbd307428	-0.043079525
191	0x3ccb5207	0.024819387
192	0x3de1b0b3	0.11020031
193	0x3d0f47de	0.034980647
194	0xbd9af38f	-0.07565986
195	0x3b888ae3	0.004166947
196	0xbd87ac36	-0.066246435
197	0xbb471a98	-0.0030380841
198	0xbde690a0	-0.11258054
199	0xbd372052	-0.044708557
200	0xbdf47aed	-0.11937509
201	0x3d7ad5fb	0.061239224
202	0x3c660a03	0.014040473
203	0xbdf4b669	-0.119488545
204	0xbcd7a818	-0.02632527
205	0xbd903431	-0.07041205
206	0x3d48ca56	0.049021088
207	0xbc92680b	-0.017871877
208	0x3d373bbe	0.04473471
209	0x3d70576b	0.05867712
210	0x3d319c5f	0.043362018
211	0x3da56d49	0.08077485
212	0xbc49ae17	-0.012309573
213	0xbd002a5a	-0.03129039
214	0x3cdee580	0.027209044
215	0xbcaaa22f	-0.020829288
216	0xbd4d62f2	-0.05014319
217	0xbd3a17c6	-0.04543283
218	0xbb1582e8	-0.0022813622
219	0x3bdaf845	0.006682428
220	0x3d5c47ae	0.053779297
221	0x3cdd0208	0.026978508
222	0xbcd7093f	-0.026249526
223	0xbdaf49c2	-0.0855899
224	0xbdaeea64	-0.085408
225	0xbdcf1772	-0.10111894
226	0x3c9ebdf7	0.019377692
227	0x3baf2e4e	0.005346096
228	0xbcc3a0b3	-0.023880338
229	0x3d1ef431	0.038807098
230	0x3d251a0d	0.040308047
231	0xbc986e4f	-0.018607287
232	0xbd2714ae	-0.040791206
233	0x3b7b498f	0.0038343405
234	0xbdbb8d36	-0.09157793
235	0x3c687d4b	0.014190028
236	0xbd320f10	-0.043471396
237	0x3cdce4ad	0.02696451
238	0xbc8e62cf	-0.0173811
239	0x3d263fff	0.040588375
240	0xbb17c25d	-0.002315662
241	0x3c61a0de	0.013771264
242	0x3d071911	0.03298289
243	0xbc1f950a	-0.0097401235
244	0xbdc88c96	-0.0979244
245	0xbc97ae66	-0.018515777
246	0x3c276384	0.0102165975
247	0xbdb0fb76	-0.08641712
248	0xbced9aa7	-0.029004408
249	0x3ccff8c5	0.025387177
250	0x3d1d89c6	0.03846147
251	0xbda0f7a7	-0.07859736
252	0xbd3b9259	-0.045793865
253	0x3d100d57	0.035168972
254	0xbd8860ea	-0.0665911
255	0xbd699bf1	-0.057033483

2.bias f4 [128]
0	0xbd991d07	-0.0747624
1	0x3d2a6dd1	0.041608635
2	0x3f0820bc	0.5317495
3	0x3ec88f51	0.39171842
4	0x3d481c17	0.048854914
5	0x3e907baf	0.28219363
6	0x3ea0ae22	0.31382853
7	0xbdcc1f73	-0.09966936
8	0x3f090e06	0.53537023
9	0x3d0feb73	0.03513665
10	0x3e819c61	0.2531462
11	0xbc2c0495	-0.010499139
12	0x3f1da886	0.6158527
13	0x3eaa0806	0.33209246
14	0x3ee1db8f	0.44112822
15	0x3c38c157	0.011276565
16	0x3f1ff74c	0.6248672
17	0x3efecdbc	0.49766338
18	0x3eda5d01	0.4264908
19	0x3f0e5997	0.55605453
20	0x3da22d0c	0.07918748
21	0x3e889f66	0.2668411
22	0x3ee786a8	0.45219922
23	0x3f037aa2	0.51359
24	0x3ea6b3f7	0.32559177
25	0x3eab1a7a	0.33418638
26	0xbd52b358	-0.051440567
27	0xbdbec583	-0.09315016
28	0xbd6f5217	-0.058427896
29	0x3f0f4529	0.55964905
30	0x3e847f31	0.2587829
31	0x3f376d62	0.7165128
32	0x3ecacac0	0.3960781
33	0x3f092c16	0.53582895
34	0x3ed927eb	0.42413267
35	0x3f0cdc36	0.55023515
36	0x3ee5d27c	0.4488715
37	0x3bffe2b0	0.0078090057
38	0x3f1188c0	0.5684929
39	0x3ebbd70c	0.36687505
40	0x3f215fcc	0.630368
41	0x3e828203	0.25489816
42	0x3e977b48	0.29586244
43	0xbd8f77d5	-0.07005278
44	0x3eab765b	0.33488736
45	0xbdcac740	-0.09901285
46	0x3f0d0744	0.5508921
47	0x3adafb57	0.0016706985
48	0xbc970ac8	-0.018437758
49	0x3f14481b	0.57922524
50	0x3ef66938	0.4812715
51	0x3ef69260	0.4815855
52	0x3d082a5a	0.033243515
53	0x3d9d52d1	0.076818116
54	0x3ee39d86	0.44456118
55	0x3e9622ad	0.2932333
56	0x3f117368	0.5681672
57	0x3e948bdc	0.29012954
58	0x3f26ab42	0.6510507
59	0xbd347460	-0.044056296
60	0x3f1ad400	0.60479736
61	0x3f3669b9	0.7125507
62	0x3f3a15f8	0.7268977
63	0x3eff6313	0.49880275
64	0x3ea46736	0.32109994
65	0x3f038978	0.51381636
66	0xbcff7910	-0.031185657
67	0x3dd725b3	0.105052374
68	0x3ee03f4f	0.437983
69	0x3f15d9ef	0.58535665
70	0x3eef6a26	0.46760672
71	0x3ee0e392	0.43923622
72	0xbdd984b4	-0.10621014
73	0x3ef4ad54	0.4778849
74	0x3e8b0b5e	0.2715711
75	0x3c1ccb0d	0.009569895
76	0x3e43ad50	0.19109082
77	0x3d1d50d4	0.03840716
78	0xbcbe5c2c	-0.02323731
79	0x3f01882d	0.5059841
80	0x3e8c9575	0.27457777
81	0x3e90c9ad	0.28278866
82	0x3ed5154c	0.4161781
83	0x3f22154f	0.63313764
84	0x3ec373dc	0.3817433
85	0x3e8dd996	0.27705067
86	0x3d1dff74	0.038573697
87	0x3f1c3be5	0.6102889
88	0x3d179573	0.03700776
89	0x3e4bd41c	0.19905132
90	0x3ef3b180	0.4759636
91	0x3f176e68	0.5915284
92	0x3d33b8f1	0.043877546
93	0xbda03c3c	-0.07823989
94	0x3f0f6d3f	0.5602607
95	0x3e9defeb	0.30847105
96	0x3e9b05d8	0.30277896
97	0x3eff8258	0.49904132
98	0x3e9ad335	0.30239263
99	0xbd569124	-0.05238451
100	0x3f24564a	0.64194167
101	0xbd0c2cd3	-0.034222435
102	0xbd1a2565	-0.03763332
103	0x3f06a681	0.52597815
104	0x3e885963	0.26630697
105	0xbccc7e19	-0.024962472
106	0x3e5ee2ca	0.217662
107	0xbda0c1c9	-0.078494616
108	0xbdf1d934	-0.11809006
109	0x3eb4206d	0.3518099
110	0xbd130cd3	-0.035900902
111	0x3eeff5de	0.4686727
112	0x3f322035	0.69580394
113	0x3e5b8ede	0.21441218
114	0x3f003369	0.50078446
115	0xbdaa865e	-0.0832641
116	0x3f208082	0.6269609
117	0x3f0d6756	0.55235803
118	0x3f104d73	0.5636818
119	0x3d7f08e3	0.062264334
120	0x3eb69b95	0.35665575
121	0x3f233634	0.6375458
122	0x3f1c69f0	0.6109915
123	0x3ee0f1bb	0.43934426
124	0x3f0a873e	0.54112613
125	0x3e307fee	0.17236301
126	0x3f00355d	0.50081426
127	0x3f37fa7a	0.7186657

5.weight f4 [64, 128]
0	0xbcf01788	-0.029308096
1	0x3d53eb8d	0.05173831
2	0xbdebd0d5	-0.11514441
3	0xbd8bd517	-0.06827753
4	0x39f2888c	0.00046259572
5	0xbdef0ee3	-0.11672761
6	0xbcbd917a	-0.023140658
7	0x3d2e2c26	0.042522572
8	0xbd9d0400	-0.076667786
9	0xbd1e619e	-0.038667314
10	0xbc9e1b4e	-0.01930013
11	0x3c03325a	0.00800761
12	0x3da545ee	0.08069979
13	0xbe029803	-0.127533
14	0xbd9a9fed	-0.07550035
15	0xbdacc6ab	-0.084363304
16	0x3ca37372	0.01995251
17	0x3ca5e95f	0.020252882
18	0x3d443972	0.047906347
19	0xbdb26b61	-0.08711887
20	0xbc22a67d	-0.009927389
21	0x3c957cd4	0.018248
22	0x3d4e98a5	0.050438542
23	0xbd769af3	-0.060206365
24	0x3cbaae0e	0.022788074
25	0xbddf0edc	-0.10891506
26	0xbce86110	-0.028366596
27	0x3dac8f63	0.08425786
28	0xbcd89ecb	-0.026442906
29	0xbca2456a	-0.01980849
30	0xbcb9257e	-0.022600885
31	0x3d12ca37	0.03583738
32	0x3d49149d	0.049091924
33	0xbd982546	-0.07428984
34	0xbd95ee1f	-0.073208086
35	0xbd8b1bba	-0.06792398
36	0xbdb56edc	-0.088590354
37	0x3db0e997	0.08638304
38	0xbdf9a9f9	-0.12190623
39	0x3d5dd076	0.054153882
40	0xbc464258	-0.0121007785
41	0xbd140c8d	-0.03614478
42	0x3d90d603	0.070720695
43	0x3b3b4116	0.002857273
44	0xbd23a5b3	-0.039952945
45	0xbc066862	-0.008203598
46	0xbdd730a8	-0.10507327
47	0x3d176c63	0.0369686
48	0x3c68e78e	0.014215363
49	0xbd99e007	-0.07513433
50	0xbce585d7	-0.028017921
51	0xbd77f96a	-0.060540594
52	0xbbe429c9	-0.006962989
53	0xbdaebe0c	-0.08532342
54	0x3d7b4150	0.061341584
55	0xbd5a2591	-0.053258482
56	0xbd910172	-0.07080354
57	0x3c285ed0	0.010276511
58	0xbd8080ba	-0.06274553
59	0xbdc383d8	-0.095466316
60	0xbc0786ff	-0.008271932
61	0xbd6f1590	-0.058370173
62	0x3cee1c90	0.029066354
63	0x3c966f06	0.018363487
64	0x3b81ce2f	0.0039613466
65	0xbd298cb5	-0.041393954
66	0xbd1d6f0c	-0.03843598
67	0xbd7292e9	-0.059222136
68	0x3d2c8405	0.04211809
69	0xbdb53f3a	-0.0884995
70	0xbd811897	-0.06303518
71	0xbdd52d2b	-0.10409006
72	0x3dc27409	0.09494788
73	0x3d4d58a0	0.050133348
74	0x3d75a075	0.059967477
75	0xbdb6ac41	-0.089195736
76	0xbda583b9	-0.08081765
77	0xbd0a5c31	-0.033779327
78	0xbcd6cd47	-0.02622093
79	0xbd96c270	-0.07361305
80	0xbbea1e51	-0.0071447273
81	0xbd266ea6	-0.040632866
82	0x3bd49fc5	0.0064887726
83	0x3ccbbfb1	0.024871679
84	0xbde1694e	-0.110064134
85	0xbdaa243a	-0.08307691
86	0x3d7ccfbb	0.061721545
87	0xbd44786e	-0.047966413
88	0xbd9fc5b3	-0.0780138
89	0xbd84de8d	-0.06487761
90	0xbd15d27a	-0.03657768
91	0x3c5a23bb	0.013314183
92	0xbd00705c	-0.031357154
93	0xbd050ec4	-0.032484785
94	0xbe02f272	-0.12787798
95	0xbd73eb70	-0.059550703
96	0xbca50634	-0.02014456
97	0x3cec5ff6	0.028854351
98	0xbd9450a9	-0.07241947
99	0x3d5a7deb	0.05334274
100	0x3c55ee8f	0.013057365
101	0xbdaeee1e	-0.08541511
102	0xbd9f1792	-0.077681676
103	0xbd580c42	-0.052746065
104	0xbcaa6547	-0.020800246
105	0xbcbc0693	-0.022952354
106	0xbe27d385	-0.16389282
107	0xbd43c087	-0.04779103
108	0x3d4ad430	0.049518764
109	0xbd2dc8ca	-0.042427815
110	0xbda16bb3	-0.0788187
111	0xbdb70de4	-0.08938196
112	0xbd517046	-0.051132463
113	0xbdf64c22	-0.1202624
114	0xbbbb555e	-0.0057169637
115	0x3c65dec4	0.014030162
116	0xbd89e0a7	-0.06732302
117	0x3cc1a7ca	0.023639578
118	0x3aff47b4	0.0019476325
119	0x3d316087	0.043304946
120	0xbd9fc0d5	-0.07800452
121	0xbdc0a7e7	-0.09407025
122	0xbd222c56	-0.039593063
123	0xbd20460b	-0.0391293
124	0x3c021185	0.007938747
125	0xbde82dc2	-0.113368526
126	0x3ca4b22d	0.020104492
127	0xbc2f5c2c	-0.010703128
128	0x3d9d2351	0.07672752
129	0xbd345649	-0.0440276
130	0x3da23d65	0.07921866
131	0x3cdbda30	0.026837438
132	0x3c5854e9	0.013203838
133	0x3d24d6da	0.04024396
134	0xbc86294a	-0.01637711
135	0x3d90e6d1	0.07075275
136	0x3ebc1adf	0.3673925
137	0x3bd6bb11	0.006553062
138	0x3da1ccb1	0.0790037
139	0xba50aaac	-0.00079600024
140	0x3e89327b	0.26796326
141	0x3cef3626	0.029200625
142	0xbc73b159	-0.014873826
143	0xbd33dd5b	-0.043912273
144	0x3eaea65a	0.3411129
145	0x3e6f0904	0.23343283
146	0x3d90660a	0.070507124
147	0x3d5ecfce	0.054397397
148	0xbd7ab36c	-0.061206266
149	0xbdbf6142	-0.09344722
150	0x3e14be23	0.14525656
151	0x3cdf550d	0.027262235
152	0x3e025dfc	0.12731165
153	0xbdf50b4d	-0.11965046
154	0xbd87b022	-0.066253915
155	0x3d78a619	0.060705278
156	0x3d0d2075	0.03445478
157	0x3e0205aa	0.12697473
158	0x3c8c1362	0.017099086
159	0x3e09db8a	0.13462654
160	0xbcfeecd4	-0.031118788
161	0x3c1a3403	0.009411815
162	0x3d7c222e	0.061556034
163	0x3ddc4602	0.107555404
164	0x3ddee757	0.10883968
165	0x3d94adda	0.07259722
166	0x3c9b7ada	0.018979479
167	0xbcdac9d7	-0.026707573
168	0x3d67fc1d	0.05663692
169	0xbd4333ea	-0.04765693
170	0x3c8698a2	0.016430203
171	0x3da9f3af	0.08298432
172	0x3db702bc	0.089360684
173	0xbd50dbde	-0.05099093
174	0x3e769384	0.2407971
175	0x3d6c5611	0.057699267
176	0x3db31e0b	0.087459646
177	0x3e5f7e40	0.21825504
178	0xbd81979a	-0.06327744
179	0x3c9d479c	0.019199185
180	0x3db13e99	0.08654518
181	0x3c92732d	0.017877186
182	0xbd9298a2	-0.07158019
183	0x3c9040ea	0.017609078
184	0x3d42d879	0.047569726
185	0x3dc3d41c	0.09561941
186	0x3e988d62	0.29795367
187	0xbc53b53b	-0.012921627
188	0x3de1f124	0.11032322
189	0x3e411562	0.18855813
190	0x3e09d95d	0.13461824
191	0x3c8ef01f	0.017448483
192	0x3d4acc73	0.049511384
193	0xbd162a6a	-0.036661543
194	0x3ca1293d	0.019672984
195	0xbccb2509	-0.024797933
196	0x3f19c72a	0.60069525
197	0x3c98b705	0.018641958
198	0xbd271a6b	-0.04079668
199	0x3d5bac1f	0.053630944
200	0x38e226c4	0.000107837404
201	0x3d1a5db0	0.037687004
202	0x3da7a3b9	0.081855245
203	0xbda38bfd	-0.07985685
204	0xbd44229e	-0.047884576
205	0x3dab2036	0.08355753
206	0x3ced22d1	0.028947266
207	0x3e96a56d	0.29423085
208	0xbcc62ccd	-0.024191285
209	0x3c8c5c6f	0.01713392
210	0x3e1d2989	0.15347876
211	0x3dfcadf2	0.12337865
212	0xbd83fa24	-0.06444195
213	0x3cae2adc	0.021260671
214	0x3b753eb1	0.00374214
215	0x3d534002	0.051574714
216	0x3a1e5124	0.00060393126
217	0xbae35032	-0.0017342626
218	0x3e6cd4e8	0.23128092
219	0x3e294bdc	0.16532844
220	0xbd42699b	-0.047463994
221	0x3d9cd782	0.07658292
222	0x3d62a60a	0.05533413
223	0xbd24e12f	-0.040253814
224	0xbcedf9ee	-0.02904984
225	0x3f12aecc	0.5729797
226	0xbd43862b	-0.047735374
227	0xbd0f2a91	-0.034952704
228	0x3e7548da	0.23953572
229	0xbc46d990	-0.012136832
230	0x3c85f2e9	0.01635118
231	0x3e68b808	0.22726452
232	0xbba43960	-0.0050117224
233	0x3d6ba68c	0.05753188
234	0x3df536b3	0.11973324
235	0xbd87ca23	-0.066303514
236	0xbddbc17e	-0.10730265
237	0xbd266ef5	-0.04063316
238	0xbd30b893	-0.043144774
239	0xbd46aee3	-0.04850663
240	0x3e6e8b90	0.23295426
241	0xbca80fba	-0.020515312
242	0xbc3d8d61	-0.011569352
243	0x3d7458d4	0.059655026
244	0x3d4ab009	0.049484286
245	0x3ea4c935	0.3218476
246	0x3c0d51ce	0.008625461
247	0xbd3f5996	-0.046716295
248	0xbd859b31	-0.06523741
249	0x3e83bb06	0.25728625
250	0x3e86ec24	0.26352036
251	0x3b8a99d3	0.004229763
252	0x3b3da522	0.0028937538
253	0xbdb143ae	-0.08655487
254	0x3e0799c6	0.13242254
255	0x3e7aa989	0.24478735

5.bias f4 [64]
0	0x3dc0d2a2	0.09415175
1	0x3eaf49c6	0.34235972
2	0x3e711ce4	0.23546177
3	0x3db7e10f	0.089784734
4	0x3e353b8f	0.17698501
5	0xbc83b486	-0.016077291
6	0x3ee7987d	0.45233527
7	0x3c6e2fcf	0.014537766
8	0x3ebeae18	0.37242198
9	0x3e12821d	0.14307447
10	0x3e35d4b6	0.17756924
11	0x3e88a30e	0.266869
12	0xbda313a2	-0.07962729
13	0x3e3bdc3a	0.18345729
14	0x3d24acbd	0.0402038
15	0x3e2b3421	0.16719104
16	0x3ea51c37	0.3224809
17	0x3b9a240a	0.004704003
18	0x3ee31a7a	0.44356138
19	0x3e724cfd	0.23662181
20	0x3e9c9543	0.30582628
21	0x3ed0b181	0.40760425
22	0x3e94ad1e	0.29038328
23	0x3db7044e	0.08936368
24	0x3e851462	0.25992113
25	0x3e28a2e0	0.16468382
26	0x3ede1ff3	0.4338375
27	0x3e8112fa	0.2520979
28	0x3c7acdc5	0.015307848
29	0x3e48a0f1	0.19592644
30	0x3ec2ddd3	0.38059863
31	0xbd1654fe	-0.03670215
32	0x3eb869e5	0.3601829
33	0x3e612fe8	0.21990931
34	0xbd47f52a	-0.04881779
35	0x3e06d3a6	0.13166675
36	0x3e15378e	0.14571974
37	0xbc342001	-0.010993958
38	0x3ea22a83	0.3167306
39	0x3e822213	0.25416622
40	0x3e850f20	0.25988102
41	0x3eb57a72	0.3544498
42	0x3e306c10	0.17228723
43	0x3e16ed46	0.1473895
44	0x3dd21722	0.102583185
45	0x3da24438	0.07923168
46	0x3f296bd0	0.66180134
47	0x3e8aefd7	0.27136108
48	0x3e40df8f	0.18835281
49	0x3e706576	0.23476204
50	0x3e8ecc0e	0.27890056
51	0x3ec09a3a	0.37617666
52	0x3ee82ac3	0.45345125
53	0x3e91a692	0.28447396
54	0x3e5eb440	0.21748447
55	0x3e0d59a3	0.13803725
56	0x3ea913f8	0.33023047
57	0x3e9bfc09	0.30465725
58	0x3e873d83	0.26414117
59	0x3e1ece69	0.15508427
60	0x3e88946c	0.26675737
61	0x3d25550f	0.04036432
62	0x3e885ab4	0.266317
63	0x3d7450d3	0.059647392

8.weight f4 [32, 64]
0	0x3c03ca3b	0.008043821
1	0x3d5d117c	0.053971753
2	0xbd96be39	-0.07360501
3	0x3d8b2b18	0.06795329
4	0x3d6baeb1	0.057539646
5	0x3e056e91	0.13030459
6	0x3b2aae54	0.002604385
7	0xbdbbdec8	-0.091733515
8	0xbe1af3f5	-0.15132125
9	0xbdbba019	-0.091613956
10	0x3c9b19ba	0.018933166
11	0x3d19cc71	0.037548486
12	0xbd067443	-0.03282572
13	0xbd4cf81b	-0.0500413
14	0x3dae8cf3	0.08522978
15	0xbbe2f792	-0.0069264853
16	0xbd336735	-0.043799598
17	0xbd944fa6	-0.07241754
18	0xbda446c5	-0.08021311
19	0xbdf793e8	-0.12088758
20	0x3c9129e1	0.017720165
21	0xbd08e688	-0.033422977
22	0xbe0a1ff6	-0.13488755
23	0xbd41101d	-0.047134507
24	0xbe3e5038	-0.18585289
25	0xbdcc07b9	-0.099624105
26	0x3d3918a9	0.045189533
27	0xbe07d778	-0.13265789
28	0x3cd17db4	0.025572635
29	0xbd3861c9	-0.04501513
30	0xbc998c08	-0.01874353
31	0xbe09244f	-0.13392757
32	0x3bfc4bab	0.00769945
33	0xbd8daa13	-0.06917205
34	0xbd1ee13f	-0.03878903
35	0x3c7fe4e8	0.01561854
36	0x3d419abc	0.047266707
37	0x3e09ea49	0.13468279
38	0xbe2971b1	-0.16547276
39	0xbdbdb917	-0.09263819
40	0x3d8344ce	0.06409608
41	0xbe22c3e0	-0.15895033
42	0xbd35d2e1	-0.044390563
43	0xbd5fc192	-0.054627962
44	0xbd46a6ab	-0.04849879
45	0x3dff61cd	0.12469826
46	0xbcc30240	-0.023804784
47	0xbde98ff0	-0.11404407
48	0xba9dd0c0	-0.0012040362
49	0xbdfd8e0c	-0.12380609
50	0xbd2d7e4b	-0.04235677
51	0xbdd27ff9	-0.10278315
52	0xbc9498e2	-0.018139306
53	0xbd8984a1	-0.0671475
54	0xbdb7b46f	-0.08969962
55	0xbd766100	-0.0601511
56	0xbd39b216	-0.04533585
57	0xbe0255fb	-0.12728111
58	0xbb0f04a5	-0.0021822837
59	0xbdb76092	-0.08953966
60	0xbdd28f2c	-0.10281214
61	0xbc9cf9b5	-0.019162038
62	0x3dbc4d98	0.09194487
63	0x3d5c5503	0.05379201
64	0xbd94426c	-0.072392315
65	0x3d34a1cd	0.044099618
66	0xbdaee6d4	-0.08540121
67	0x3c6fd332	0.014637755
68	0xbcbb8388	-0.022889867
69	0xbacda513	-0.0015689455
70	0xbb70ac86	-0.0036723926
71	0xbafe0474	-0.0019379989
72	0x3d776df2	0.060407586
73	0xbd4f0c68	-0.05054894
74	0xbd40b746	-0.047049783
75	0xbdd4a822	-0.10383631
76	0xbd9abb0c	-0.075552076
77	0xbd1bd1bc	-0.038041815
78	0x3e21ae88	0.15789235
79	0xbdd30477	-0.10303586
80	0x3d91e944	0.0712457
81	0xbd158e49	-0.036512647
82	0x3b822ac2	0.0039723823
83	0x3c2d0449	0.010560104
84	0x3d1592c8	0.036516935
85	0x3e04aab0	0.12955737
86	0x3cd1b902	0.025600914
87	0x3bc2ce86	0.0059450297
88	0xbac5a2c8	-0.001507842
89	0xbe16f95b	-0.14743559
90	0x3cae024e	0.021241333
91	0x3d1843ad	0.037173916
92	0xbdbf97ef	-0.09355151
93	0x3d90f4e2	0.07077958
94	0x3d377935	0.044793326
95	0x3df2e43d	0.11859939
96	0xbd98ee41	-0.07467318
97	0xbd4050ef	-0.046952184
98	0x3d4e9e59	0.05044398
99	0xbd974409	-0.073860236
100	0xbde24985	-0.11049179
101	0x3dd4e7d2	0.10395779
102	0xbd93a972	-0.072100535
103	0x3d2d1229	0.042253647
104	0xbb980b72	-0.0046400363
105	0x3d555509	0.05208305
106	0xbc9831f4	-0.018578507
107	0x3d5b534b	0.05354623
108	0x3d99ca2d	0.07509265
109	0xbd36aa33	-0.04459591
110	0x3c984192	0.018585954
111	0x3dc035a9	0.09385235
112	0x3d0ee8eb	0.034890097
113	0x3d8bf9af	0.06834733
114	0xbcefb0e6	-0.029259156
115	0x3c1522a4	0.009102497
116	0xbd198083	-0.037476074
117	0xbdca5819	-0.098800845
118	0x3d43b80e	0.04778295
119	0xbd8c39a4	-0.068469316
120	0xbd4bbd10	-0.04974085
121	0x3d242440	0.040073633
122	0xbdc6b354	-0.09702173
123	0x3d169d82	0.036771305
124	0xbd5b2d60	-0.05351007
125	0x3e12b9e6	0.14328727
126	0xbdcd19ae	-0.10014664
127	0xbe0bc96f	-0.1365106
128	0x3bbd8507	0.0057836804
129	0x3d96c69f	0.07362103
130	0x3d90340c	0.07041177
131	0x3e44ba82	0.19211772
132	0xbd30e3da	-0.043186046
133	0xbde20d15	-0.110376514
134	0xbdbf45ef	-0.09339511
135	0xbcaa0a1d	-0.020756776
136	0x3dacc3f1	0.0843581
137	0x3cda18e6	0.0266232
138	0xbe0e26f5	-0.13882048
139	0xbd80a1c7	-0.062808566
140	0xbd9057da	-0.07048006
141	0xbd58b448	-0.052906305
142	0xbc3d7d42	-0.011565508
143	0xbcd519fc	-0.026013367
144	0x3d6ad7d7	0.057334747
145	0xbdceae59	-0.10091848
146	0x3de847ff	0.11341857
147	0xbd524f8c	-0.051345393
148	0x3ceb59e4	0.028729387
149	0x3dbcd146	0.09219603
150	0xbc565df7	-0.013083926
151	0x3ce12e8b	0.027488014
152	0xbcc36c69	-0.023855405
153	0xbdb3bdfa	-0.087764695
154	0xbd244d97	-0.040113058
155	0xbd614d75	-0.05500551
156	0xbd7e02d2	-0.06201441
157	0x3ca25623	0.019816464
158	0x3e073015	0.13201936
159	0x3d2c91b8	0.042131156
160	0x3c340a49	0.01098878
161	0x3d9b5459	0.075844474
162	0xbe23561a	-0.15950814
163	0xbe05881b	-0.13040201
164	0xbdb00f42	-0.0859666
165	0x3b2a490c	0.002598348
166	0x3d390d27	0.04517856
167	0x3dae64b7	0.085153036
168	0xbd7763da	-0.06039796
169	0xbd9d9118	-0.0769369
170	0xbe2bddd0	-0.16783834
171	0x3d5877cc	0.052848622
172	0xbd5f228d	-0.05447631
173	0xbc97ef72	-0.018546794
174	0xbd1278c4	-0.035759702
175	0xbca8f268	-0.0206234
176	0x3b3df57a	0.0028985427
177	0x3daf3666	0.085552976
178	0x3d0c6574	0.03427644
179	0x3bf20176	0.007385428
180	0xbdd78d53	-0.10525002
181	0xbda82068	-0.08209306
182	0xbd95f5ac	-0.07322249
183	0xbdd6a554	-0.104807526
184	0x3d4b3282	0.049608715
185	0xbcca8683	-0.024722343
186	0xbc4b8218	-0.0124211535
187	0xbd823d0a	-0.063592985
188	0x3deed514	0.11661735
189	0xbd041f14	-0.0322562
190	0x3ca24e19	0.01981263
191	0xbb2e6631	-0.0026611204
192	0x3d1971e4	0.03746213
193	0x3df22196	0.11822812
194	0x3e4ec94a	0.20193973
195	0xbe02f79f	-0.12789772
196	0x3e6bd5f2	0.23030832
197	0x3d8073f4	0.06272116
198	0x3c89e9a5	0.016835043
199	0xbc94238a	-0.018083353
200	0x3e141ad7	0.14463364
201	0x3e2dc8df	0.16971157
202	0x3d05d05e	0.032669418
203	0x3e48ea2e	0.19620582
204	0x3d4da768	0.05020848
205	0xbdea42aa	-0.114384964
206	0xbe08d498	-0.13362348
207	0x3e48cf33	0.1961029
208	0x3e3696c5	0.17830952
209	0x3d852266	0.065007016
210	0x3dda4ed7	0.10659569
211	0x3dda5e29	0.10662491
212	0x3e8eaf36	0.2786805
213	0x3dd1845c	0.10230324
214	0x3e6d6aa1	0.23185207
215	0x3e3bbfef	0.18334936
216	0x3e1032c9	0.14081873
217	0x3e3e4435	0.18580706
218	0x3d83f319	0.064428516
219	0x3deeb3d7	0.116553955
220	0xbd055429	-0.032550965
221	0x3e4ad2c6	0.19806966
222	0x3de2ff1e	0.11083816
223	0xbdbd2224	-0.092350274
224	0x3df243a9	0.118293114
225	0x3e5d1c1c	0.21592754
226	0xbd8545fa	-0.065074876
227	0x3dd22198	0.10260314
228	0x3db4be08	0.08825308
229	0x3c92375d	0.017848665
230	0x3e67f46e	0.22651836
231	0x3e813e3f	0.25242803
232	0x3df8fe76	0.121579096
233	0x3d7fcf1a	0.062453367
234	0x3e10a742	0.14126304
235	0x3e25339f	0.16132973
236	0xbde1c2dd	-0.11023495
237	0x3d0906f7	0.033453908
238	0xbf3ca5fe	-0.73690784
239	0x3dc98435	0.098396696
240	0x3e37a9ad	0.1793582
241	0x3e0fed19	0.1405529
242	0x3e4289dd	0.18997903
243	0xbba7e312	-0.0051235044
244	0x3da260dd	0.079286315
245	0x3c8624c7	0.016374959
246	0x3e6a4777	0.22878824
247	0x3e03b599	0.12862243
248	0xbd4e737b	-0.0504031
249	0x3d80a57f	0.06281566
250	0x3e601d04	0.21886069
251	0x3d02ad2c	0.03190343
252	0x3ddc65be	0.10761593
253	0xbd8c29c1	-0.068439014
254	0x3e5c9e33	0.21544723
255	0x3e1a97e9	0.15097012

8.bias f4 [32]
0	0xbd3d8327	-0.046267655
1	0x3da6c466	0.08142929
2	0xbb90df15	-0.0044211247
3	0x3e78ba1d	0.24289747
4	0x3e38d693	0.18050604
5	0x3cb89140	0.022530198
6	0x3eba14de	0.36344045
7	0x3ec31aae	0.38106292
8	0x3e7550e6	0.23956642
9	0xbd8c17ed	-0.06840501
10	0x3dfdd8ff	0.12394904
11	0xbdf649d8	-0.12025803
12	0xbcec70df	-0.028862415
13	0x3ca25b99	0.019819068
14	0xbd06b759	-0.032889698
15	0x3eac0280	0.33595657
16	0x3e14027f	0.14454077
17	0x3d945d9d	0.07244418
18	0xbde39525	-0.111124314
19	0x3bff0fbf	0.0077838595
20	0x3e78cbe3	0.24296527
21	0x3d9f7016	0.077850506
22	0xbdfb340c	-0.122657865
23	0x3eb6e464	0.35721123
24	0x3e6ab158	0.22919214
25	0x3e28bfe8	0.16479456
26	0x3e069e97	0.13146435
27	0x3e5c4a99	0.21512832
28	0x3e9380bf	0.28809163
29	0xbc2ad846	-0.01042754
30	0x3c579d0d	0.013160002
31	0x3d992305	0.074773826

10.weight f4 [13, 32]
0	0xbe0e96ac	-0.13924664
1	0xbe0e3db9	-0.13890733
2	0x3e01965b	0.12655012
3	0x3eb7c053	0.3588892
4	0x3d32a7a9	0.043616924
5	0x3e150b01	0.14554979
6	0x3e633286	0.22187242
7	0x3ef3a1f6	0.47584504
8	0xbcd9d94d	-0.026592875
9	0xbd2b903b	-0.041885596
10	0x3de82b82	0.113364235
11	0xbd8fd1a1	-0.070224054
12	0xbe6c0f5b	-0.23052733
13	0xbdec4013	-0.11535659
14	0x3cdccccf	0.02695313
15	0x3dac98b7	0.084275655
16	0x3e0b6adf	0.13614987
17	0xbe848607	-0.25883505
18	0x3d1da135	0.038483817
19	0xbe0fd607	-0.14046489
20	0x3c053cf4	0.008132208
21	0xbc7e203b	-0.015510614
22	0xbe54a7e4	-0.2076717
23	0x3d4bb76c	0.04973547
24	0x3d311937	0.043236937
25	0x3ed1fba5	0.41012302
26	0x3e30d122	0.17267278
27	0x3da676fe	0.08128165
28	0xbdb45f03	-0.088071845
29	0xbdc330e2	-0.09530808
30	0x3bbad1f8	0.0057012998
31	0xbe8f1e8e	-0.27953
32	0x3d954deb	0.07290252
33	0xbd9f57a5	-0.07780389
34	0xbdca60af	-0.09881722
35	0x3ec9f4ed	0.39444676
36	0x3c20d369	0.009816029
37	0x3e32b399	0.17451324
38	0x3e0e6342	0.13905051
39	0x3ec2025b	0.37892422
40	0x3e3220d9	0.17395343
41	0xbddce3b8	-0.107856214
42	0x3d3c7c86	0.046017192
43	0xbde6199b	-0.112353526
44	0xbdaa9a17	-0.083301716
45	0xbc7d9d44	-0.01547939
46	0xbdd9f7f1	-0.10642994
47	0x3e000d19	0.12504996
48	0x3d637e41	0.055540327
49	0xbdd37551	-0.10325111
50	0xbd9d4ab6	-0.076802656
51	0x3ca6147a	0.020273436
52	0x3d776a2a	0.06040398
53	0xbdda4636	-0.10657923
54	0xbdf683c3	-0.1203685
55	0x3dbeb8c1	0.09312583
56	0x3db9343c	0.09043166
57	0x3f044039	0.51660496
58	0xbc92b4b0	-0.017908424
59	0x3e3936a8	0.18087256
60	0x3d9811a0	0.07425237
61	0xbe0b9cc7	-0.13634025
62	0xbdee6ee7	-0.11642247
63	0x3c8d4686	0.017245542
64	0xbd894fe6	-0.067046925
65	0x3bc83afa	0.006110546
66	0xbe48b9b5	-0.19602092
67	0x3eb21c80	0.3478737
68	0x3e41749b	0.18892138
69	0x3e03f762	0.12887338
70	0x3d910802	0.070816055
71	0x3ec30e7f	0.38096997
72	0x3e4dffd3	0.2011712
73	0x3b27fc9f	0.0025632752
74	0xbad4dcd0	-0.0016240124
75	0xbdf46da6	-0.11934976
76	0xbd2fea6a	-0.042948164
77	0xbe45c3be	-0.19312951
78	0xbe185633	-0.14876632
79	0x3e2eb2b1	0.17060353
80	0xbdac4054	-0.08410707
81	0x3c34fdb9	0.01104682
82	0x3deffc7a	0.11718078
83	0xbe5d17f1	-0.21591164
84	0x3b75704c	0.0037450967
85	0xbc58f792	-0.013242619
86	0xbea0e4c2	-0.31424528
87	0x3dfd9853	0.12382569
88	0x3cb3116a	0.02185889
89	0x3ef79234	0.48353732
90	0xbc004317	-0.007828495
91	0x3e344add	0.17606683
92	0x3e25e20f	0.16199516
93	0xbdde3acf	-0.108510606
94	0xbd62334b	-0.055224698
95	0xbe8a2275	-0.26979414
96	0xbe12d64d	-0.14339562
97	0xbd3123e0	-0.043247104
98	0xbdf3dc3b	-0.1190724
99	0x3eac3c90	0.33639956
100	0xbd568063	-0.052368533
101	0x3de752cb	0.112950884
102	0xbccbb336	-0.024865728
103	0x3ec7583f	0.38934514
104	0xbc93be61	-0.018035116
105	0x3d5227c9	0.051307473
106	0x3d344a5d	0.04401623
107	0x3dae1702	0.08500482
108	0x3dec8951	0.115496285
109	0xbe25d883	-0.16195874
110	0xbe54afcd	-0.20770188
111	0x3d9e8a4b	0.07741221
112	0x3e1d9261	0.1538787
113	0xbe5432f8	-0.20722568
114	0x3e4046bb	0.18776982
115	0xbd8d0205	-0.06885151
116	0x3e5dd67b	0.21663849
117	0x3dc73053	0.09726014
118	0xbe704d0b	-0.2346689
119	0x3e7662c5	0.24061115
120	0xbd69d499	-0.057087515
121	0x3f04b432	0.51837456
122	0xbceabda2	-0.028654877
123	0x3e1bb0c8	0.15204155
124	0x3e2bf94e	0.16794321
125	0xbe50f383	-0.20405392
126	0x3db2a448	0.087227404
127	0xbe621e55	-0.22081883
128	0xbc596961	-0.013269753
129	0xbddead6d	-0.10872922
130	0x3d01c3c7	0.03168085
131	0x3eb35b4b	0.35030589
132	0x3e3bf962	0.1835685
133	0x3e40a0af	0.18811296
134	0x3cc10ad3	0.023564732
135	0x3eb2a784	0.3489343
136	0x3e28b167	0.16473924
137	0xbdfee427	-0.1244586
138	0x3d943945	0.07237486
139	0xbb58967f	-0.0033048687
140	0xbcd4be8f	-0.025969772
141	0xbe7bf1be	-0.24603936
142	0x3cb0fad6	0.021603983
143	0x3d6ba672	0.05753178
144	0x3d3e6607	0.04648402
145	0xbe49ef3b	-0.19720165
146	0xbd054183	-0.03253318
147	0xbdcf2a89	-0.10115535
148	0x3d8253d1	0.06363643
149	0xbd9f63ec	-0.077827305
150	0xbc29fc9d	-0.010375169
151	0x3dcc8e45	0.09988073
152	0x3dfa3064	0.12216261
153	0x3ef5cfac	0.48010004
154	0x3dd42b5d	0.103598334
155	0x3d85b804	0.06529239
156	0x3e041c75	0.1290148
157	0xbd2f7d2c	-0.042843983
158	0x3d9cd432	0.076576605
159	0xbe5ecd1c	-0.2175793
160	0x3d0c4492	0.03424508
161	0xbdd42ed8	-0.10360497
162	0x3daa20c8	0.08307034
163	0x3eb778b7	0.35834286
164	0x3d6afb2c	0.057368442
165	0x3e1a6ac2	0.15079787
166	0x3e0b4653	0.13601045
167	0x3eb38b18	0.35067058
168	0x3e0b51f1	0.13605477
169	0xbe088dc8	-0.13335335
170	0x3e2ac5c4	0.16677004
171	0x3b3b2316	0.0028554848
172	0xbe878a2a	-0.26472598
173	0xbd819c8e	-0.063286886
174	0x3b89898e	0.004197306
175	0x3d9cd01b	0.076568805
176	0x3e00480e	0.12527487
177	0xbe119d6d	-0.1422021
178	0xbc8aa496	-0.016924184
179	0xbe3ccf2c	-0.18438405
180	0x3d965714	0.073408276
181	0xbc016026	-0.007896459
182	0xbe20699c	-0.15665287
183	0x3e596936	0.21231541
184	0xbdb95190	-0.0904876
185	0x3ee11cc4	0.4396726
186	0x3ba0ff41	0.004913241
187	0x3d3ed880	0.04659319
188	0x3e413048	0.18866074
189	0xbc7e3e3a	-0.015517766
190	0xbd3254ac	-0.04353778
191	0xbe72973f	-0.23690508
192	0xbdb0977f	-0.086226456
193	0x3cd52d2e	0.02602252
194	0xbd92a3c6	-0.071601436
195	0x3eb839da	0.35981637
196	0x3dbd46b9	0.09242005
197	0x3e3d850e	0.18507788
198	0xbbbb7fdb	-0.0057220287
199	0x3eb073af	0.3446326
200	0x3bcfe884	0.0063448567
201	0xbd8ab41f	-0.067726366
202	0x3e32c329	0.1745726
203	0x3c858f41	0.01630366
204	0xbdd653b7	-0.10465186
205	0x3d694a8e	0.056955867
206	0x3d872552	0.06598915
207	0xbc1ceede	-0.009578435
208	0x3e6ed1d7	0.23322235
209	0x3d0e7415	0.034778673
210	0xbd78caa9	-0.060740147
211	0xbda8c9c1	-0.082416065
212	0x3dd1ce30	0.10244405
213	0xbd33c3fd	-0.04388808
214	0xbde62119	-0.112367816
215	0x3e328099	0.17431869
216	0x3de30168	0.110842526
217	0x3eee6aa4	0.46565735
218	0x3d820eca	0.06350477
219	0x3d0bdf7a	0.03414867
220	0x3dcec3c3	0.10095932
221	0x3daef5f8	0.085430086
222	0x3d235629	0.03987709
223	0xbd8142fa	-0.06311603
224	0xbe2b9d05	-0.16759117
225	0x3d76fbd0	0.06029874
226	0xbe17bdfb	-0.14818566
227	0x3ebcffec	0.36914003
228	0x3e43c6ac	0.19118756
229	0x3e274d21	0.16338016
230	0xbc52c29b	-0.01286378
231	0x3ec6c829	0.38824585
232	0x3caeff18	0.021361873
233	0xbe1d8593	-0.15382986
234	0x3e390fa0	0.18072367
235	0xbe086959	-0.13321437
236	0x3bfdd487	0.0077462825
237	0x38d1edce	0.00010010191
238	0xbe31465a	-0.17311993
239	0x3dd415e9	0.103557415
240	0x3d2217b6	0.039573394
241	0xbe456643	-0.19277291
242	0x3ca3fc32	0.020017717
243	0x3db3d06b	0.08779987
244	0xbd129071	-0.03578228
245	0x3c6b62f5	0.014366855
246	0xbe1a48fa	-0.15066901
247	0x3dbde338	0.09271854
248	0x3e600820	0.218781
249	0x3edba74d	0.42901078
250	0xbc04d212	-0.008106725
251	0x3e26700b	0.16253679
252	0x3e14d544	0.1453448
253	0x3ded4d96	0.11587064
254	0xbd572f69	-0.05253545
255	0x3c79a7a4	0.015237723

10.bias f4 [13]
0	0x3da9bd65	0.08288077
1	0x3decc0b2	0.11560191
2	0x3d5cc081	0.053894524
3	0x3e79cbaa	0.24394098
4	0x3e5e0e51	0.21685149
5	0x3d930614	0.07178894
6	0x3e772019	0.24133338
7	0x3e171654	0.14754611
8	0x3dba744c	0.09104213
9	0x3e3ee0b9	0.18640412
10	0x3dd07416	0.10178392
11	0x3dab7512	0.08371939
12	0xbdd5f23f	-0.104465954
