results/PokerGPU/poker_qnet_final.pth (torch, 10187 bytes, 8 tensors)

0.weight f4 [23, 27]
00000000: 90ff 9abb 25fd 04bc df43 80bb 18f2 a43c
00000010: 04b9 953c f97c fbb9 7ad3 6b3a 1578 86bc
00000020: 185a 253e 2126 26bd 3436 31bc 5897 903d
00000030: daf5 cf3a a537 c6bf 7b89 bebf e879 f0bc
00000040: 7a9e c1bf 6bf9 bebf 9141 443d 6145 f2bf
00000050: f385 84bf 0c72 b7bd 2108 c23f c4b6 363d
00000060: b6b7 2abc 589c aabe 77a9 813c 30bc 02be
00000070: 6cea 02be a0a3 84bd 001d 83bc 8c81 13be
00000080: 4e44 8fbc c4a6 a23c 3546 15be d147 273e
00000090: 3210 f8bd 3686 06be f217 843c d3e6 f0bc
000000a0: fa65 123e 2311 53bd 756a 0cbe 7f40 143e
000000b0: 62e5 1e3e 732f a5bc fae7 303d 63d6 693d
000000c0: 0365 f3bd 5539 ac3d d753 aa3d c30d 54bc
000000d0: fd33 aabd d55b a23d be35 da3b 6ba3 78bb
000000e0: 0e8c 143c 50ec 90be 513b d83d df5a 043a
000000f0: 026a c739 bbb3 4ebe b647 41bc 90b6 fcbd
00000100: 3337 663d 33e4 6aba 9e02 12be ba0a 4dbf
00000110: 4cd7 d23d 7376 06be af71 36bf 274f 77bd
00000120: 9afc 6e3d 7147 d1bf 745c f93d e95c 2f3e
00000130: bc0a a3bf ad42 6a3e f086 8d3d d249 a6bf
00000140: 058e 063e 412a 923d 9c17 18bd 3044 8d3d
00000150: c372 21bd 65eb 043c 08f5 603b 4dfb 0dbd
00000160: c1ab 153f 8842 00ba b6c5 ed3d c0e0 e7bc
00000170: 4f3e 0ebe fc3f b9bd a9ef a23f 9151 cdbc
00000180: 1526 b4bd 0d13 af3f 8387 c539 9f4f 88bd
00000190: f3fd 993e 87ba 07bd 5c4e 46bd 284f 8b3f
000001a0: 4937 64bd 4863 213c 84f9 393e fe86 c53c
000001b0: e4d7 9abc ee08 46bc 5513 19bd 575c 2ebd
000001c0: a207 e6bf 7ba4 48bc 3d27 963c f6ff abbf
000001d0: 5c4e a73c 1ae2 8d3c 9053 4d3d d4b4 b93c
000001e0: 7961 203d 1143 203f 1682 a4bc bf80 83bc
000001f0: 7dba 483f 8e1c 8abd bea1 d63c 0e47 7a3f
00000200: 49b9 9abc 8458 013d 97a8 4d3f 42b9 c93d
00000210: a7b8 c6bc 80c4 dd3e f145 3abd 5549 4c3c
00000220: f327 8f3c ed5c 9a3b 3750 8f3b ce0b 2539
00000230: 255b 5abb ed3a 0c3a 34c2 b9be 9791 e23d
00000240: 1ec0 83bd 23f1 1cbd e839 ab3d 93ce 86bb
00000250: 6705 d0be 4d9e b4bf 98b8 bb3d 196e 59bf
00000260: 8145 debf 1108 a63d 1621 92bf 022f 543e
00000270: 9c62 8cbd a062 87bf 5b9c cb3b 5593 ecbd
00000280: 3dea 26bf 8a1a a439 eef0 b83a a5cd 10bd
00000290: 69af 16bb 92ff ebbe 1d89 b7be 3a77 b13b
000002a0: 3594 18bc 8cf1 07bf e985 773d 0cf7 01be
000002b0: 8872 16bc 3ab6 633d 9701 f5bb f7df 4fbf
000002c0: 04c0 a0bd 406c 63bd 8aa9 91bf e4e8 f2be
000002d0: 0d02 1e3e 7ed2 40bf 3137 9ebc f36f 203e
000002e0: 470d 66bf 9b23 96bd a149 bf3d a44e 74bf
000002f0: 24f4 82bd 88b0 2f3c f0e2 38bc 3033 e43c
00000300: 7df9 aa3d 4572 bb3d a8b8 473c 7f9d 8abc
00000310: 6cbc 47bf 9876 dfbc a820 7f3d b9e6 9bbd
00000320: 0ce1 d5bd 3056 f83d 602e 703f 8d77 74bd
00000330: 729f 3f3d f23c b53f d077 c53d 2e12 7e3d
00000340: df08 a13f c315 c63d fb2a 3dbd dd1c 853f
00000350: dac7 17bd e42d 89bd 1788 753f 21c9 873c
00000360: 7ad3 413d c529 5c3d 4ec6 333d e2fd 193d
00000370: ddd5 94be a553 c2ba c1fd 37b9 f6e5 83bd
00000380: c232 42be 999d b6bd 4aed 383e ed7b dbbd
00000390: a661 193e f889 bdbf 0e3d 91bf 0672 b5bd
000003a0: 81ad 98bf 88b3 5d3d 4d95 28bc fff7 d6bf
000003b0: 4521 fabc 769a e03c 6849 bdbf 3eaa c0bc
000003c0: 5657 843d c744 9bbf b637 113d faf6 0cbc
000003d0: 7d2a 91bc 1c01 78bb 0e2a 123e 0f66 023e
000003e0: ec73 54bb 4f88 7bba f82a bf3e 08bf ef3d
000003f0: c0ee e5bd 4d09 3ebe 9859 0c3e ba19 153e
-0.0047301725 -0.008116995 -0.003914341 0.02013497 0.018276699 -0.00047967563 0.0008996051 -0.016414681
0.1614765 -0.040563706 -0.010816146 0.070601165 0.0015866116 -1.5485731 -1.4885706 -0.029355004
-1.5126488 -1.4919866 0.04791409 -1.8927423 -1.0353378 -0.089572996 1.5158731 0.044607893
-0.010419777 -0.33322406 0.015827877 -0.127671 -0.12784737 -0.064765215 -0.01600504 -0.14404887
-0.017488625 0.01985491 -0.14577563 0.1633599 -0.12112464 -0.13137135 0.0161247 -0.02940694
0.14296713 -0.051530015 -0.13712485 0.14477728 0.1551719 -0.020164227 0.04318998 0.05708922
-0.11884501 0.08409373 0.083167724 -0.012942734 -0.08310697 0.07927672 0.0066592386 -0.0037939202
0.009066595 -0.28305292 0.10558189 0.0005048941 0.0003803522 -0.20185749 -0.011796882 -0.123395085
0.056204986 -0.0008960396 -0.14258811 -0.8009449 0.10294971 -0.13131122 -0.7126722 -0.06037822
0.05834637 -1.6349927 0.12175837 0.17125286 -1.2737651 0.22876997 0.06910503 -1.2991278
0.13140114 0.071369655 -0.03713189 0.06897771 -0.039416086 0.008112763 0.0034325738 -0.034663487
0.584652 -0.00048927264 0.11609976 -0.028305411 -0.13890956 -0.09045407 1.2729388 -0.025063308
-0.08796326 1.3677689 0.00037675732 -0.066558115 0.3007656 -0.03313687 -0.048414573 1.0883532
-0.055716787 0.009850331 0.18161589 0.02411222 -0.018901773 -0.01208709 -0.037371952 -0.04256853
-1.7971079 -0.012246246 0.018329257 -1.3437488 0.020423107 0.017319728 0.05012852 0.022669233
0.039155457 0.62602335 -0.020081561 -0.016052602 0.7840956 -0.067437276 0.026200172 0.9776467
-0.018887179 0.031578556 0.8033537 0.09849788 -0.024257971 0.4331398 -0.045476858 0.012468656
0.017475104 0.0047107846 0.004373576 0.00015740024 -0.0033318487 0.0005349357 -0.36280978 0.11062925
-0.06433128 -0.038315903 0.08360654 -0.004113981 -0.40629122 -1.411081 0.09166068 -0.8493362
-1.7364961 0.08107007 -1.1416347 0.20721057 -0.06854746 -1.0576973 0.0062137074 -0.11551539
-0.6520117 0.0003130029 0.0014109889 -0.035352368 -0.0022992736 -0.46093422 -0.35846797 0.0054158242
-0.009312679 -0.53102946 0.06043044 -0.12691897 -0.00918258 0.055593707 -0.007476996 -0.8120112
-0.07849124 -0.055523157 -1.1379864 -0.47443306 0.1543047 -0.75321186 -0.019313427 0.15667705
-0.8986401 -0.0733101 0.093402155 -0.95432496 -0.063942224 0.010723241 -0.011284575 0.02785644
0.08348367 0.091526546 0.012190022 -0.016920803 -0.78021884 -0.02727823 0.062287003 -0.07612366
-0.10443315 0.12125814 0.9382076 -0.059684325 0.04678292 1.4159224 0.09641993 0.062029056
1.2580832 0.096721195 -0.046183567 1.0399433 -0.037055828 -0.06698206 0.9591078 0.016575398
0.04732082 0.053750772 0.04389029 0.037595637 -0.29069415 -0.0014825953 -0.0001754677 -0.06440346
-0.18964675 -0.08916778 0.18059269 -0.10716996 0.14978656 -1.480773 -1.1346757 -0.08859639
-1.1927949 0.054126292 -0.010289502 -1.6794432 -0.030533442 0.027417403 -1.4788027 -0.023518678
0.064619705 -1.2130364 0.03545352 -0.008603806 -0.017720455 -0.0037842458 0.14273855 0.12734245
-0.0032417728 -0.00095952017 0.3733747 0.11706358 -0.112271786 -0.18558235 0.13706052 0.14560595

0.bias f4 [23]
00000000: 6788 a7bd 195d d13d 3944 7f3d 428f 02be
00000010: 5612 cfbd 6a81 0ebe f45c 1fbe b872 2bbe
00000020: b138 da3d 73e6 133e 0fc0 343d 20be cb3c
00000030: 12d3 ec3c ad87 e4bd e479 9e3d ec93 9b3d
00000040: 69e3 653e 7a51 403e d2d4 d83a 1fdd 86bd
00000050: 0dd1 77bd f22c 27bd 490b 70be
-0.081803136 0.10222835 0.06232092 -0.12749961 -0.10110919 -0.13916555 -0.15562803 -0.1674298
0.10655344 0.14443378 0.044128474 0.024870932 0.02890924 -0.111586906 0.077380925 0.07596573
0.22450031 0.18781081 0.0016542918 -0.06585144 -0.0605021 -0.040814348 -0.23441805

2.weight f4 [19, 23]
00000000: d91a c43e 0603 ab3d 8379 c13e fbc3 eebd
00000010: 82d5 6b3b f6ae ab3e 8216 96bd c07f 5abe
00000020: 590a 433e c87a f1be 8954 bbbb 0a61 5e3e
00000030: f5bf adbd 7755 d5bd 1e6b 283d 3cdc aa3d
00000040: 00b7 8c3c 52a3 303e a616 67bc 1260 04bd
00000050: 0a2c 61be e8da a03c 7b0a a7bd 0bc1 b1be
00000060: 193a 003e 6c43 b53c e417 243e d6cf e9bd
00000070: 42ef 8abe 1113 bb3d 0c3a 57be 82e5 4d3d
00000080: f54a 343d bfb0 f7bd 499a 373e a646 1bbe
00000090: d5c3 9fbc e8f7 16bd 6773 0e3c 9ddc ecbd
000000a0: 1dc5 d63d bc56 ff3d b99b 0ebe 7b7d 43bd
000000b0: 28c2 08be bc5c ac3c a2db 8cbf 2bb1 ee3c
000000c0: 8fa5 5cbe c6b3 29be 0f3d 923e aea4 2ebe
000000d0: 7df9 1ebe e59f 9d3c c84d aebe 1b67 f73b
000000e0: 587c 083e b3a6 c6bd 685a f13e 9f51 8f3e
000000f0: 53fc c13d 7909 1ebe dac8 b23d 67b7 9c3d
00000100: 8696 febd 1f82 a03e cbac 003e 9d58 2d3d
00000110: 27c7 363e a572 9abf d87e 52be b520 ccbe
00000120: 4fa7 55be 96fc 903e 607f 5cbe c7e6 27be
00000130: 404d 57bd 29d1 c1be 77b9 683c bb5d b83d
00000140: ba4f b0bd 8a5b ff3e 4685 993e 8e4d 1d3e
00000150: f047 36be 24e8 023e 3efa 343e ba06 1cbe
00000160: eaa9 af3e 6f3d 123e 6df2 383d a08f 343e
00000170: 71d4 a7bd 05f8 22be 59e8 febc 4590 b4bd
00000180: 01c5 3ebe e78d c0ba e1e2 89bd ecd5 1bbe
00000190: 1a13 9ebd 9b4b debd 80d3 66be bf05 4cbc
000001a0: 4c65 603c 025b a93d 158d bc3d a0d8 5bbd
000001b0: 0996 21be 803f 31be 4a28 49be 441c 1dbc
000001c0: 61fe a6bd 031a 1fbe e796 9e3d 0a1a 70bf
000001d0: 8ab8 28be 69fc 9ebe 9ae0 23be 9286 733e
000001e0: 0f83 13be 93ac 15be 35d7 0e3e 7cd4 24be
000001f0: 2381 8cbd e82a f33c a6ea 07be 7e6c 003f
00000200: 182b 323e c27e de3d 0c9c 2dbe 0fd8 003e
00000210: 0c81 16bd a379 f1bd 2410 c53e 86c8 943d
00000220: 9c1a abbc 4729 1d3e 500d 6abe cf4e 543e
00000230: e68e 64be 4645 11bd a7b8 e23d 6586 97bd
00000240: df87 853c ddd5 9e3d be31 21bd 4781 083c
00000250: 0310 e6bd c4b5 84bd 5f83 523e 157a 763c
00000260: 8c31 2c3d 20b2 8ebd eb4c 8c3d d954 e7bc
00000270: cc01 fa3c 50b2 263e 6aab 083c 05cf 7f3d
00000280: ace7 803d 6ad7 613c 2827 e6bd 63bd a43c
00000290: bf34 c0bd ce40 a0bd 552a 50bd 60d7 2e3d
000002a0: 77c2 913c cf92 20bd 1e57 c63c 0dc9 02be
000002b0: 471e 4b3d ad50 4b3d 3729 303d 4462 383d
000002c0: 5c23 63bd 57e4 cc3d 0393 7e3c 256d 183c
000002d0: bf81 613e 342b 2d3d 4bd3 743d 31a1 293d
000002e0: 838a 97be c142 7d3e 3132 4bbe d487 723c
000002f0: 7cb8 013e 9d1e a4bd f769 23bb 577d d6bc
00000300: 2447 e2bd 6bad 233d 69f8 f33c 84b2 dcbc
00000310: f362 103e ed8e 123e 0582 a9bc 06a0 03be
00000320: 5af2 b538 3ada 803c 7f22 1bbd 3ce2 fc3d
00000330: b844 37bd 6838 cb3b 6f24 9e3d 414e 00bf
00000340: e95c 103e b200 c2bd c71c afbd a458 633d
00000350: 558e cfbd 34e4 87bd 4d48 593d 75db 65be
00000360: 4d38 0abe b730 4bbe 13e5 f6bc e937 473e
00000370: 0b70 173e 4023 153e 8a0c 24bd b99f 0b3e
00000380: 66db 823d 8c7b 7ebd be78 9e3e 2e71 0d3d
00000390: 3ba6 34bd 280c c93d 9ecf c9be bb7b c4bc
000003a0: 5c70 d0bd 16f7 1dbf 65e2 a3bd bd43 a6bd
000003b0: c6cc 9f3d a05b ecbd 84cc 0dbf bc17 ae3d
000003c0: 89fb 283d da27 c6bd 82db 033e f57c 723d
000003d0: d444 a2be 0215 35be 3e73 bb3d e925 aabc
000003e0: 3c26 7bbe c998 bc3d 2069 823d 4de3 0bbd
000003f0: bbff 1c3e f02f a53e 43bb 18bc df6b 4f3d
0.38301733 0.08350186 0.3778802 -0.11658474 0.0035985415 0.33531922 -0.07328512 -0.21337795
0.19046916 -0.47163987 -0.0057168645 0.21716705 -0.084838785 -0.10416692 0.04111778 0.083427876
0.017177105 0.17249802 -0.014104521 -0.032318182 -0.21989456 0.019635633 -0.08156296 -0.34717593
0.12522162 0.022126876 0.16024739 -0.11416595 -0.27135664 0.09134496 -0.21018237 0.050267704
0.044016797 -0.120942585 0.17929949 -0.15163669 -0.01950256 -0.036857516 0.008694506 -0.11565516
0.10486815 0.12467715 -0.13926591 -0.04772709 -0.13355315 0.021040313 -1.1004527 0.029137215
-0.2154753 -0.16572484 0.2856221 -0.17055008 -0.1552486 0.019241283 -0.34043717 0.007550133
0.13328683 -0.09699764 0.47139287 0.2799196 0.09471955 -0.15433301 0.08729716 0.07652169
-0.12431054 0.31349275 0.12565915 0.042320836 0.17849408 -1.2066237 -0.205562 -0.39868703
-0.20864604 0.28317708 -0.21532965 -0.16396628 -0.052563906 -0.3785489 0.0142043745 0.09002253
-0.08608957 0.49874526 0.29984492 0.15361616 -0.1780088 0.12783867 0.17673585 -0.15236941
0.34309322 0.14281248 0.04515307 0.17632914 -0.08194817 -0.15914924 -0.031116651 -0.0881658
-0.18629839 -0.0014690728 -0.06732727 -0.15218323 -0.07718487 -0.10854264 -0.22541618 -0.012452542
0.013696026 0.082693115 0.09206597 -0.053673387 -0.1577989 -0.1730938 -0.19644275 -0.009589259
-0.08153988 -0.15537266 0.07743626 -0.9378973 -0.16476646 -0.3105195 -0.16003647 0.23781803
-0.14405464 -0.14616613 0.13949282 -0.16096681 -0.068605684 0.029683545 -0.13273105 0.50165546
0.17399251 0.10864021 -0.16954058 0.1258242 -0.036744162 -0.117907785 0.38488877 0.07264809
-0.020886712 0.15347777 -0.22856641 0.20733188 -0.22320136 -0.035466455 0.11070376 -0.073986806
0.01630014 0.07755635 -0.03935408 0.008331603 -0.11233523 -0.064799815 0.20557927 0.015043755
0.04203944 -0.069675684 0.068506084 -0.0282387 0.030518435 0.16278958 0.00834165 0.06245329
0.06294188 0.013784269 -0.11237937 0.020109838 -0.093850605 -0.078248605 -0.05082162 0.042685866
0.017792923 -0.039202508 0.024211463 -0.12772007 0.04958942 0.049637485 0.043008056 0.04501559
-0.055453643 0.1000449 0.01553798 0.009303366 0.2202215 0.04227753 0.059771817 0.04141349
-0.29597864 0.24732496 -0.19843365 0.014802892 0.12668031 -0.080136515 -0.0024934986 -0.026182814
-0.11048725 0.039960306 0.029781537 -0.026940592 0.14100246 0.14312334 -0.020691881 -0.12854013
8.675894e-05 0.015729059 -0.037874695 0.12347838 -0.04474327 0.0062017925 0.07721793 -0.50119406
0.14097942 -0.09472789 -0.08550411 0.055504456 -0.101345696 -0.06635323 0.053047467 -0.22446997
-0.1349804 -0.19842802 -0.030138528 0.19454922 0.14788835 0.14564228 -0.04005102 0.13635148
0.06389503 -0.062129542 0.30951494 0.034531765 -0.044103842 0.09816772 -0.39416212 -0.02398478
-0.10177681 -0.6170515 -0.08002166 -0.08118389 0.07802729 -0.115409136 -0.5539019 0.08500621
0.041255508 -0.0967557 0.12876704 0.0592012 -0.31693137 -0.17683795 0.0915284 -0.02077003
-0.24526304 0.09208829 0.06367707 -0.034152318 0.15331928 0.32263136 -0.00932199 0.050639983

2.bias f4 [19]
00000000: 6f92 853e 454d e9bc cea3 533d e90e 36bd
00000010: d97e fa3d 54db d13d 9714 3bbd fa2d 5bbc
00000020: 48fd 41be 5746 dcbd 07ca 8dbd a86d f43d
00000030: e031 033c d5e9 6d3e dc6e 80be 3312 b4bd
00000040: b495 033e de4c 28be 4e98 983d
0.26088282 -0.028479228 0.05166989 -0.044447813 0.122312255 0.10246912 -0.045673933 -0.013377661
-0.18944275 -0.10755604 -0.06923299 0.11934978 0.008007497 0.23233731 -0.2508458 -0.08792534
0.12850076 -0.16435573 0.07450925

5.weight f4 [16, 19]
00000000: 484c ad3b a4d8 35be 371b 013b c666 bcbe
00000010: a5d6 43be 566c 02bc 71b5 83bd 2547 783e
00000020: d72c 57bd 96b0 49bd 1634 a23d 728a d2bd
00000030: dd8c cebc e662 e13c 7cfb 54bf f975 22bd
00000040: d68d 90bb 3c9c a13f 68a3 ffba e5b7 893c
00000050: cb03 dfbd 25b2 f4bf 36a1 bdbf 57dc f83d
00000060: b67f 99ba 8b8b 11bd d6e2 cd3b 4dc9 a1bc
00000070: a8ec abbc c452 433d 1204 ef3c 4689 3bbc
00000080: 418a 003d df56 18bd e679 94bc ff36 e53c
00000090: 106d 8fbf fc61 b9bc bb8a 7ebd 6369 b93d
000000a0: ab0d 973c fc3b d5b9 fae6 b9bd bda7 d93b
000000b0: e585 993e edbe b13c 557c 833e 656e b13e
000000c0: 341e 863e d22a 2d3c aa30 233e 2f1f f5bd
000000d0: e809 2dbb 5aa7 553e 1ff7 643c fb82 08c0
000000e0: 175c b93f ed1b 573d 4e05 aebd b6fb 62be
000000f0: 7dd1 443e 393f c6bc 6675 1c3d d345 0e3e
00000100: 0a11 84bd e625 003e b918 cc3d 80f7 2ebd
00000110: e6a3 6bbd 7b8a 1e3d 0c67 91bd 6e5b 0ebe
00000120: 9a87 b33d 6a22 40be 1e36 2640 ba2f d5be
00000130: 1a3d 02bb 0085 ccbd 135f cfbf 2122 acbf
00000140: 07c6 dabd ae3e 853c 609b ee3d 80bc 90bc
00000150: 8510 a63d 77c3 9e3d 7d1e 6b3d 71bb 04bc
00000160: 1e40 733d 09db 4fbd e1b9 273c 6732 8c3d
00000170: ec40 e1bf 4ac2 0040 bcc6 80bf b225 0e3d
00000180: 992c 8d3d 84d2 08c0 5043 cebf fd3d 803d
00000190: e299 42bd fed4 9bbe e7cc 483c 4079 66be
000001a0: af44 4ebe cd43 6ebe c1a9 b53b 715c 99bd
000001b0: 81e1 abba 8562 72bd 4973 34be 99a6 86bd
000001c0: f329 28bf b469 50bf b0b6 603c d249 f7bd
000001d0: a276 f6bd e58a 133e fe72 c33c 38f9 1dbe
000001e0: 1988 313e 1429 75be 317d eb3d f0b1 fb3d
000001f0: 159c 8a3d b722 0dbe 3bf2 7c3c 838a 07be
00000200: d2c8 1dbe 108d c73d 91bd 1e3e 2fb5 0740
00000210: 61f4 f2be dc4b 50be 8d84 f6bc 531e 723e
00000220: 3ddc 533e 7c4a 213d 2ecd 803e f3d9 afbd
00000230: a856 b4bd d80f 11be 9569 3bbe 1996 0f3f
00000240: c70b 87bc e1ce 893e eeaa eabd 4934 b2bb
00000250: e77d dabd 6da0 6abc 0156 0b40 c4d9 64bf
00000260: 812d a6bc f5f7 29be 6342 533e f1af 81be
00000270: 570e 5cbe 1260 6abe 37a1 9e3d 304a 10be
00000280: e484 933d 0828 6e3d 546d 013d 023f dfbd
00000290: 6878 703d b7dd aabd 2124 bf3d 886f 493d
000002a0: c440 43be c49b 1e40 57d4 bfbe da8c dfbd
000002b0: b83e e5be 7a98 70be 6a1e 7cbe 2377 d8bd
000002c0: 0681 203e 40f4 42be 8677 0a3b c2a1 f5bd
000002d0: b63f e4bd dd92 913c 3812 e5b9 83c7 8abd
000002e0: 0452 86bd 2024 f33d 4970 e0bd 2b61 a03e
000002f0: bc6b e93f ec79 c2be a069 9c3e 14c9 13bf
00000300: 6dfb 593d 32d1 893d fffa 8c3d 2493 b0bc
00000310: c3f5 69bd 56e7 4bbf 8597 d03d 693b e93d
00000320: d019 173f c767 a0be 8618 473c fc43 273f
00000330: 0c74 163e 1fbd 113d 6bda 8e3c 4bc5 a63f
00000340: 1fda 463f d4c1 1ebf da25 11bf 08da 613e
00000350: fb23 483e 5308 11be 5a21 963d b3ad 193e
00000360: 8a19 973e 94d9 673e ef68 8c3e 686d b9bf
00000370: d59e 873e 43c8 e63d e495 33bf 0216 a53d
00000380: e141 163e 48f8 403d 65dc 9f3f 1e94 2bbf
00000390: 993a 463c 9e5d 2cbf f2c0 663e 3a97 8dbc
000003a0: 267f 5cbd 5438 833c 0762 263e 2a4f 2dbe
000003b0: 725b f53d c9a3 1d3e 9ef5 0bbf f4bb 07be
000003c0: d372 053d 24f3 05be 651b 6bbe 2708 ed3d
000003d0: 1815 f03d 9a6f 0340 e359 e6be 46ea e33b
000003e0: 5c80 11bf fd7f 2a3e eada a8be e83a 0ebe
000003f0: cfd9 583e 685d cc3d 7204 2abd 763d 8b3c
0.0052886344 -0.17758423 0.001970006 -0.3679716 -0.19124849 -0.0079604 -0.064310916 0.2424589
-0.052532997 -0.04924067 0.07920091 -0.102803126 -0.025213653 0.027512979 -0.83196235 -0.03966329
-0.0044114394 1.2625804 -0.0019503655 0.01681132 -0.10889395 -1.9116865 -1.4814823 0.121514015
-0.0011711034 -0.03553347 0.0062831445 -0.019749308 -0.02098687 0.047686353 0.029176746 -0.011446303
0.03138185 -0.03719222 -0.018124532 0.027980326 -1.1205158 -0.02262973 -0.062144022 0.09053304
0.018439135 -0.00040671218 -0.090772584 0.0066423104 0.29984966 0.021697486 0.25680795 0.34654537
0.26194918 0.010569291 0.15936533 -0.119688384 -0.002640361 0.20864621 0.013974934 -2.1329944
1.4481229 0.052516866 -0.084971055 -0.22166333 0.19220538 -0.024200069 0.038197897 0.13893823
-0.064485624 0.12514457 0.09965653 -0.042716503 -0.057529353 0.038706284 -0.07099733 -0.13902065
0.08766098 -0.18763128 2.597053 -0.41637975 -0.0019872845 -0.09986305 -1.6200889 -1.3447915
-0.10682302 0.01626524 0.11650729 -0.017668009 0.081086196 0.07752126 0.057402123 -0.00810133
0.05938732 -0.050745998 0.010237188 0.06845551 -1.7597938 2.0118585 -1.0060649 0.034703918
0.06893272 -2.1378489 -1.6114292 0.06261823 -0.047510035 -0.30435938 0.012255884 -0.2250719
-0.20143388 -0.23268051 0.005543918 -0.07488335 -0.001311347 -0.059175987 -0.17622103 -0.06574745
-0.6568901 -0.8141129 0.013715431 -0.12074627 -0.12034346 0.14408453 0.023858543 -0.154271
0.17337073 -0.23941451 0.11498488 0.12289798 0.067680515 -0.13782774 0.015438612 -0.13236432
-0.15408638 0.097437024 0.15502001 2.1204336 -0.4745207 -0.20341438 -0.030092502 0.2364438
0.20689483 0.039377674 0.2515654 -0.085864924 -0.08805591 -0.141662 -0.18301995 0.56088406
-0.016485108 0.2691565 -0.114583835 -0.005438362 -0.10668545 -0.014320475 2.1771243 -0.89394784
-0.02028537 -0.16598494 0.20630793 -0.25329545 -0.21489845 -0.2288821 0.07745593 -0.140908
0.07203081 0.058143646 0.031598404 -0.1090069 0.05870858 -0.0834307 0.09333063 0.04917863
-0.19067675 2.4782572 -0.3746669 -0.10915537 -0.44774413 -0.23495665 -0.24620977 -0.105695985
0.15674219 -0.19038486 0.002112837 -0.119937435 -0.111449644 0.017770225 -0.00043691858 -0.06776335
-0.06558612 0.11872125 -0.10958917 0.31324133 1.8236003 -0.37983644 0.30549335 -0.57728696
0.053218294 0.06729354 0.06883811 -0.021554537 -0.057119142 -0.79649866 0.1018515 0.11388285
0.5902376 -0.31329176 0.012151843 0.6533811 0.14692706 0.03558075 0.017438134 1.3028959
0.77676576 -0.6201451 -0.5669838 0.22055829 0.19544975 -0.14163332 0.0733058 0.15007667
0.29511672 0.22641593 0.27423808 -1.4486513 0.26488367 0.11268666 -0.7015059 0.08060838
0.14673568 0.04711178 1.2489134 -0.67022884 0.012098932 -0.6733035 0.2253454 -0.017284025
-0.053832196 0.01601807 0.16248332 -0.1692473 0.119803324 0.1539451 -0.5467166 -0.13255292
0.032580208 -0.13081032 -0.22959669 0.115738206 0.11722773 2.0536866 -0.44990453 0.006955418
-0.56836486 0.16650386 -0.32979518 -0.13889658 0.21176837 0.09978753 -0.041508146 0.01699708

5.bias f4 [16]
00000000: ae51 d1be 6456 d4be 5df9 8fbf 76d4 b83f
00000010: bf35 3b40 ec9f c63e 1507 5a3f 21e9 9ebd
00000020: c0bc b43f 243b 0a3f 7222 293f 30d2 493f
00000030: cc4d 733f 5e79 4a3f 3631 8f3f 9e9c ddbd
-0.4088263 -0.4147216 -1.1247975 1.4439838 2.9251554 0.38793886 0.85167056 -0.077593096
1.4120102 0.5399649 0.66068184 0.78836346 0.95040584 0.7909144 1.1186893 -0.10820888

7.weight f4 [13, 16]
00000000: 4625 03bf 08a1 43bf e91b 4c3d f7f9 533e
00000010: 5187 683f 6e1e b7bf ba10 653e 080e 4a3e
00000020: cde0 c23e 10df 983e 3b8e eb3d 7096 033d
00000030: ef4d 313e f09e 7b3e 921e 803e fe5c 873e
00000040: 5858 dcbf 2650 16c0 8879 6abe d7a0 a63e
00000050: d861 943f 65c2 27c0 2682 833e 05da 523e
00000060: 2f58 e13e de1e a03e 47b6 8b3e a8da 6e3c
00000070: 24d5 903e 5ad1 863e 1880 a83e a65d 8c3e
00000080: 1a9c 3fbf ac30 d7bf 1e9c ecbd bb13 763e
00000090: 0fe5 893f d6fc d9bf 8269 7f3e d9fd 2a3e
000000a0: d6dd e83e a50a aa3e 02ad 0cbd cf93 103e
000000b0: d47c 563e be76 833e 8955 973e 1bf0 9f3e
000000c0: 5b89 31bf 6514 cbbf c353 9ebd b5a2 6a3e
000000d0: 0480 873f 4691 c6bf cc53 7f3e 3879 363e
000000e0: c9b8 e63e 55f5 a83e f196 eebc 84e5 fc3d
000000f0: 29c0 4e3e edd0 813e 8f49 943e 9b93 9f3e
00000100: c1d9 3bbf 0a3e d9bf fedf d9bd ca68 753e
00000110: 9efe 893f b192 d8bf 6e64 803e fbdc 2f3e
00000120: 0d96 e83e 1855 aa3e 60ab cfbc 5cd4 093e
00000130: d5df 553e 75d8 833e 680c 973e edc9 9f3e
00000140: 4aae 39bf aed8 debf 4616 fcbd da08 793e
00000150: 95fc 8a3f 57bd d1bf 4e35 7f3e 8f5e 2b3e
00000160: 70c7 e93e 5dbe aa3e 8e77 04bd b85c 123e
00000170: ca5b 583e 9ea9 843e 9a05 993e 82e5 9f3e
00000180: 53f0 37bf 7272 e3bf 582e febd 9134 733e
00000190: 2e76 893f aab4 e1bf 85b0 7f3e 85fb 293e
000001a0: 2625 e83e ad97 a93e bf25 40bd c536 143e
000001b0: 9831 563e 2970 833e f616 973e 9a2a a13e
000001c0: c5f2 33bf 6330 dabf d7fc 0ebe 20ce 753e
000001d0: d327 8a3f 9777 eabf b533 7e3e 990b 233e
000001e0: 2d5b e83e 0216 a93e 8595 60bd 9552 1e3e
000001f0: f110 573e 1de1 833e 04de 973e 8c43 a03e
00000200: 995a 2ebf 2a61 ddbf 526f 2cbe bc63 7d3e
00000210: 249d 8a3f 400b eebf 9be7 7a3e 4b07 173e
00000220: 22ae e73e 635c a83e 8711 8bbd 179f 313e
00000230: 46d2 593e 6509 853e 0abe 9a3e 90d0 9f3e
00000240: 6b41 11bf 7b73 e6bf 3ffb 28be 87aa 733e
00000250: a7f3 883f d7f2 fbbf 23c2 793e 2c49 153e
00000260: 7bcc e53e 342f a53e 7ec1 b4bd c112 343e
00000270: 3934 553e 3af0 833e 3da9 993e 0e80 a03e
00000280: f9e1 e4be 6cee f4bf 40c9 4abe a55e 7b3e
00000290: 2796 883f 42de 07c0 3b2a 733e 6bac 023e
000002a0: 3eb1 e23e ee84 a23e d0d0 cfbd 04d3 4e3e
000002b0: d64f 563e 0d4a 843e 178e 9c3e d7e8 9c3e
000002c0: 315e 83be d263 e8bf a253 62be a290 813e
000002d0: 6502 893f 5416 fabf d72b 6c3e 6c84 e93d
000002e0: ca5f e13e d5f3 a03e ccb9 e6bd 766a 633e
000002f0: 8637 563e 68a8 843e 889a 9e3e c222 9a3e
00000300: 0eb7 cb3e dade b7bf d442 f3be 510b a43e
00000310: 0701 8d3f 0088 21c0 66ff 563e 105a dd3a
00000320: aabb d23e 3069 993e 5d44 0bbe a0dc bc3e
00000330: 975b 6e3e aab5 993e 5c6e b53e e661 8d3e
-0.5122875 -0.7641759 0.049831305 0.20700823 0.90831476 -1.4306161 0.22369662 0.19731915
0.38062134 0.29857683 0.11501738 0.03212589 0.17314886 0.24572349 0.25023323 0.26438135
-1.721446 -2.3486419 -0.22897923 0.32544586 1.159236 -2.62124 0.25685233 0.2059098
0.4401259 0.3127355 0.27287504 0.014578499 0.28287613 0.26331598 0.32910228 0.27415198
-0.7484757 -1.6811728 -0.115532145 0.24030964 1.0773028 -1.7030284 0.24942592 0.16698398
0.45481747 0.33211246 -0.03434468 0.14118885 0.20946056 0.2567653 0.29557446 0.31237873
-0.6935021 -1.5865599 -0.0773082 0.2291363 1.0585942 -1.5513084 0.2493431 0.17819679
0.45062855 0.32999673 -0.029124709 0.12348464 0.20190491 0.2535471 0.2896237 0.31167302
-0.7337914 -1.6972058 -0.10638426 0.23965755 1.0780828 -1.6919767 0.25076622 0.17174141
0.4542698 0.33268046 -0.025350273 0.13459915 0.20886166 0.2575108 0.29501653 0.31208745
-0.7253157 -1.7409875 -0.12308936 0.24319783 1.0858332 -1.6385907 0.24922678 0.1673529
0.4565997 0.3334836 -0.03234058 0.14293182 0.21128765 0.25910658 0.29887086 0.31229788
-0.7185108 -1.7769301 -0.12411183 0.23750521 1.073919 -1.7633259 0.2496968 0.16599853
0.45340842 0.33123532 -0.046910997 0.14474018 0.20917356 0.2567151 0.29509705 0.31477815
-0.7029231 -1.7046016 -0.13963638 0.24004412 1.0793403 -1.8317746 0.24824412 0.15922393
0.45382062 0.33024603 -0.054830093 0.1546119 0.21002556 0.25757685 0.29661572 0.31301534
-0.6810699 -1.7295277 -0.1683934 0.24745077 1.0829206 -1.8597183 0.24502413 0.14748876
0.4525004 0.32882985 -0.067904525 0.17345844 0.21271619 0.2598373 0.30223113 0.31213808
-0.56740445 -1.8003992 -0.16502093 0.2379552 1.0699357 -1.9683484 0.24390464 0.14578694
0.4488257 0.32262576 -0.08825968 0.17585279 0.20820703 0.25769216 0.3001193 0.31347698
-0.44703653 -1.913526 -0.19803333 0.24547823 1.0670823 -2.1229405 0.23746578 0.12761085
0.4427585 0.31742042 -0.1014725 0.20197684 0.20928892 0.25837746 0.30577156 0.30646393
-0.256578 -1.8155463 -0.22102216 0.2530566 1.0703856 -1.9538064 0.23063599 0.114022106
0.44018394 0.3143603 -0.11265907 0.2220858 0.20919618 0.25909734 0.30977273 0.30104643
0.39788097 -1.4364884 -0.47511923 0.32039884 1.1015939 -2.5239258 0.20995864 0.0016887803
0.411588 0.29963064 -0.13600297 0.36887074 0.23277126 0.3002141 0.3543576 0.27613753

7.bias f4 [13]
00000000: 1676 e0be b724 143f 17a2 7ebe 305a 6ebe
00000010: 4296 a9be 7946 9dbe 2064 30be 351f 03be
00000020: 94c3 afbd 80e6 c33d e791 3f3e 229e 833e
00000030: 4f38 323f
-0.43840092 0.5786852 -0.2486652 -0.23276591 -0.3312245 -0.3071783 -0.17225695 -0.12804873
-0.085822254 0.09565449 0.18708001 0.25706583 0.6961717
