results/PokerGPU/poker_qnet_final.pth (torch, 14731 bytes, 8 tensors)

0.weight f4 [32, 39]
00000000: 8bf9 583d ec6d a53d 4366 80bd 3b26 52bc
00000010: f0d9 583d 6223 ac3d 46dd 313e 9ba5 dcbd
00000020: f8ff 563d a033 b83d 31e6 0b3e 3631 3f3e
00000030: 728d 433e f81f e23e ccb1 c5bd c712 1e3e
00000040: 6936 7a3e 5e44 eabc 1983 b83d 2e5e 583e
00000050: 0665 38bd 3032 c03d 391f 763e f1aa 883d
00000060: 02e7 9e3d bc99 4b3e 4bd8 823d c1a9 1b3e
00000070: 89f9 133e 7753 703e f87e 053b f63f 5dbc
00000080: 32a0 573e 27c0 1c3e 326c 423e b83d 753e
00000090: 6ff9 1a3e c087 573e 9dc9 ddbb ef77 3ebc
000000a0: 3286 a83d d582 18bd b80b 023b a426 2dbe
000000b0: c3aa 4d3e a92c 0b3d 1355 90bd d3d7 f33d
000000c0: 9c52 91ba 6e6b 513d cc55 a83c 98b5 673e
000000d0: 0025 af3e fe31 09be 33b3 babb cccb 923d
000000e0: 3c2c f93d 5f53 cb3d 43ae 1d3e 418f 9ebc
000000f0: 6962 a93c 1d63 a33e fa1e 273e aa9a c53a
00000100: eb00 543e 4135 843e 242f 8dbd 295a 463e
00000110: e3c8 613d 77cf 84bd 0de8 593e 29c4 753e
00000120: 80dd 24bc 0ece 923d 7095 2b3d 4aa3 253e
00000130: cf3d 0e3e dbb7 483e e29f 003e 741f 98bd
00000140: acbe e43d 98bb 6bbd 19a3 36bc 7e58 9d3c
00000150: f1e4 a7bd 81e8 e73d 6953 5b3e 81c6 84be
00000160: e73d 553d a2bf 58be 3ab0 c0bd 6ce7 3cbe
00000170: b9bb eebd 3d78 a9bd ec60 65be f4c7 1fbe
00000180: ac70 71bd fe09 82be 517f 31be 0597 183e
00000190: 86cd cebc 9808 27be 7f6e 033d 3f9a a1bb
000001a0: 621d 6cbd c673 39bd 30e8 12bd ee01 21be
000001b0: dd46 133e 5e8e e0bd d4fc eabd 3608 ec3d
000001c0: 554d a5bd e26f 4fbe c362 0a3e 669a 04be
000001d0: 813e 373d 31bb 213e 5f08 ad3d 6e5a aa3d
000001e0: ba5c a1bd c5a9 3bbe fb3b e63d e09c eabc
000001f0: 460c 3fbd fccf f3bc baaa 4f3e 32d2 6c3e
00000200: 1ca5 423e a716 e83c 5053 863e 80f4 3e3d
00000210: bd5b 1cbd e31a c43d 21ec a2bd 7846 973d
00000220: 769b 553e 583c 063e 3eaa 253e 5626 183c
00000230: e310 a938 c6ca f13c 0e0d ec3d dc2c 173d
00000240: ddf6 cbbb b337 593d b6ef dc3d 9240 a23d
00000250: cb0e e43d 2a81 633e 9365 96bc c5e9 133d
00000260: 2755 e43c c2fb 803c fee3 453e 3a0e dc3d
00000270: 0860 6b3d 9a22 1c3e a017 383e 7252 053e
00000280: 55f9 3a3e 0088 2d3e f865 213e 039c ca3d
00000290: cf6c 6b3d 313c cdbc d90e 36bb ccf3 52be
000002a0: 4eb9 bcbb fe7f 27be 03af 67bd 54d1 acbd
000002b0: 1385 62be edc6 713e a0c1 0e3e fbce cfbd
000002c0: 1b05 25be 717d 21bd f6b1 37be 2b2f 9b3a
000002d0: 10bf 76bc 68a4 3bbe 8e51 da3d fb0e 343e
000002e0: 438d f0bd 80cd c03d 798f 963d 7c3f afbd
000002f0: 7792 1ebe c3b8 f4bd ecc2 403c ee9f 33bc
00000300: 7153 32be 5b32 5abe 0ce2 81bd 6143 3c3d
00000310: dc15 61bd 7d27 38be 08ca 69be 1d5c 403d
00000320: b74c 33be f790 76bd 347c 95be dbae 6ebd
00000330: 9137 a03d 3ac8 293e a40d 323e 1664 123e
00000340: f8da 1f3e 33c1 4b3d fa31 113e b575 023e
00000350: f0eb 703d 9fef 21bd 05f5 723e 127b 5a3e
00000360: 75de 8d3d 1867 413e fe90 c5bd 0453 803b
00000370: c893 323e 45f1 293e 5bf2 9fbc ccee f23d
00000380: 1b9f 713d 6332 dc3c d46f ddbc 9ec3 c53c
00000390: 0fce 0c3e 94d6 4ebc 79eb 363e 3bc0 4abd
000003a0: 9a6f 0e3e aa83 493e 6db6 2e3e 7a90 c2bc
000003b0: 81c1 403d b90b 553e 5741 323e 006e 503c
000003c0: 6be3 bc3d 37a7 183e 8deb c83d 4e80 b7bd
000003d0: d7cf 8cbd 104c 9ebe bce9 ec3b 69c5 16be
000003e0: eea9 8a3e 4669 b63d f150 4cbd 7058 b93d
000003f0: 004d 403d b4fb 00be 14cf 57be 4ffd f0bc
0.052972358 0.080776066 -0.06269505 -0.012826498 0.052942216 0.08405186 0.17369565 -0.10773774
0.052490205 0.08994222 0.1366203 0.18671116 0.19096926 0.44165015 -0.09653053 0.1543685
0.24434818 -0.028597053 0.0900938 0.21129677 -0.04501822 0.093845725 0.24035348 0.066732295
0.07758905 0.19882864 0.06388911 0.15201475 0.14450659 0.2346934 0.0020369869 -0.013504019
0.21057203 0.15307675 0.18986586 0.23949325 0.15134214 0.21047878 -0.006768419 -0.011625274
0.08228721 -0.037234146 0.001984341 -0.16909271 0.20084672 0.033978138 -0.070474766 0.119063996
-0.0011087242 0.051127844 0.020548724 0.22627866 0.34207916 -0.13397977 -0.0056976317 0.071677774
0.1216664 0.09928011 0.15398507 -0.019355418 0.020676808 0.31911555 0.1632041 0.0015076001
0.20703475 0.2582188 -0.06893757 0.19370331 0.05512322 -0.06484883 0.21279927 0.2400061
-0.010062575 0.07168208 0.04189056 0.16175571 0.13890766 0.19601385 0.1256099 -0.07427874
0.1116918 -0.05755195 -0.011147284 0.019207235 -0.08197964 0.113236435 0.21418537 -0.25932696
0.052060988 -0.21166852 -0.094086125 -0.18447655 -0.11656899 -0.08274887 -0.22400254 -0.1560362
-0.058945343 -0.25398248 -0.17333724 0.1490136 -0.025244486 -0.16311872 0.0320878 -0.0049317176
-0.05764521 -0.045276426 -0.035865963 -0.15723392 0.14382501 -0.109646544 -0.114740044 0.115250036
-0.080713905 -0.20257524 0.13514237 -0.12949523 0.044737343 0.15794064 0.08448862 0.08318029
-0.07879014 -0.1832648 0.11241909 -0.028639257 -0.046642564 -0.02976226 0.20279971 0.23127058
0.19008297 0.028331114 0.26235437 0.046619892 -0.038173426 0.09575441 -0.07955194 0.07386488
0.20860085 0.13108957 0.16178223 0.009286484 8.0616934e-05 0.029515635 0.115259275 0.036908016
-0.0062244968 0.053031635 0.10787909 0.07922472 0.11135634 0.22217241 -0.018358981 0.036111612
0.027872635 0.015745047 0.19325253 0.10744901 0.05746463 0.15247574 0.17977762 0.13019732
0.18259175 0.16946411 0.15761554 0.09893038 0.057476815 -0.025053116 -0.0027779846 -0.20600814
-0.0057593947 -0.16357419 -0.05656339 -0.08438364 -0.22121076 0.2361104 0.1394105 -0.101469
-0.16115229 -0.03942627 -0.1793898 0.0011839619 -0.015060201 -0.18324435 0.106600866 0.1758384
-0.117456935 0.09414196 0.07351584 -0.085570306 -0.1548556 -0.11949303 0.011765223 -0.010963423
-0.17414643 -0.21308272 -0.06341943 0.045962695 -0.054952487 -0.17983814 -0.22830975 0.046962846
-0.17509733 -0.060196843 -0.29196322 -0.058272224 0.078230985 0.16580287 0.17388016 0.14295992
0.15610874 0.049744796 0.14179221 0.12740214 0.058818758 -0.03953516 0.2372628 0.2133601
0.06927196 0.18886983 -0.09646796 0.0039161462 0.17439187 0.16595943 -0.019524744 0.11861953
0.058989625 0.026879495 -0.027030863 0.02414113 0.1375048 -0.012624402 0.17863263 -0.04949973
0.1390976 0.19679132 0.17061777 -0.023750532 0.04705954 0.20805253 0.17407738 0.012721539
0.09223064 0.14907537 0.09810553 -0.08960019 -0.0687558 -0.30917406 0.0072300117 -0.14723743
0.2708277 0.08906798 -0.04988188 0.09050071 0.046948433 -0.12596017 -0.21075088 -0.029417662

0.bias f4 [32]
00000000: 01ca 54bd 03f6 b43d dd20 443e 5209 253d
00000010: 8ea0 5cbd 31bf 18be 7759 d6bd 9677 a53c
00000020: c725 09bc 7d0e 473e b99a f93d 1496 e03d
00000030: a220 c73c dc40 633d b141 ad3d 5bac b9bd
00000040: 7264 b23d c1f4 9cbd 5f32 debd 49ba ce3d
00000050: d137 ed3d a6d6 9f3d 7a47 c13c 03c2 bebd
00000060: 870b 3b3b 1b85 29bd 3312 f2bc 2a67 32bd
00000070: f549 bd3b 90dc 233e 51ae 253d 0263 3b3e
-0.05195046 0.088359855 0.19153161 0.04029209 -0.053864054 -0.14916684 -0.10466283 0.020198625
-0.008370823 0.1943912 0.12187714 0.10966125 0.024307553 0.055481777 0.08459795 -0.09066077
0.08710565 -0.076638706 -0.10849451 0.10094125 0.11582912 0.07804613 0.023593653 -0.093143485
0.0028540806 -0.041386705 -0.029549694 -0.043555416 0.0057766386 0.16002107 0.040449444 0.18299487

2.weight f4 [24, 32]
00000000: 7bac 473e 69c5 ed3d 3d3e d5bd dafd eb3d
00000010: a96e a2bd 6cc3 f03d 7aec 67bd 63e9 54bd
00000020: 63b0 583e 3728 fc3d f4f5 b3bd bbc7 46bd
00000030: a739 6e3e a1de 6f3d 6f0d 0f3e dcf5 433d
00000040: a6f2 febb 1ab7 a43d 747b 2e3d 7292 cc3d
00000050: dce8 ffbc ba0c 69be 1675 bc3d 97a8 743e
00000060: b1a4 193e de41 d0bd 9a34 2c3d a76f 333d
00000070: 561b 413c 65d7 083a 2fe0 4a3e 754a a6bc
00000080: e672 523e 8427 fd3d 4aa1 8abd 7245 293e
00000090: a8a0 3e3d 223a c23d e8f6 57be f0d9 25bd
000000a0: 1aa2 d3bd f116 d8bd 424a 9abc 7106 0f3e
000000b0: 24fe 663d c51f 6f3c b28d f9bd c595 39bd
000000c0: 10a6 6a3d 9a34 ec3d 05d7 6bbd d859 fa3c
000000d0: af70 dc3d 42c3 68bd 9f37 c5bd 874e 8cbd
000000e0: d37e 453e 5afb 993d cb28 e03d a193 e6bd
000000f0: 0e3b 0c3e 6815 2d3e 2758 203e 1aa1 d1bd
00000100: 9f2d 293e 1f2f 263e ef00 3dbe a077 f5bd
00000110: 32b5 aa3c a20d 5d3e 502e 04be 78e9 753d
00000120: 1c21 293e b39b df3d 2d7b 113e 5edd ed3c
00000130: 718d bdbd 5630 dabd 41e8 46be bd18 c73d
00000140: eebb ebba e7cc e43d ecf9 873d 26c9 973d
00000150: 8133 463b d7e8 5cbd da55 e8bd 8d88 73bc
00000160: 9ab1 a03c 1366 2abd f53a f03c c614 313e
00000170: 6a83 983c 29ab 3dbd aa64 96bc 9a8a 65be
00000180: 1765 283e 58d2 5a3e 77b0 dabd 2e27 2c3e
00000190: cf26 49be 4f60 21bd 1c54 31be 03b5 233e
000001a0: 6bcd 01bc 8543 7f3d 02cc 22bd 09b2 3b3b
000001b0: 879d 183e a453 b7bd 39e8 7a3d 7666 a5bd
000001c0: 12d2 213e d4c1 dbbd a55f 15bd 6dfe 413e
000001d0: 0e9f 63be 89eb 6cbd 0aa8 92bc c3fc 42bd
000001e0: dc6c e5bb 4464 3cbe 828a 88bd 6228 003d
000001f0: 3d1f 413e a855 5abb 2823 2dbd b8c4 6dbe
00000200: 7310 a63d 4d88 e23d 97fe 91bc e047 333d
00000210: 6c3c 2fbc 343f 0bbc 196d dfbd 7fbb 26bd
00000220: 0b06 053d 7153 95bd 015d ecbd 8a38 103d
00000230: d7bd 16be 183a 3bbd 555a f6bc d33e 493d
00000240: c2e2 0ebe f92f 2a3c 9c0b 0f3d 6a15 ebbd
00000250: f049 d93d 2d28 abbd 4983 063d 4bef 29bd
00000260: 9cda 26be b799 04be 8722 87bc a3e9 e43b
00000270: 5a2e 213d 9834 81bc 84b0 53bd 0898 afbd
00000280: 0ac2 1cbe 089e d23c 4f14 dc3d eb4b 1dbe
00000290: 2b79 85bd 7ffb 22be 7c19 1e3e d5fb af3d
000002a0: bec5 4c3d fcc9 393e 8fc2 86bd c985 853b
000002b0: cffb 3cbe 3ef6 d63d 4943 2e3e 6b52 efbb
000002c0: beff 15bc abc6 a63c c7c7 5abd e05e 0bbe
000002d0: 2fa2 333e 98cb c6bc 4366 4c3c 11ec 193e
000002e0: 4b4b a3bd 69b1 91bc c86e cd3d bffe 07be
000002f0: 1715 173e 24c3 ba3d 31e7 6cbc f939 9d3b
00000300: 57de 0d3e a7c9 073d 9cbe 40be d60d 313e
00000310: ea9e 803d 7b40 c9bd 9fcf b0bb 4980 843c
00000320: f55a 0dbd c3c6 373e 9e30 143e 9369 3b3d
00000330: fd52 613e 0da6 3a3e 1161 55be fd85 923d
00000340: adc4 07bc a578 c9bd 02d1 973d 8ff0 433e
00000350: cfee 093d aadf 163b 8ea4 febb 370c a5bc
00000360: 67bc d73d 2c71 afbd 0699 8b3e cb52 a63d
00000370: aa6d 2dbc 38c6 093e caa6 aabc 464c 8b3d
00000380: d131 99bd 2892 733d 93e0 1e3e 3c8d 003e
00000390: 46b0 5c3e c749 d8bd 737d f13d 0f52 d83d
000003a0: df44 10be a815 b4bd 1d2f 1f3d 7886 1bbd
000003b0: 1468 86bc 340c 563d 5530 453e 3754 ac3d
000003c0: 0aa1 d43d cc6c 92bc 7753 0f3e 7529 dfbd
000003d0: 39be 553d 214c 89bd 147c 3e3e ae6e b4bb
000003e0: d44a dcbd 9dd7 053e f5f1 753d ca9a ddbd
000003f0: 690e 12bd 3411 1fbd f13e 69bd 2bdf 663e
0.1949939 0.116099186 -0.10412262 0.11523028 -0.07931263 0.11756024 -0.056622006 -0.051980387
0.21161036 0.12312358 -0.08787146 -0.04853032 0.2326418 0.058561925 0.13969968 0.04784189
-0.007780391 0.08042736 0.042598203 0.0998887 -0.031238966 -0.22758761 0.0920202 0.23892437
0.15004231 -0.10168813 0.042042352 0.04380765 0.011786303 0.00052200846 0.19812082 -0.020299176
0.20551643 0.12361053 -0.06769045 0.16530398 0.046539932 0.09483744 -0.21090281 -0.040491045
-0.10333653 -0.10551251 -0.018834237 0.13967301 0.05639471 0.014594977 -0.12185229 -0.045308847
0.057287276 0.115334705 -0.057578105 0.030560419 0.1076368 -0.056826837 -0.096297495 -0.068509154
0.19286661 0.07518645 0.10945281 -0.11258627 0.13694403 0.16902697 0.15658627 -0.10235806
0.1652131 0.16228913 -0.18457387 -0.11985707 0.020838354 0.21587232 -0.12908292 0.060037106
0.16516536 0.10918369 0.14207144 0.02903622 -0.092554934 -0.106537506 -0.19424535 0.09721515
-0.0017985085 0.111718945 0.06639466 0.07411413 0.00302431 -0.05393299 -0.113445 -0.014864099
0.019615937 -0.04160125 0.029324988 0.1729308 0.01861735 -0.04630581 -0.018358547 -0.22416154
0.16444813 0.21369302 -0.10678189 0.16811821 -0.1964371 -0.039398488 -0.17317241 0.15987019
-0.007922511 0.06232025 -0.03974534 0.0028640053 0.14903842 -0.089515 0.06125662 -0.080761835
0.15802792 -0.10730329 -0.036468167 0.18944712 -0.22228643 -0.05784181 -0.017902393 -0.047604334
-0.0070015024 -0.18397623 -0.06667043 0.031288512 0.18859573 -0.0033315215 -0.042269856 -0.23219573
0.08108606 0.110611536 -0.017821593 0.043769717 -0.010695558 -0.0084989555 -0.109094806 -0.040706154
0.032476466 -0.07291306 -0.115411766 0.03521017 -0.14720856 -0.0457097 -0.03007237 0.04913218
-0.13953689 0.010387414 0.03492318 -0.11478694 0.106098056 -0.08357272 0.032840047 -0.041487973
-0.1629433 -0.12949263 -0.016495956 0.0069858595 0.039350845 -0.015772149 -0.05168201 -0.085739195
-0.15308395 0.02571012 0.10746061 -0.15360992 -0.065172516 -0.1591625 0.15439409 0.08592955
0.04999327 0.18143457 -0.06580078 0.0040747863 -0.18455432 0.10496186 0.17017855 -0.007303526
-0.009155212 0.020358404 -0.05341318 -0.1361041 0.17542337 -0.024267003 0.012475553 0.15031458
-0.07973345 -0.017784791 0.100308955 -0.13280772 0.14754139 0.09119251 -0.014459417 0.0047981706
0.13854347 0.033151295 -0.18822712 0.17290434 0.062803105 -0.09826752 -0.005395844 0.016174452
-0.03451057 0.17946915 0.14471671 0.04575498 0.22004314 0.18227406 -0.20837809 0.071544625
-0.008286637 -0.09837464 0.07412912 0.19134735 0.03367501 0.0023021498 -0.0077710813 -0.020147426
0.10533982 -0.08566508 0.27265185 0.0812126 -0.010585228 0.1345452 -0.020831484 0.068016574
-0.07480205 0.059465557 0.15515356 0.12553877 0.21551618 -0.10560947 0.11791506 0.105625264
-0.14088772 -0.08793193 0.03886329 -0.037970036 -0.01640705 0.05225773 0.19256718 0.084145
0.10382278 -0.017874144 0.13996683 -0.10896579 0.052183364 -0.067039736 0.1860202 -0.005506358
-0.1075646 0.13070531 0.0600452 -0.10820539 -0.035658274 -0.038834766 -0.05694479 0.2254607

2.bias f4 [24]
00000000: 1cc0 fa3d 9ab3 b13d 4e1d 6a3d 9d70 a73a
00000010: 609b ee3c 6500 ff3d e1d1 bebb 8945 30bd
00000020: 2e2c 3b3e afa4 403c 86e5 413d db40 4ebd
00000030: 58a4 11be 251c 243e 1537 7ebd 95c5 d2bd
00000040: 02c1 203d 5a4d 0a3e ed30 b5bd 46a7 993d
00000050: 0550 313e f0ca 583d 6376 8a3d cf2f 72bd
0.12243673 0.086768344 0.057156853 0.001277465 0.029126823 0.12451247 -0.0058233594 -0.043035064
0.18278572 0.011758014 0.04733803 -0.05035482 -0.14222848 0.16026361 -0.06206425 -0.10291592
0.039246567 0.1350607 -0.088472225 0.07502608 0.17315681 0.05292791 0.06760862 -0.059127625

5.weight f4 [18, 24]
00000000: b2a3 253e e3ec a93d 941d 733e 42cb 0e3e
00000010: f861 09bd 8dbc 88be 6ac8 563e a55e adbc
00000020: e3a2 f23d a7d7 8c3d 3868 ca3d e750 a3bc
00000030: c88f 233e 6d9e 87be 0c79 5e3e 2e4b ce3c
00000040: 9308 37bc 0aa0 abbd 52aa 423e ab57 463e
00000050: c739 e83c 89dd 883d 06b4 62be 9faa a33d
00000060: 86eb 93be 87a7 1e3e 541b 23be 247a 08be
00000070: 8a18 ec3d 59aa 3c3d 7e12 5b3e 8200 bfbd
00000080: fe16 063e c1de 113e 1ce8 76bd 09f6 16bd
00000090: 1908 17bd 2b83 43be ae09 0d3e c10e 5cbe
000000a0: ba2a 33be ea23 e33d 1e24 5fbe ff11 37bd
000000b0: 1825 63bb 421f cc3d c8b0 96bd ea7a 88bd
000000c0: dced 3abd c44b b8bc f292 fe3c 6dc8 103d
000000d0: f295 5d3e c04d fb3d e740 21bd db19 cdbd
000000e0: db5f 493e 50c6 eb3d ba46 733e d10b 39be
000000f0: 2b2f 883d eede 2dbe 0351 2a3e a5a0 563d
00000100: f4bc 1ebe 8112 693e ff7b 033e dd8f 78bd
00000110: 6f3b 81be 91a4 1b3c 74dd 03bd 8f2f 5c3e
00000120: 0989 aabd 0986 00be 9e8f f03d 3844 323e
00000130: 98c0 3a3d 40b0 afbd 4a16 6fbd 8ab2 f4bd
00000140: 3924 abbb de93 0fbc 2e51 cabc d1d1 18bd
00000150: 1215 e83d 0766 53be ae07 7b3e 1de3 603e
00000160: a2e8 37be b19c 90bd 0181 5d3e d0b7 e0bd
00000170: c2d2 3b3d ac5f 8a3d c467 54be 643e c0bc
00000180: 6dbf 713b 9cb1 aa3c 2b61 22bd beba 7b3e
00000190: dbe7 5e3e 4943 eebc 0661 d4bd 7f8e 00be
000001a0: cce3 613e 6a6c 333e c382 64bd 9060 e13d
000001b0: f5ed 183e 5382 45be 3d72 c33c 192c 293e
000001c0: 782b 3a3e 730b 473e f21c 603e a64f 08be
000001d0: f34d 45bd 43a6 5e3e 0829 14be 9111 003e
000001e0: d048 eebd 966c 833d aa7a e03d bd7a 43be
000001f0: 57a9 31be 40e3 84bd bfd5 9abe 3984 2bbe
00000200: db6e 283e f5b9 323e e761 d63d cc84 2abe
00000210: a231 843b d40d 373d c08a ca3d 1a28 233e
00000220: 03f1 8b3a 51a4 4a3e c108 95be f7bf c03b
00000230: d5c8 ad3d 14f8 1dbe 8584 44be ebbb 933d
00000240: 74e3 823e d420 d4bd 385b 173e 14dd c1bd
00000250: 540d 153e 5031 57be 4503 f6bc 1985 6dbd
00000260: 915b 303e 5b7f 503a 28a5 483e 151e 223e
00000270: 3094 5a3e 98c4 653d c196 f5bd e0f6 f73d
00000280: dc12 62bd 1536 8ebd 3771 35be b154 10bd
00000290: 22ee 8ebe 7530 acbd c685 7bbe ee6a f9bc
000002a0: ff35 a4bd 34a3 093e 92d0 7e3d 1a79 86bd
000002b0: 9179 3d3e 53ce 88be 96a1 5a3e 9417 f8bd
000002c0: 6901 293c 1330 823d b303 823e c598 47be
000002d0: 20d2 38bc ee0d f6bd c25a 563e 3f99 0c3e
000002e0: 3177 013e 0e7f f03d fc6f 083e 122f 373e
000002f0: 2dd8 7cbd 9e74 883d ec59 41be a192 2bbd
00000300: 981a 16be 6fa8 bd3d 7444 a0bd 5227 9ebc
00000310: 49ed 9bbd cc57 61be d5bd babd 1028 e13d
00000320: 3350 a13d 8d10 f93d 4de4 0fbe 2b1f 01bd
00000330: 445c 13be c6e7 30be 73ca 073e efd3 613d
00000340: 66cf 183e 822a 94bd 88ac 6e3e 298e 3abe
00000350: 5909 a73c 2c6a cfbb ae75 043e aaff 0ebd
00000360: cfc9 5abe 2090 4c3e ffb6 6f3e 3f16 483d
00000370: 29ec 373e 0a6c 543d 33bf 1bbe 41cd 803d
00000380: 39f4 4fbe aba6 37be e900 5e3e 9189 823d
00000390: bd92 3abe db2e 003d 3a38 0d3e 942d 113e
000003a0: 900e 333d 7f30 393e 3057 f0bd 129a 2fbd
000003b0: a821 4abe 2e96 02be 382d ccbc aa44 9d3d
000003c0: 7929 233e 5a41 2a3d 0026 7fbe d3c5 78bb
000003d0: c0cd 13be c768 75bd 63bd 77be 08a1 4fbe
000003e0: 7098 0e3e 795f 3abe ac80 4c3d 5ffe 3c3e
000003f0: 0258 c5bd a5f1 0a3d 4126 90bc 0cc7 373d
0.16175726 0.08297136 0.23741752 0.13944724 -0.033540696 -0.26706353 0.2097489 -0.021163294
0.118474744 0.0687707 0.098831594 -0.019936038 0.15972817 -0.26488057 0.21725863 0.025182333
-0.011171478 -0.083801344 0.19010285 0.1936938 0.028347863 0.066828795 -0.22138986 0.07991528
-0.28890628 0.15493594 -0.15928394 -0.13327843 0.11528118 0.046060894 0.21393773 -0.09326269
0.13094708 0.1424513 -0.06027995 -0.03685573 -0.036872957 -0.19093005 0.13773224 -0.21490003
-0.17496768 0.110908344 -0.21791121 -0.044694897 -0.003465956 0.099668995 -0.07357937 -0.06664069
-0.045636997 -0.022497065 0.031075928 0.03534739 0.21639231 0.12270689 -0.039368536 -0.10014697
0.19665472 0.115124345 0.23757449 -0.18070914 0.066496216 -0.16979572 0.16632466 0.052399296
-0.15501767 0.22760965 0.1284027 -0.060684074 -0.25240657 0.009499685 -0.032193616 0.21502517
-0.08326919 -0.1255113 0.11746143 0.17408836 0.045593828 -0.08578539 -0.058370866 -0.11948116
-0.005222824 -0.008763282 -0.024696913 -0.03730947 0.11332144 -0.20644389 0.24514648 0.21961637
-0.17959836 -0.070611365 0.21631242 -0.109725595 0.04585529 0.06756529 -0.20742708 -0.02346725
0.003688778 0.020836644 -0.039643448 0.24582955 0.21768133 -0.029084818 -0.10370068 -0.12554358
0.22059554 0.17521825 -0.055788767 0.11004746 0.14934523 -0.19287996 0.023858184 0.16520728
0.18180645 0.19437961 0.21886042 -0.13311633 -0.04817004 0.21743111 -0.14468777 0.12506701
-0.11634982 0.064171955 0.10960896 -0.1908979 -0.17349754 -0.06488657 -0.302412 -0.16749658
0.16448538 0.1745375 0.10467892 -0.1665222 0.004034237 0.044690922 0.09889746 0.15933266
0.0010676685 0.19789244 -0.2910824 0.005882259 0.08485571 -0.15426666 -0.19191177 0.07213577
0.25564158 -0.10357824 0.14780891 -0.094659954 0.14555866 -0.21014905 -0.030030856 -0.05798826
0.1722243 0.0007953548 0.19594252 0.15831788 0.21345592 0.05609569 -0.11991645 0.121076345
-0.055193767 -0.06943909 -0.1771897 -0.035237018 -0.27916056 -0.0840768 -0.2456275 -0.030446496
-0.080181114 0.13441163 0.062210627 -0.06566067 0.18503405 -0.26719913 0.21350703 -0.12113872
0.010315278 0.06356826 0.25393447 -0.1949187 -0.011280566 -0.120143756 0.20933059 0.13730334
0.12643124 0.11742984 0.13323969 0.1788905 -0.0617296 0.06662868 -0.18881959 -0.041887883
-0.14658582 0.09260642 -0.078255564 -0.019305859 -0.07613618 -0.22006148 -0.09118239 0.109939694
0.07876625 0.1216136 -0.14051934 -0.031523865 -0.14390665 -0.17275915 0.13260822 0.055133756
0.14922866 -0.0723467 0.23308003 -0.18218292 0.0203902 -0.0063297953 0.12935516 -0.03491179
-0.21366046 0.19976854 0.23409651 0.04884934 0.17961182 0.051860847 -0.15209655 0.06289149
-0.20308007 -0.17934673 0.21680035 0.06373895 -0.18220039 0.031294685 0.1379098 0.14177543
0.04371506 0.18084906 -0.1173538 -0.042871542 -0.19739401 -0.12752602 -0.024923906 0.07679112
0.1593379 0.04156623 -0.2491684 -0.003795971 -0.14433956 -0.059914377 -0.24193339 -0.20276272
0.13925338 -0.18200482 0.0499274 0.1845641 -0.09635927 0.033921856 -0.017596366 0.04486756

5.bias f4 [18]
00000000: 27b7 d53d ecd3 e53b d9f3 6fb9 d17f aa3e
00000010: 38a7 243e 1017 213e cbd3 e03d e932 aa3b
00000020: 9372 5b3e e5a5 2b3d f41c 22bd 44d1 2d3d
00000030: 70a5 cdbc 16c5 063e aa5d f6bd 42b5 853c
00000040: 372a 793e ede3 4f3e
0.10435324 0.0070137884 -0.00022883656 0.3330064 0.16079414 0.15731454 0.10977896 0.0051940572
0.21430425 0.041906256 -0.039578393 0.0424359 -0.0251033 0.1316112 -0.12029584 0.016321782
0.2433251 0.2030179

7.weight f4 [13, 18]
00000000: fd0d 533d 3c9f d33d 321c 183e 51f8 8a3e
00000010: bfeb ac3c 4354 813e 5302 8c3e 0e1a 873d
00000020: 1fea 523e 92af 963e 4274 923e 8328 a33e
00000030: 3299 493e 4d3a b83e 5a55 c13e 2053 f6bc
00000040: 0403 893d a323 d33d 5708 073e b5c4 473e
00000050: 15a8 1a3d f654 993e e1ab 7d3e 899b 323e
00000060: 2fee 5b3e 1199 253d 9c2c 3e3e 5038 4f3e
00000070: d424 4f3e 99ad 223d 0acd 013e 182d 2a3e
00000080: eab3 2d3e edc8 0b3d 36d1 943e 7856 433e
00000090: 8fbb f23d a0e3 d93d cf8e 4c3e 0a12 41bd
000000a0: ce1b 5b3e 4d47 ba3d f890 493e 77bb 963e
000000b0: e6f7 6c3e 42ee 203d b981 b53d 2179 933e
000000c0: 8b72 013e a854 ed3d 2857 db3d 2edd 913e
000000d0: 7920 0b3e 0a4f ff3d 413e 923e e12a 823e
000000e0: 4c7b e43c 107d 8e3e aaec 36bc 5db6 9a3e
000000f0: 6318 5ebd 8516 033e 9910 2c3e 4c17 8a3e
00000100: 7a7e 0f3e 6dd8 bd3e 4712 9b3e 863a 683e
00000110: 0b33 3cbb 038c 3f3e cf1c 983c 4806 9dbb
00000120: 4812 6c3e aee0 ad3d abc3 3c3e 4b17 6f3e
00000130: dc55 0b3d 4258 083e d8d2 0b3e 0d7b 603e
00000140: 0ba6 963e cbba e53d 7344 9bbc 3e8e 333d
00000150: c15f 773e ed44 403d 0df9 bd3c 7e5c 033e
00000160: 7bab e73d f1d2 353e c570 823d 4f85 c23d
00000170: be50 923e e5ee b33e ca91 923d cbc6 ee3d
00000180: c109 8a3e 23c8 ec3d b22e d53e 823a c33e
00000190: 4086 193e 4810 9b3e 0e8b 3b3e 86ce 1c3e
000001a0: e716 023e 8f77 3e3e 0834 563e d732 483d
000001b0: 26ea a33e f25f 533e 6a08 a83e 8fbd 903e
000001c0: cd7d 03bb 5a1d 403d ef9a 64bd 7f18 003d
000001d0: d0ae 113e 4e41 b93e 967b a03e e3f8 c63d
000001e0: e46f 49bb a882 a83e b9fa 453e e7bc 593e
000001f0: 0a97 a73d 622b cabd 27da 803e d6f0 983c
00000200: e6b4 c93d 19fb a93e 8f21 a3bd 8aa9 543e
00000210: 6885 7bbd e550 803e 0024 973d acc6 973e
00000220: 8d78 933e 3394 c53e ba3e 823e ac3b 913e
00000230: ce85 d63e 76c0 d33d 00ba f93b 3d8c 033c
00000240: 0274 2d3e aeaf 0d3e 7026 a83e afb6 9ebc
00000250: fc81 7b3e 7be0 3e3e 8955 bc3d 3ead a43e
00000260: 2629 f63d 40a0 5a3e 6d9e 433e 5003 943e
00000270: 61c5 88bc f091 713d 1e54 be3e ec66 863e
00000280: 2a37 8a3e c852 90bd 71da 983e cb1c 9d3d
00000290: 3f43 d13d 1cde 2dbd 7ab4 aa3e fea6 e73d
000002a0: 8f46 583e 0bd9 f0bc 97d9 283e e246 ef3d
000002b0: f30f 28bd b0c8 9e3e 8495 46bd 0780 313e
000002c0: 41ee 443e 6be3 493e 597a 3c3e 7cda 563e
000002d0: d34e 373d 0b74 803e f399 163b 4f3b c03e
000002e0: cc76 933e 93c2 913e 3ec9 823e a88d ac3e
000002f0: 13f3 ab3e e5ef f33d f846 d13d 7b34 c83d
00000300: 7f0e 023e 029e 223e f81d 083e 6a0e 463d
00000310: 1f9d f23d ee6f 64bd ace8 8cba 8d41 6e3e
00000320: 3757 8d3e fab6 a43e 7d47 533e 1cb8 403d
00000330: d097 223e da4b 0aba ab50 f83d 4388 563e
00000340: 76da 233d 4f44 233e 24f5 933e 80bc 493e
00000350: d697 383e da09 e03d 6a04 5b3e eaf7 1f3e
00000360: b1fa 3d3e 041f 883e b273 b23e 1c43 ca3e
00000370: 9f18 7f3d 3cdc 15bc f0be 623e 0e29 09bd
00000380: 38e0 dc3e e598 c73e c209 063e 3375 ee3d
00000390: db66 843e 7ea3 863e 76b4 c83d e915 35bc
000003a0: f6cc b93e ce5c a73c
0.051527012 0.10333106 0.14854506 0.27142575 0.021108506 0.252596 0.27345523 0.065967664
0.20597123 0.29430825 0.28604323 0.31866845 0.19687346 0.3598198 0.3776043 -0.030068934
0.06690028 0.103095315 0.13186775 0.19508632 0.03775795 0.29947633 0.24772598 0.17442144
0.21477579 0.04042918 0.18571705 0.20236325 0.20228893 0.039716337 0.12675872 0.16618764
0.16963163 0.034127165 0.29065865 0.19075954 0.1185218 0.10639119 0.19976352 -0.047136344
0.21397325 0.09095631 0.19684207 0.294399 0.23141441 0.03928972 0.08862633 0.28803352
0.12641351 0.115884125 0.10709983 0.2848906 0.13586606 0.124662474 0.2856312 0.2542334
0.027890824 0.2782979 -0.011164824 0.30217257 -0.054222476 0.1280156 0.16803207 0.269709
0.1401309 0.37079182 0.30287382 0.22678575 -0.0028716947 0.18705754 0.018568425 -0.0047920085
0.23053849 0.0849012 0.18434016 0.2334873 0.03401743 0.13314918 0.1365465 0.2192194
0.29423556 0.112172686 -0.018953538 0.043836825 0.24157621 0.046940733 0.023190046 0.12828252
0.11312004 0.17756249 0.06369165 0.09498083 0.28577226 0.351432 0.07156713 0.116590105
0.26960567 0.115616105 0.41637188 0.38130575 0.14992619 0.3028586 0.18314764 0.15313157
0.12704049 0.18600295 0.20918286 0.04887661 0.3201458 0.20642069 0.3281892 0.28269622
-0.0020063997 0.04690299 -0.05581182 0.03127336 0.14226842 0.36182636 0.3134429 0.0971544
-0.0030736858 0.32912183 0.19333924 0.21263467 0.08183105 -0.09871556 0.25166437 0.018669527
0.09848957 0.33199385 -0.07965385 0.20767799 -0.061406523 0.25061718 0.07379913 0.29643762
0.2880291 0.3858963 0.25438482 0.2836584 0.4189896 0.103394434 0.00762105 0.008029041
0.16938785 0.13836548 0.32841825 -0.01937422 0.24561304 0.1864032 0.09196002 0.32163423
0.12019567 0.21350193 0.19103403 0.28908777 -0.01669568 0.058977067 0.3717355 0.26250398
0.26995212 -0.07047039 0.29854158 0.076715074 0.10217904 -0.042448148 0.33340818 0.11311148
0.21120666 -0.02940037 0.16489254 0.11683442 -0.041030835 0.31012487 -0.048482433 0.17333995
0.19231512 0.1971566 0.18406047 0.20981783 0.044752907 0.25088534 0.0022979944 0.3754525
0.28801572 0.2846876 0.2554416 0.33701825 0.33583888 0.119109906 0.10218614 0.09775635
0.12700842 0.15880588 0.13292682 0.04835359 0.11846375 -0.055770807 -0.0010750494 0.23267193
0.27605602 0.3217085 0.2063274 0.04705058 0.15878224 -0.0005275585 0.12124761 0.20950417
0.040003262 0.15944026 0.28897965 0.19700813 0.18026671 0.10939379 0.21388403 0.15621915
0.18552662 0.26586163 0.34853894 0.39504325 0.06227934 -0.009146746 0.2214315 -0.03348642
0.43139815 0.38983837 0.1308966 0.11643448 0.25859722 0.2629661 0.09800045 -0.011052587
0.36289185 0.020429995

7.bias f4 [13]
00000000: 12cd 973e 6c04 a63e fa30 5b3e 4534 153e
00000010: 0824 143e 6fd9 953c 1e22 f23d a508 373e
00000020: 6de9 443d b24c 7f3e 9347 073e cd7a 5a3e
00000030: 6889 823e
0.29648644 0.3242525 0.21405402 0.1457072 0.1446687 0.018292157 0.118229136 0.17874391
0.048074175 0.249316 0.13210897 0.21335907 0.25495458
