results/PokerGPU/poker_qnet_final.pth (torch, 14859 bytes, 8 tensors)

0.weight f4 [32, 40]
-0.008237295 -0.0069254823 0.09566896 0.07573902 0.04776944 -0.13653694 -0.053503256 0.03372883
0.123242006 0.15680227 0.06127594 -0.07404402 -0.11200575 0.0008970851 0.13942991 -0.1331758
0.028416319 -0.10150158 0.017740928 0.07808918 -0.051466383 0.044227377 -0.021674363 0.06944901
0.09767912 -0.049035463 0.113200724 0.014758727 0.064080656 -0.05125014 -0.020250034 -0.012957393
-0.032700565 0.012008214 -0.07293983 0.06217544 -0.048708957 -0.11485237 0.12716168 -0.12164169
-0.1238604 -0.091178924 0.14609271 0.07198736 -0.075388096 0.08889867 0.010415691 0.12558156
-0.027280767 -0.10657133 -0.080452554 0.06300596 0.0072150724 0.14624138 0.06499553 -0.048284985
-0.088870436 0.15290494 0.13759124 -0.06253705 -0.08078266 -0.07641348 0.10429963 -0.058796156
-0.1171057 -0.016174354 -0.09025611 0.007943717 0.07880871 0.13733922 -0.090261795 0.09248151
0.08163081 -0.13419896 -0.09874246 -0.062086344 0.04643987 -0.10665517 -0.097040676 0.12400049
0.106850654 0.06441103 -0.050448157 -0.1064857 -0.169298 0.037992023 -0.12282287 -0.0018195668
0.08873665 0.045317657 -0.043620113 -0.017931582 0.15830085 0.18093005 -0.11628969 -0.039437387
0.051863898 -0.063360214 -0.109828815 -0.0057775797 0.0112626 0.11044394 -0.056259688 -0.11096158
-0.054679662 0.014784419 -0.08140994 0.15134622 0.13808095 0.124582194 -0.0061869887 0.15687037
0.082500055 0.011255662 0.14470278 -0.13909325 0.15667441 0.119089656 0.159015 0.10980148
0.10650085 0.13727035 0.0011192025 0.09392104 0.12850122 0.07178498 0.065921605 0.11862239
0.07066486 -0.066952534 0.033745386 -0.0376264 -0.0066611 -0.02689116 -0.045820188 0.11166508
0.053882863 -0.046993535 -0.11963807 0.03907242 0.045983046 -0.124495104 -0.010507369 -0.12172256
0.089613155 -0.029036578 -0.12437881 -0.14672975 -0.15588617 -0.08665913 -0.16584115 0.0765352
-0.08720484 -0.040222622 0.043992743 -0.060588706 -0.041111685 0.03249482 -0.11694883 -0.081236325
-0.11005299 -0.016551685 -0.029403273 -0.09044161 0.15753137 -0.09072424 0.07803023 0.0369487
-0.14960016 0.04252027 0.12758482 -0.14547056 -0.014254696 0.027070628 0.11494607 -0.015610437
-0.077214345 -0.12117905 -0.08241339 0.031788323 -0.07311973 -0.1226537 -0.0476026 -0.10840899
0.016832013 -0.107064836 0.024501715 -0.12311714 0.07612913 -0.13542649 -0.079740755 0.08930503
0.0033374853 0.10386929 0.10195208 -0.07847437 0.009262322 -0.016588772 -0.108881146 0.08715275
-0.15876555 -0.15301484 -0.068851575 -0.0063204933 0.07487579 -0.082535096 -0.03612052 0.040969968
0.14933659 -0.15184069 0.062354773 0.054197688 -0.024484335 0.13081582 -0.05313456 -0.09097267
0.10186125 -0.15665889 -0.117684565 -0.03409078 -0.09327187 -0.014271531 -0.081805006 -0.0075249076
0.039065816 -0.15493236 0.042179447 0.032093987 -0.09420745 0.056886047 -0.15918303 0.045825593
0.011340877 -0.15300551 0.12793167 0.13859548 -0.04115684 0.015619672 -0.13139494 0.026081258
-0.13217226 -0.15142815 -0.15162346 -0.13410792 0.1295572 0.05176 0.055568136 0.11372857
0.11877475 0.04751162 -0.08446263 0.10498149 0.13564849 -0.097273335 0.00068514317 0.023980623
00000000: b8f5 06bc 28ef e2bb 16ee c33d 0f1d 9b3d
00000010: e3a9 433d 57d0 0bbe 3b26 5bbd 3e27 0a3d
00000020: 4e66 fc3d c690 203e 7bfc 7a3d 64a4 97bd
00000030: 4563 e5bd 5d2a 6b3a b7c6 0e3e 3d5f 08be
00000040: 57c9 e83c 0fe0 cfbd 6c55 913c 38ed 9f3d
00000050: 6ace 52bd c427 353d 6f8e b1bc 483b 8e3d
00000060: fe0b c83d 69d9 48bd c8d5 e73d 96ce 713c
00000070: b83c 833d abeb 51bd 66e3 a5bc 3f4b 54bc
00000080: 07f1 05bd 1abe 443c 7a61 95bd adab 7e3d
00000090: 0b83 47bd b837 ebbd ac36 023e 471f f9bd
000000a0: 85aa fdbd 04bc babd 5499 153e 1c6e 933d
000000b0: 1365 9abd 8210 b63d 93a6 2a3c 7498 003e
000000c0: ea7b dfbc 1242 dabd 4fc4 a4bd 4509 813d
000000d0: 6a6c ec3b 4dc0 153e 601c 853d 7ac6 45bd
000000e0: b401 b6bd 1d93 1c3e b8e4 0c3e 6d13 80bd
000000f0: 6171 a5bd ac7e 9cbd 0b9b d53d 3dd4 70bd
00000100: 1dd5 efbd 1480 84bc 32d8 b8bd 5d26 023c
00000110: 7666 a13d a7a2 0c3e 2ddb b8bd f266 bd3d
00000120: 0e2e a73d 746b 09be 7d39 cabd 404e 7ebd
00000130: bc37 3e3d 076e dabd 43bd c6bd f8f3 fd3d
00000140: 84d4 da3d eee9 833d baa2 4ebd 2d15 dabd
00000150: 745c 2dbe 869d 1b3d 8f8a fbbd 887e eeba
00000160: 90bb b53d 029f 393d 01ab 32bd 41e5 92bc
00000170: 9e19 223e ba45 393e 4a29 eebd 1989 21bd
00000180: 3d6f 543d 00c3 81bd eeed e0bd da51 bdbb
00000190: c586 383c 6f30 e23d 8f70 66bd d33f e3bd
000001a0: c8f7 5fbd 593a 723c 41ba a6bd 81fa 1a3e
000001b0: 1865 0d3e f324 ff3d 39bc cabb a0a2 203e
000001c0: caf5 a83d ab69 383c f72c 143e 766e 0ebe
000001d0: 426f 203e 47e5 f33d d4d4 223e 99df e03d
000001e0: 1e1d da3d 9990 0c3e 34b2 923a ad59 c03d
000001f0: d395 033e 0104 933d e801 873d 4cf0 f23d
00000200: bdb8 903d 691e 89bd 9a38 0a3d 241e 1abd
00000210: 5b45 dabb da4a dcbc f3ad 3bbd a9b0 e43d
00000220: 47b4 5c3d 4b7c 40bd ce04 f5bd 670a 203d
00000230: b858 3c3d 4af7 febd 1a27 2cbc ad49 f9bd
00000240: 1a87 b73d 1ede edbc 51ba febd 5340 16be
00000250: a0a0 1fbe 587a b1bd 43d2 29be 7dbe 9c3d
00000260: 7398 b2bd 7ac0 24bd bc31 343d dd2b 78bd
00000270: ba64 28bd 4a19 053d de82 efbd 3b5f a6bd
00000280: 7663 e1bd 6697 87bc 22df f0bc 7339 b9bd
00000290: e74f 213e a1cd b9bd 50ce 9f3d 8557 173d
000002a0: c930 19be bc29 2e3d 98a5 023e 3cf6 14be
000002b0: 878c 69bc 39c3 dd3c d868 eb3d ebc2 7fbc
000002c0: 8e22 9ebd b92c f8bd 5ac8 a8bd 7934 023d
000002d0: ccbf 95bd dd31 fbbd f2fa 42bd 8805 debd
000002e0: 4ae3 893c cf44 dbbd d2b7 c83c d724 fcbd
000002f0: 97e9 9b3d 3ead 0abe 1f4f a3bd 8ee5 b63d
00000300: b6b9 5a3b 6cb9 d43d 41cc d03d 2cb7 a0bd
00000310: ffc0 173c 2de5 87bc 14fd debd 247d b23d
00000320: 7093 22be ecaf 1cbe 0e02 8dbd 241c cfbb
00000330: 7a58 993d 2908 a9bd 1cf3 13bd 20d0 273d
00000340: b1eb 183e 207c 1bbe b867 7f3d 65fe 5d3d
00000350: 5f93 c8bc 95f4 053e a0a3 59bd e14f babd
00000360: a29c d03d 306b 20be 9b04 f1bd c6a2 0bbd
00000370: 5205 bfbd 24d3 69bc 6289 a7bd 8093 f6bb
00000380: 7a03 203d 97a6 1ebe 5bc4 2c3d fc74 033d
00000390: d6ef c0bd 5801 693d e000 23be 9eb3 3b3d
000003a0: 16cf 393c 7aad 1cbe 8500 033e f9eb 0d3e
000003b0: 1394 28bd a7e9 7f3c 658c 06be 5da8 d53c
000003c0: 2a58 07be fb0f 1bbe 2e43 1bbe 9653 09be
000003d0: a5aa 043e 4b02 543d 6a9b 633d 86ea e83d
000003e0: 2d40 f33d 8b9b 423d befa acbd 8900 d73d
000003f0: 70e7 0a3e 3e37 c7bd 2e9b 333a 0373 c43c

0.bias f4 [32]
-0.12789004 0.15008682 -0.1001851 -0.09838945 0.06452535 0.03736229 0.14475296 -0.074109904
0.039070886 -0.039708413 0.03148672 -0.13856937 -0.12401057 -0.1623423 -0.15971534 -0.06981766
0.060461108 0.026793333 -0.122456476 0.07084756 0.06071226 -0.010906157 0.08167351 0.0646676
-0.06835801 -0.030332774 -0.14103264 -0.042318754 0.050477874 0.04778543 -0.1235416 -0.045765046
00000000: 9bf5 02be 5cb0 193e d92d cdbd 6880 c9bd
00000010: de25 843d 3309 193d 1f3a 143e efc6 97bd
00000020: cb08 203d 4aa5 22bd 38f8 003d 21e5 0dbe
00000030: 41f9 fdbd 0f3d 26be 6b8c 23be 90fc 8ebd
00000040: 11a6 773d b17d db3c 76ca fabd 8718 913d
00000050: 6bad 783d bdaf 32bc 7144 a73d 7270 843d
00000060: 49ff 8bbd 707c f8bc dc6a 10be 6e56 2dbd
00000070: e3c1 4e3d a8ba 433d 6103 fdbd 2174 3bbd

2.weight f4 [24, 32]
-0.006090674 0.002671927 0.15444289 0.103476904 0.031660035 -0.046612978 0.0012028661 -0.028935725
-0.07773233 0.11382636 0.1693127 0.18020907 0.024278594 0.09367821 0.027877403 0.0070123198
-0.070094034 -0.03616676 0.14251314 0.11795282 0.052703038 0.16832085 -0.04467607 -0.08523486
-0.013577297 -0.024131082 -0.0123440325 -0.15427093 0.09338744 -0.11143258 -0.09268639 -0.06493199
0.08585344 -0.0681846 0.18749714 -0.09057203 0.10349132 -0.09415838 -0.13280213 -0.0632857
0.08195706 0.1603631 -0.14491276 -0.09169532 -0.1163505 0.06712387 -0.089476384 -0.092838876
-0.060726613 -0.11233247 -0.033961974 -0.041663393 0.06085558 -0.039340608 0.109614015 -0.020658407
-0.034032583 -0.058081023 -0.06776545 -0.08384276 0.0890055 0.16924202 0.008654682 -0.11909427
-0.04208219 -0.044962075 0.044824667 0.12180831 0.065631375 0.042887583 -0.05692552 0.115201846
-0.026262473 -0.19056997 -0.17213479 -0.06319714 -0.06313827 0.10817181 -0.03388391 0.13123275
-0.089696094 -0.17096753 0.11299706 0.018549213 0.08076017 0.10176122 -0.11156337 -0.01426445
0.14540195 -0.028747424 -0.052663263 -0.14827178 0.04052878 -0.0297058 0.10498919 0.076848686
0.08995363 0.001856033 -0.06477792 0.0093982965 -0.10150208 0.1623075 0.1527647 -0.1011649
0.18521084 -0.09581601 -0.07394858 0.01937377 -0.14270161 0.0048490474 -0.09870361 -0.085421234
-0.04974038 -0.0072386903 -0.018738804 -0.10804565 0.08291783 0.19272974 0.14167495 0.17511538
-0.052035492 0.09578304 -0.060881894 0.056018054 0.034041382 0.07280595 0.16800132 -0.0022549706
0.10112889 0.026316341 -0.1514591 0.105794206 -0.043905787 -0.07674864 0.11613713 0.098341644
0.0772738 0.0062772417 0.13597085 -0.022383038 -0.102394275 0.07948029 0.12761997 -0.025870342
-0.10175432 -0.08411121 -0.12023382 0.15077876 0.034167945 -0.09490005 0.12457012 0.11470573
0.02867942 0.09137756 -0.03515874 -0.14990224 -0.07043116 0.0722948 -0.059360057 0.06988083
-0.035139885 -0.053840443 -0.16016077 -0.14170538 -0.021998307 0.14675614 0.1078644 0.021204561
-0.119152464 -0.0019102872 -0.010033409 0.0085584605 0.07011384 -0.05981637 0.017112898 -0.036613528
-0.11272243 0.15249722 -0.03666722 -0.026725492 -0.15478759 -0.13236378 -0.1108958 -0.13273321
0.050584234 -0.105061375 -0.10727823 0.008835105 -0.017923962 0.08826005 -0.091220476 -0.16191876
0.1344266 0.052735966 0.06378446 -0.075036466 -0.12730134 0.16164717 0.029577948 0.16445926
-0.0041641253 -0.10493465 -0.04746108 0.1151167 0.0028434552 -0.029685166 -0.07876852 -0.10680684
0.04565631 0.049573883 -0.098195314 0.08632969 -0.14968514 -0.14648885 -0.112925686 0.0029275247
-0.028761387 -0.12973225 -0.08618208 0.038475808 0.08023069 0.1314498 -0.09654996 0.15463613
-0.116954744 0.09405111 -0.0035038863 -0.1238613 -0.043687653 0.027191142 -0.14789176 0.1779756
-0.108028606 -0.0301049 0.09437287 -0.11261814 0.13392025 0.17709635 -0.010511786 0.0034532428
0.032762032 -0.045315262 -0.062195264 0.06478811 0.1189521 -0.0036318123 0.067287065 -0.0121875405
0.013215245 0.05392616 0.05513215 0.0040254937 0.115397274 0.07428564 0.066782475 0.014335747
00000000: 4794 c7bb 7f1b 2f3b 4726 1e3e b3eb d33d
00000010: f4ad 013d 40ed 3ebd 7da9 9d3a 9d0a edbc
00000020: 2132 9fbd cb1d e93d 4f60 2d3e ba88 383e
00000030: e7e3 c63c 5dda bf3d 275f e43c 9ac7 e53b
00000040: 768d 8fbd 9923 14bd f7ee 113e 4091 f13d
00000050: 24df 573d 4d5c 2c3e 41fe 36bd 9d8f aebd
00000060: 5073 5ebc 8cae c5bc a03e 4abc 33f9 1dbe
00000070: ea41 bf3d c436 e4bd 5dd2 bdbd 10fb 84bd
00000080: eed3 af3d 5ea4 8bbd 40ff 3f3e d47d b9bd
00000090: 42f3 d33d 1cd6 c0bd 48fd 07be ef9b 81bd
000000a0: 1ad9 a73d 3936 243e 0364 14be c2ca bbbd
000000b0: 2c49 eebd 3d78 893d 653f b7bd 4f22 bebd
000000c0: 78bc 78bd 910e e6bd b61b 0bbd 3ca7 2abd
000000d0: b343 793d 9e23 21bd 507d e03d d23b a9bc
000000e0: c065 0bbd 5ee6 6dbd 9dc8 8abd c1b5 abbd
000000f0: 8448 b63d c84d 2d3e 5ecc 0d3c b2e7 f3bd
00000100: 605e 2cbd 272a 38bd 129a 373d a376 f93d
00000110: be69 863d e4aa 2f3d bc2a 69bd f2ee eb3d
00000120: 6624 d7bc c624 43be 1a44 30be 816d 81bd
00000130: a34e 81bd 2f89 dd3d dbc9 0abd e161 063e
00000140: 96b2 b7bd 1d12 2fbe 016b e73d 85f4 973c
00000150: 9765 a53d 3068 d03d 567b e4bd 71b5 69bc
00000160: 40e4 143e b87f ebbc 6fb5 57bd 8fd4 17be
00000170: 8201 263d 9459 f3bc 9304 d73d d862 9d3d
00000180: 9c39 b83d 2246 f33a 49aa 84bd 50fb 193c
00000190: 53e0 cfbd f033 263e 596e 1c3e 8b2f cfbd
000001a0: e9a7 3d3e 2f3b c4bd 5a72 97bd beb5 9e3c
000001b0: 5f20 12be c2e4 9e3b 1e25 cabd 54f1 aebd
000001c0: 92bc 4bbd 8932 edbb 1f82 99bc 0a47 ddbd
000001d0: d3d0 a93d f25a 453e 3d13 113e 7251 333e
000001e0: 2b23 55bd e629 c43d 4b5f 79bd 3073 653d
000001f0: fa6e 0b3d 491b 953d 8a08 2c3e 21c8 13bb
00000200: aa1c cf3d 5e95 d73c 1818 1bbe a2aa d83d
00000210: 8ed6 33bd 642e 9dbd 4ed9 ed3d 5867 c93d
00000220: ba41 9e3d 52b1 cd3b f13b 0b3e a25c b7bc
00000230: 17b4 d1bd 90c6 a23d cfae 023e 0aee d3bc
00000240: 9264 d0bd 8042 acbd 263d f6bd bf65 1a3e
00000250: b0f3 0b3d f55a c2bd 9e1e ff3d d6ea ea3d
00000260: 1af1 ea3c 2824 bb3d 9c02 10bd f97f 19be
00000270: 363e 90bd 4c0f 943d 8823 73bd ae1d 8f3d
00000280: d7ee 0fbd cc87 5cbd 2f01 24be 371b 11be
00000290: cb35 b4bc 3e47 163e 03e8 dc3d 30b5 ad3c
000002a0: 3506 f4bd 9a62 faba 2b63 24bc c938 0c3c
000002b0: d897 8f3d 0302 75bd 5930 8c3c 11f8 15bd
000002c0: 04db e6bd 3b28 1c3e 5e30 16bd 6bef dabc
000002d0: a380 1ebe 5f8a 07be 561d e3bd 37eb 07be
000002e0: 6a31 4f3d 6b2a d7bd b0b4 dbbd 1ec1 103c
000002f0: 46d5 92bc afc1 b43d cdd1 babd 08ce 25be
00000300: 20a7 093e ab01 583d 6da1 823d b8ac 99bd
00000310: 485b 02be d686 253e 744d f23c 0268 283e
00000320: 3773 88bb fae7 d6bd 8d66 42bd 4ec2 eb3d
00000330: 4359 3a3b 4e2e f3bc 6451 a1bd 8bbd dabd
00000340: 1c02 3b3d fc0d 4b3d a01a c9bd 9fcd b03d
00000350: 1047 19be 2c01 16be 9545 e7bd b7db 3f3b
00000360: 009d ebbc 88d8 04be 3b80 b0bd cf98 1d3d
00000370: fd4f a43d c79a 063e fcbb c5bd ef58 1e3e
00000380: f885 efbd de9d c03d 75a1 65bb feaa fdbd
00000390: d3f1 32bd f5bf de3c f070 17be 3c3f 363e
000003a0: 1a3e ddbd 8d9e f6bc 9046 c13d 57a4 e6bd
000003b0: 6422 093e bf58 353e a039 2cbc cd4f 623b
000003c0: 7b31 063d 7f9c 39bd 76c0 7ebd a1af 843d
000003d0: 299d f33d b303 6ebb cdcd 893d 40ae 47bc
000003e0: c184 583c ade1 5c3d 40d2 613d 4ae8 833b
000003f0: 6855 ec3d 1223 983d 40c5 883d 7be0 6a3c

2.bias f4 [24]
0.079377875 0.0044260724 -0.19331001 0.025129782 0.13314053 0.120415635 0.09418184 0.09247843
0.11888175 0.08099489 0.12539399 -0.12017953 0.09523556 0.112149894 -0.16610631 0.104831785
-0.16583116 0.1698957 -0.056179218 -0.15477152 -0.10644783 -0.0058393367 -0.061338868 0.084366366
00000000: de90 a23d 9608 913b 0ff3 45be f9dc cd3c
00000010: fe55 083e 799c f63d 69e2 c03d 5565 bd3d
00000020: 4678 f33d a6e0 a53d 4867 003e af20 f6bd
00000030: dc0a c33d d8ae e53d c617 2abe 0cb2 d63d
00000040: a5cf 29be 23f9 2d3e 2e1c 66bd 6d7c 1ebe
00000050: 5201 dabd e857 bfbb 773e 7bbd 46c8 ac3d

5.weight f4 [18, 24]
-0.04435352 -0.2040261 0.106193215 0.07711101 -0.07872441 -0.066014566 0.08724694 -0.050778452
0.00678299 -0.14559166 -0.15403706 -0.11078383 -0.038180053 0.09416743 -0.11551035 0.12399708
-0.11606712 -0.20280676 0.1368094 0.060979433 -0.031762533 0.16764224 -0.034906846 0.12681215
-0.15012573 0.14313138 -0.14457548 -0.17257929 -0.11938041 -0.023362966 0.1833439 0.09141611
0.1565209 -0.10169973 -0.13273643 0.11778181 0.07613942 -0.16700676 -0.043794915 0.072568975
0.02886918 -0.18225288 0.141172 -0.0113839535 0.04033108 0.04907506 0.19725826 -0.10510552
-0.10534404 -0.0027955282 -0.07169488 -0.079709105 0.17637376 -0.09915665 0.06640689 -0.17615934
0.051435325 0.060783938 -0.17485225 -0.010423857 0.08177406 0.08409437 -0.06997334 0.015768714
0.18595658 0.036078844 0.13311441 -0.19208562 0.16058883 0.14243166 -0.012903728 -0.21073386
0.116038814 0.023825819 0.11205019 -0.104105465 0.034590986 0.11254853 -0.08865393 0.12308079
0.21120949 0.16584057 -0.072495684 0.009261218 -0.08766503 -0.11445125 0.031622082 -0.1958339
-0.074734785 0.05634254 -0.17340682 0.20988026 -0.18998699 0.07208486 0.2269802 -0.038810734
0.11009247 -0.17801897 0.055287752 0.17928876 0.055144213 0.16299629 -0.07428354 -0.08356451
-0.096563265 -0.09332228 0.16483778 0.18103425 0.15075646 0.13260266 -0.09603819 -0.0548232
-0.04604412 -0.1364775 -0.1341831 -0.021546192 0.123588376 -0.18734013 0.07192313 -0.15886022
-0.178436 0.18162908 0.11595218 0.081904225 0.03336291 -0.19501737 0.011189797 -0.15526827
0.05906771 -0.1762926 0.18324041 0.071147285 0.046321455 0.08122373 -0.07041894 -0.10887841
0.09777929 -0.016018149 -0.03411743 -0.04760932 -0.010858887 -0.11409264 0.18075942 -0.11721916
0.006072166 0.21653226 -0.009932477 0.20187716 -0.07768976 -0.14481778 0.18879908 0.0466382
0.1974361 0.021020174 -0.09494239 -0.098840766 0.18902265 -0.19232522 -0.106900744 0.11294052
0.12947461 0.15976246 -0.10349394 -0.0112357605 0.1791217 0.008530647 -0.087148525 -0.1610781
-0.1274659 0.11373954 -0.06829783 0.12086352 -0.008237138 -0.08500318 -0.08204005 -0.0012701566
-0.14757055 -0.122568525 0.03740212 -0.04223156 0.16449788 -0.014916215 -0.02549021 -0.0580252
0.011375254 0.13617226 0.18183751 -0.14557356 -0.0018174079 0.010044788 -0.033754863 0.115431435
0.060166214 -0.12129445 0.16190109 -0.03288372 0.10463153 -0.12098829 0.04217232 -0.20161131
0.026423588 0.08018647 0.15456758 -0.06008356 0.13123998 -0.029076522 -0.1284622 -0.16523333
0.032742374 0.03253744 0.13686068 -0.22104876 0.010131613 -0.16886374 0.06650808 0.15700886
-0.020104924 0.08300805 -0.18425387 0.06696926 -0.11676485 -0.14052913 0.07834715 -0.04758
0.004255361 0.0728418 0.07943222 0.028696233 0.20802547 0.0058810385 0.03135949 -0.12454305
0.07468401 0.04737417 -0.060862068 0.06002419 0.013271983 -0.03166176 -0.13669981 -0.21406019
-0.02202853 -0.12712209 0.086881906 0.11641791 0.08820111 -0.07111437 0.017858079 -0.06928429
-0.08236708 0.01627 0.17001535 0.13788445 -0.10354709 0.026362335 0.11769676 -0.14568493
00000000: 09ac 35bd 38ec 50be d47b d93d 61ec 9d3d
00000010: 433a a1bd a532 87bd 86ae b23d 11fd 4fbd
00000020: d843 de3b fb15 15be e4bb 1dbe a2e2 e2bd
00000030: b062 1cbd dbda c03d b190 ecbd 2ef2 fd3d
00000040: 99b4 edbd 93ac 4fbe c317 0c3e 92c5 793d
00000050: 6e19 02bd 68aa 2b3e 7bfa 0ebd 0bdb 013e
00000060: 8fba 19be 0891 123e 980b 14be a0b8 30be
00000070: b77d f4bd b163 bfbc 81be 3b3e 5f38 bb3d
00000080: 0447 203e f347 d0bd 0fec 07be 9737 f13d
00000090: fcee 9b3d d203 2bbe 4c62 33bd 0b9f 943d
000000a0: 0f7f ec3c 80a0 3abe 658f 103e c383 3abc
000000b0: 3432 253d ee02 493d 12fe 493e 9041 d7bd
000000c0: 9ebe d7bd 2e35 37bb c4d4 92bd 873e a3bd
000000d0: 539b 343e a412 cbbd 5600 883d 1d63 34be
000000e0: d9ad 523d 94f8 783d 780c 33be d3c8 2abc
000000f0: 2979 a73d ab39 ac3d 2f4e 8fbd 642d 813c
00000100: 676b 3e3e 69c7 133d 254f 083e 18b2 44be
00000110: 6671 243e 9bd9 113e 286a 53bc 9eca 57be
00000120: c2a5 ed3d 5d2e c33c 927a e53d 3f35 d5bd
00000130: 47af 0d3d d87f e63d 3190 b5bd c811 fc3d
00000140: 4d47 583e 1cd2 293e 9e78 94bd 5dbc 173c
00000150: b989 b3bd 6b65 eabd 2886 013d af88 48be
00000160: 8d0e 99bd 6fc7 663d 8f91 31be daea 563e
00000170: f38b 42be 3aa1 933d 7f6d 683e 01f8 1ebd
00000180: 2978 e13d 9b4a 36be 6975 623d 7997 373e
00000190: e6de 613d 80e8 263e f821 98bd df23 abbd
000001a0: f6c2 c5bd c01f bfbd 3ccb 283e 0b61 393e
000001b0: e75f 1a3e fec8 073e acaf c4bd 4b8e 60bd
000001c0: c298 3cbd c2c0 0bbe 4b67 09be a481 b0bc
000001d0: e71b fd3d 17d6 3fbe 6f4c 933d 41ac 22be
000001e0: edb7 36be f9fc 393e 5678 ed3d 67bd a73d
000001f0: 8ca7 083d a2b2 47be 6955 373c a5fe 1ebe
00000200: fcf0 713d 0c86 34be 60a3 3b3e abb5 913d
00000210: 91bb 3d3d a158 a63d ce37 90bd a5fb debd
00000220: 8240 c83d 7e38 83bc b8be 0bbd fe01 43bd
00000230: 79e9 31bc 67a9 e9bd ff18 393e 9910 f0bd
00000240: 05f9 c63b a2ba 5d3e d4bb 22bc e3b8 4e3e
00000250: cf1b 9fbd 1d4b 14be 8c54 413e b207 3f3d
00000260: b02c 4a3e 8032 ac3c 2871 c2bd 076d cabd
00000270: 278f 413e e7f0 44be c7ee dabd 5c4d e73d
00000280: fe94 043e c598 233e a1f4 d3bd 3216 38bc
00000290: ae6b 373e 20c4 0b3c ed7a b2bd a8f1 24be
000002a0: 6c86 02be 47f0 e83d bcdf 8bbd 4b87 f73d
000002b0: 10f5 06bc 2616 aebd 9d04 a8bd 627b a6ba
000002c0: bc1c 17be 3505 fbbd f732 193d 00fb 2cbd
000002d0: 2272 283e 2463 74bc d8d0 d0bc d5ab 6dbd
000002e0: 465f 3a3c be70 0b3e 9d33 3a3e 3c11 15be
000002f0: 1736 eeba e592 243c 8a42 0abd 5167 ec3d
00000300: d970 763d 3969 f8bd 66c9 253e 14b1 06bd
00000310: 0e49 d63d b5c8 f7bd e2bc 2c3d 3273 4ebe
00000320: 4876 d83c ce38 a43d f746 1e3e 2e1a 76bd
00000330: c663 063e e331 eebc 988b 03be ed32 29be
00000340: de1c 063d fb45 053d 3525 0c3e 9b5a 62be
00000350: 11ff 253c 9eea 2cbe 6335 883d eec6 203e
00000360: 15b3 a4bc 2000 aa3d 0cad 3cbe 2e27 893d
00000370: 6922 efbd dee6 0fbe 7874 a03d 3fe3 42bd
00000380: 8e70 8b3b 152e 953d 5cad a23d 5d14 eb3c
00000390: a104 553e bab5 c03b cf72 003d 6d10 ffbd
000003a0: eef3 983d 6b0b 423d 814a 79bd eddb 753d
000003b0: bb72 593c c3af 01bd 09fb 0bbe 9832 5bbe
000003c0: 2d75 b4bc 4b2c 02be 24ef b13d 836c ee3d
000003d0: c9a2 b43d 69a4 91bd 1b4b 923c ece4 8dbd
000003e0: 12b0 a8bd aa48 853c 8118 2e3e 9531 0d3e
000003f0: 7f10 d4bd d3f5 d73c 000b f13d 6e2e 15be

5.bias f4 [18]
-0.012163633 0.08451825 -0.14601995 -0.00090519193 0.113973804 0.17347088 0.0746938 -0.17941613
0.019930398 0.10733119 0.057468876 0.14829926 -0.035198014 0.070141844 -0.08479236 -0.16493423
0.029727954 0.10274757
00000000: f949 47bc e717 ad3d 4186 15be 674a 6dba
00000010: 196b e93d 5aa2 313e 10f9 983d ddb8 37be
00000020: 1345 a33c 74d0 db3d 7c64 6b3d c3db 173e
00000030: cb2b 10bd 87a6 8f3d 9ea7 adbd 85e4 28be
00000040: 0a88 f33c 516d d23d

7.weight f4 [13, 18]
0.07552531 -0.18104327 -0.056700006 -0.054680176 -0.17513251 0.21080506 -0.058745485 -0.18789145
0.16144636 0.20050617 -0.15311518 -0.21867155 -0.08140039 0.071945064 -0.14200366 -0.20277849
0.07412766 -0.097432785 -0.007551333 0.17049932 0.11350148 0.19251879 -0.02387188 0.029538207
0.18077232 0.017461425 -0.16648735 0.045894913 -0.036752757 -0.15507658 0.001708467 -0.06502084
0.04526963 0.20872808 0.098326266 -0.0050784387 -0.025901565 0.020752672 -0.19064076 0.20442528
-0.15800323 -0.1685522 -0.010261136 0.036169447 -0.111838944 -0.18129075 0.1812264 -0.18101771
0.17572565 0.14667006 -0.19698678 -0.19106114 0.0076222355 -0.025398882 -0.1752901 -0.036004446
-0.16200201 0.011528487 0.08367166 -0.1633311 -0.059682272 -0.14986984 0.10383318 0.011981647
-0.1329631 0.17239776 0.1777033 -0.1827937 -0.032398403 0.02995746 -0.05337925 -0.0984369
-0.20431633 -0.16251571 0.20109347 -0.031128239 0.0785434 -0.18251601 -0.0033351495 0.22806466
-0.17060813 0.0013542877 -0.18512489 0.07012268 0.13754258 0.015906204 0.1352162 0.20159318
-0.07518576 -0.014802456 -0.17058912 0.08285873 0.18642458 0.08201841 0.24858113 -0.019965056
0.2496796 0.23971747 -0.2049119 0.18912466 -0.19409291 -0.079239875 0.20022607 0.15631887
-0.06046992 0.19533728 0.15510036 0.007732646 -0.058073837 -0.17061727 -0.061849736 -0.082125366
0.027515128 0.10151034 -0.17583266 -0.1393819 0.12511997 -0.16686302 -0.08786397 0.08637776
0.14313148 -0.042966694 0.2154433 0.08281577 -0.1139146 0.23258434 -0.20002243 0.033621114
-0.04275776 0.118889354 0.14776081 -0.11171534 0.16448672 -0.188964 -0.09275573 -0.13822274
-0.11138386 0.087171674 0.066701464 0.16123863 -0.0070423493 -0.20316507 0.18367976 0.23201331
-0.20533526 0.15358299 0.08695577 -0.10357298 0.20579427 0.017530102 -0.005800378 -0.18583326
-0.13300641 0.17522675 0.19799148 0.064777195 0.01666962 0.19260255 0.04379316 -0.058373157
-0.10416541 0.0728785 -0.09223859 0.0049672965 -0.16119802 -0.04891608 -0.16911438 0.17948481
0.023220109 -0.07429277 0.11843457 0.035710067 0.119440384 -0.16968885 0.112820394 -0.011937023
0.20380619 0.04281515 -0.010698161 -0.21456145 0.0066943727 -0.1973998 -0.22042547 -0.18499792
-0.044744402 -0.12824316 0.087968536 -0.17756529 -0.02438844 0.1767404 -0.046232715 0.013080216
-0.005126013 0.18979537 0.09391364 -0.08743084 0.21796037 -0.14872839 0.1352238 0.12418653
0.15467893 -0.2063242 0.040991746 0.017426185 0.14663774 -0.029949265 0.009496684 -0.0068733525
0.0073175426 -0.20833437 -0.18207355 0.05248596 0.06447006 0.055187847 0.13234583 -0.20519996
0.17534687 -0.16256988 -0.17429256 0.082775876 0.050643105 0.15581843 0.1571343 0.08403497
0.23034918 -0.020243278 -0.18125106 0.13476951 0.059817765 0.08340132 -0.13043863 -0.082885414
0.036912546 -0.12234615
00000000: 04ad 9a3d 6863 39be 443e 68bd 52f8 5fbd
00000010: f055 33be 48dd 573e 1b9f 70bd 9e66 40be
00000020: 3252 253e 7d51 4d3e 3aca 1cbe 6feb 5fbe
00000030: 3fb5 a6bd ef57 933d 6869 11be 2aa5 4fbe
00000040: 3ed0 973d d78a c7bd 2c71 f7bb 6097 2e3e
00000050: 7773 e83d a523 453e f68e c3bc 1cfa f13c
00000060: 611c 393e 430b 8f3c a97b 2abe 4efc 3b3d
00000070: 0f8a 16bd 65cc 1ebe a4ee df3a a529 85bd
00000080: a66c 393d d0bc 553e 485f c93d 0869 a6bb
00000090: 852f d4bc 8201 aa3c 5537 43be dc54 513e
000000a0: 99cb 21be f398 2cbe 531e 28bc 6a26 143d
000000b0: d10b e5bd 48a4 39be 6a93 393e b55c 39be
000000c0: 6df1 333e ad30 163e e7b6 49be 88a5 43be
000000d0: f2c3 f93b 5111 d0bc 3f7f 33be 6679 13bd
000000e0: dbe3 25be fbe1 3c3c 0c5c ab3d 4540 27be
000000f0: 6675 74bd 7b77 19be 7ea6 d43d ac4e 443c
00000100: 7b27 08be 0a89 303e dbf7 353e 462e 3bbe
00000110: 30b4 04bd 5969 f53c 33a4 5abd 4999 c9bd
00000120: 4d38 51be 856a 26be 72eb 4d3e a600 ffbc
00000130: 5ddb a03d 7ae5 3abe 8692 5abb c889 693e
00000140: e6b3 2ebe 5b82 b13a 6191 3dbe 7b9c 8f3d
00000150: f6d7 0c3e ba4d 823c 1e76 0a3e 716e 4e3e
00000160: fefa 99bd 0086 72bc eaae 2ebe d6b1 a93d
00000170: 16e6 3e3e 45f9 a73d 0d8c 7e3e c28d a3bc
00000180: 02ac 7f3e 7f78 753e 6dd4 51be e5a9 413e
00000190: 4bc0 46be 8448 a2bd 1008 4d3e 0e12 203e
000001a0: 4faf 77bd 7f06 483e a1d2 1e3e 2362 fd3b
000001b0: d5de 6dbd 4bb6 2ebe 2656 7dbd 5831 a8bd
000001c0: 6867 e13c a7e4 cf3d 7a0d 34be 21ba 0ebe
000001d0: 731f 003e 24de 2abe 06f2 b3bd d3e6 b03d
000001e0: 0f91 123e d8fd 2fbd 2b9d 5c3e 509b a93d
000001f0: 0f4c e9bd 972a 6e3e aed2 4cbe 4bb6 093d
00000200: c322 2fbd 437c f33d 9c4e 173e 03cb e4bd
00000210: 356f 283e c77f 41be b7f6 bdbd 438a 0dbe
00000220: 391d e4bd 1087 b23d c79a 883d bd1b 253e
00000230: 82c3 e6bb 810a 50be 8c16 3c3e e694 6d3e
00000240: 6843 52be dc44 1d3e de15 b23d 121e d4bd
00000250: bcbb 523e 4a9b 8f3c 1911 bebb 134b 3ebe
00000260: d532 08be a46e 333e 47be 4a3e e8a9 843d
00000270: ba8e 883c 9a39 453e 7560 333d b118 6fbd
00000280: ad54 d5bd 5341 953d 96e7 bcbd b4c4 a23b
00000290: 1811 25be 3a5c 48bd 522c 2dbe deca 373e
000002a0: 1938 be3c cf26 98bd d38d f23d b844 123d
000002b0: 299d f43d eac2 2dbe 610e e73d 8193 43bc
000002c0: 92b2 503e f05e 2f3d 5747 2fbc ffb5 5bbe
000002d0: 785c db3b 2c23 4abe 37b7 61be 1870 3dbe
000002e0: e845 37bd 2d52 03be d928 b43d add3 35be
000002f0: 44ca c7bc 6ffb 343e 845e 3dbd 674e 563c
00000300: 1df8 a7bb b859 423e cb55 c03d f10e b3bd
00000310: 0131 5f3e 414c 18be 1c78 0a3e 8255 fe3d
00000320: 2764 1e3e a746 53be f6e6 273d 5cc1 8e3c
00000330: 3428 163e 2958 f5bc fb97 1b3c dc39 e1bb
00000340: ffc7 ef3b 9b55 55be 7d71 3abe 85fb 563d
00000350: e108 843d a70c 623d aa85 073e f01f 52be
00000360: 218e 333e b878 26be c079 32be 6686 a93d
00000370: 256f 4f3d de8e 1f3e d0e7 203e 871a ac3d
00000380: a8e0 6b3e 3bd5 a5bc e199 39be 0501 0a3e
00000390: 7903 753d 50ce aa3d b491 05be d4bf a9bd
000003a0: 9c31 173d 9e90 fabd

7.bias f4 [13]
0.043752436 0.124875255 0.036644105 0.2169552 0.18683052 -0.03909771 -0.1529063 -0.1740807
-0.18389785 0.009447882 0.029098125 0.16395071 0.21539712
00000000: c135 333d 99be ff3d 2118 163d 8129 5e3e
00000010: 8050 3f3e ec24 20bd 7893 1cbe 3642 32be
00000020: b84f 3cbe 4acb 1a3c 315f ee3c b2e2 273e
00000030: 1091 5c3e
