results/PokerGPU/poker_qnet_final.pth (torch, 25547 bytes, 8 tensors)

0.weight f4 [64, 40]
000000 e1 cc f8 be fe fb 2e bf 6b 2e 21 bf ab f9 fc bd
       -0.4859381 -0.6835326 -0.62961453 -0.12352308
000010 14 a1 8a bd 22 71 9b 3e ab a9 da 3e c1 d8 0b be
       -0.067690045 0.3035975 0.4270757 -0.13656904
000020 70 79 38 bf 96 f5 e5 bd 80 42 b0 3d 13 9e 3d 3d
       -0.720603 -0.112284824 0.08606434 0.04629333
000030 15 3c 8e bc c7 78 3d 3d 82 e6 44 3d a3 22 01 3d
       -0.017362634 0.04625776 0.048071392 0.031527173
000040 45 de 7e 3d 48 e0 9f bb 8c 3a 63 3d 18 8f cf 3c
       0.06222369 -0.0048790313 0.055475757 0.025336787
000050 b8 e3 8a 3d c3 13 b7 bc 09 8d 97 3e f8 20 6f 3d
       0.06781715 -0.02234829 0.2959979 0.05838105
000060 88 d5 24 3d 6a 7d 15 3d d9 42 c0 3d 4e 68 6c 3e
       0.0402427 0.036496557 0.0938775 0.23086664
000070 10 c8 cc 3d 0f d7 6c 3d 82 d0 3a 3e f3 f3 2e 3e
       0.099990964 0.057822283 0.18243602 0.17085247
000080 ad 21 04 3e 5f 9a 86 3d b2 02 e4 3d 05 2c 36 3e
       0.12903471 0.06572413 0.111333266 0.1779023
000090 07 5e 63 3e cd ce 15 3e b4 82 ad 3d c3 ee 3e 3d
       0.22203837 0.1462967 0.08472195 0.04661442
0000a0 eb 06 32 bd 86 e6 3a bd bf 87 70 3d 51 2e 48 bd
       -0.04346363 -0.04563 0.058723208 -0.048872296
0000b0 49 fe 7b bd b9 f3 f8 3d 63 e6 95 3c d8 58 28 be
       -0.061521802 0.121558614 0.018298334 -0.16440141
0000c0 98 6b 80 3e ca f9 2c be 16 63 c1 be f7 f1 48 3e
       0.25082088 -0.16892162 -0.3777091 0.19623552
0000d0 c3 a6 1a bf 7c f8 83 3d 2a df 1b 3e 85 a9 cf 3d
       -0.6041071 0.06443879 0.15221849 0.10139755
0000e0 ee 8e 81 bf 2e ca 61 bf 32 9c a4 be 98 6e b5 bd
       -1.0121744 -0.88199127 -0.32150418 -0.08858985
0000f0 72 25 3d 3d fa 95 3a 3e ba fa ca bf ce fd 9f bf
       0.04617829 0.18221274 -1.5857766 -1.249933
000100 72 56 cd bf 41 cb 24 bf 3d a3 20 bf 6c 2f 57 bf
       -1.6042006 -0.6437264 -0.6274908 -0.84056735
000110 c9 a5 b7 be 7e a1 b9 be a3 92 26 bf 37 4c 82 be
       -0.35868672 -0.3625602 -0.650675 -0.25448772
000120 cd 3e 19 3e 9a 93 27 bf df 5e e7 be 7c 61 84 3d
       0.14965363 -0.654596 -0.45189568 0.06463906
000130 ac bc f0 3e 4d e5 51 be 67 c1 11 be 6d d2 e2 be
       0.47018945 -0.20497628 -0.14233933 -0.44301167
000140 53 76 27 3e 1a e0 19 3e 27 ed 99 3d 64 13 23 be
       0.16353731 0.15026894 0.07515936 -0.15925366
000150 10 10 a5 bd cc 45 f2 3e 75 cc df 3e d9 a5 9c 3e
       -0.08059704 0.47318876 0.43710676 0.30595282
000160 4b 25 73 3d 7d db 0f be 58 41 88 3e c8 2e ca bd
       0.059361737 -0.14048572 0.26612353 -0.09872204
000170 8c f4 11 be 07 1c 54 3c 10 72 a2 3d c8 1f 86 bd
       -0.14253443 0.012946135 0.07931912 -0.065490305
000180 ae 61 3e 3e 98 dc 99 be 7c 74 16 bd fd d9 9d 3d
       0.1859195 -0.30051112 -0.036732182 0.077075936
000190 ed 66 8b bf 87 c1 1e be 11 9e 4c 3e df d9 e9 bd
       -1.0890785 -0.15503512 0.19982173 -0.11418509
0001a0 f0 b0 c5 3e 36 d9 5b bf dc 3c 35 bf b3 4c 69 bf
       0.38611555 -0.8587831 -0.7079599 -0.9113266
0001b0 87 c3 39 bd 89 d2 5d be 87 fe a3 3d 5b 8e c7 3d
       -0.045352485 -0.21662344 0.080075316 0.09743949
0001c0 f4 db 44 3e 33 2d 05 3f 94 07 60 3e 98 01 e0 bf
       0.1922453 0.52022094 0.21877891 -1.7500486
0001d0 d8 ef c6 bf 99 35 9b bf 8c 69 73 bf 2e 64 98 bf
       -1.5541945 -1.2125732 -0.95082927 -1.1905572
0001e0 1f 75 c4 bd 13 95 57 be c1 9c 6d be b2 a9 19 be
       -0.095926516 -0.21052961 -0.23204328 -0.1500614
0001f0 16 48 c9 3e dd 33 0c be 3b ed 81 be c9 26 49 be
       0.3931281 -0.1369166 -0.25376305 -0.19643702
000200 34 fe dc be 61 3f 50 3d d8 69 1f bc a5 7e 20 3d
       -0.43162692 0.050841693 -0.009729825 0.039183278
000210 69 8a 0c be 7f b5 2c be d1 9a 88 be bc 1d 1e be
       -0.13724674 -0.1686611 -0.26680616 -0.1544103
000220 18 3b 45 3c a3 a3 b8 be 00 36 04 3c dd d6 35 be
       0.012038015 -0.36062345 0.008069515 -0.17757745
000230 d5 2a 32 be a2 e1 a8 be eb fc f5 3c cf 0f 82 3e
       -0.17399152 -0.32984644 0.030027827 0.25402686
000240 b3 32 1c 3d da d7 9b 3d dc 8c 0e 3e 3e 8b fa bd
       0.038134288 0.0760953 0.13920921 -0.122335896
000250 1f 6d 08 3e b6 16 8a bc 6b 9d 7e be 9b 49 1d 3e
       0.13322876 -0.016856533 -0.24864738 0.1536011
000260 76 5f dd 3d c2 10 aa 3c 26 29 62 3e 39 94 23 3d
       0.10809223 0.020759944 0.2208601 0.039936278
000270 04 47 ff 3c 40 51 32 3e 9e dc a4 bc f5 fd 62 bd
       0.031161793 0.17413807 -0.02012473 -0.055417974
000280 6f 7f a6 3d ab 30 f5 3a 1f 46 92 3c 2e d7 47 3e
       0.08129775 0.0018706521 0.017855702 0.19515678
000290 63 49 bd 3e 6a 4b 9d 3e 2e 45 a3 3e 80 9b 27 3e
       0.36970052 0.307216 0.31888717 0.16367912
0002a0 08 05 dd be d1 13 b6 3c 43 2d bc 3d 20 23 86 3e
       -0.431679 0.022226246 0.091883205 0.26198673
0002b0 05 4f 06 be c7 81 4a 3e ab f9 e3 3c 0b 2d 1b 3e
       -0.13116081 0.19776069 0.027829012 0.15153901
0002c0 be c3 9f 3d 66 bd 08 3d b4 27 02 3d 4e 5f 05 3b
       0.07801007 0.03338375 0.031776145 0.0020350995
0002d0 c6 22 40 bd c3 98 d4 3d 09 bd 8b 3e 98 9c 58 3e
       -0.046908163 0.103806995 0.2729266 0.21153486
0002e0 27 a8 b2 3c 80 43 89 3e c1 72 81 3c 32 ac 15 3d
       0.021808697 0.2680931 0.01580179 0.03654117
0002f0 b0 b1 d4 3c c1 3f 91 3e 6b 7f 11 bc cd b8 41 3e
       0.025963634 0.28368953 -0.0088804765 0.18918152
000300 81 95 96 bd 7b e7 8a 3d 63 4b 98 3d 04 c3 0d 3e
       -0.07352734 0.06782433 0.07436254 0.13843924
000310 74 a2 a9 3d 30 3d c1 bd c6 52 8e 3e 18 11 b2 3d
       0.082829386 -0.09435499 0.27797526 0.086946666
000320 b6 a3 62 3e 43 e9 54 3e f0 07 8c 3e e2 60 43 bb
       0.22132763 0.20792107 0.27349806 -0.0029812385
000330 16 df ca 3e 54 da 69 3d 7e e5 6e bd 1e f5 11 3e
       0.39623326 0.05709298 -0.05832433 0.14253661
000340 87 90 c0 bd ec 38 c0 bc fc 03 08 be 86 dd 7b bd
       -0.094025664 -0.023464642 -0.1328277 -0.061490558
000350 b0 35 0b be a2 d7 77 bd a0 9b 9b 3c db 8f 0a bd
       -0.13594699 -0.060508378 0.018995106 -0.033828598
000360 06 c0 ac 3b 20 1b 26 bf 49 2a 15 3e 00 04 44 3e
       0.0052719144 -0.6488514 0.14566912 0.19142151
000370 8a 70 82 3e 6e 8f 3e bf ac 6d d6 3d fa 05 1f bf
       0.25476485 -0.74437606 0.10470137 -0.62118495
000380 00 28 dc be 8f 28 20 be 0e b4 cf bd bd 66 0d 3f
       -0.42999268 -0.15640472 -0.101417646 0.5523489
000390 fa 0a c8 be ee eb e3 3e d6 15 7c 3d 8c 53 2c be
       -0.39070874 0.44515938 0.061544262 -0.16828746
0003a0 d0 0a b0 3d f6 3e 30 be 0d 50 f8 be 78 44 10 bf
       0.08595812 -0.17211518 -0.48498574 -0.56354475
0003b0 a7 95 16 bf 0f ac 29 3e dc 7f 6e 3c a4 9f 8a be
       -0.588221 0.16569541 0.014556851 -0.2707492
0003c0 40 6d 0b 3f c4 c5 30 3f cd b0 07 3f 63 69 f8 3e
       0.5446358 0.69051766 0.5300415 0.48517904
0003d0 66 d1 f2 3e f1 dc 5a 3d 02 03 de 3d 2f e0 2f 3f
       0.47425383 0.053433362 0.108404174 0.6870145
0003e0 85 33 11 bf e4 6c dd 3d 11 9f 98 3d 3b 8b 48 bd
       -0.5671924 0.10811785 0.074522145 -0.048960906
0003f0 49 51 0a 3d 79 0c c8 bc b5 27 97 bd 42 90 0f bd
       0.033768926 -0.02442001 -0.073806204 -0.035049684

0.bias f4 [64]
000000 1f a1 21 3f 2c cf 00 3d b0 7a 9a 3e 4b 4f 52 be
       0.63136476 0.031447574 0.30171728 -0.2053806
000010 b5 c3 2b 3f a0 c1 4f 3e 5d db fe 3e 56 3e 7c 3f
       0.670955 0.20288706 0.49776736 0.9853262
000020 fe 34 19 3f 53 31 a0 bc ea 6c a3 be bc 59 3f 3f
       0.59846485 -0.01955477 -0.31919032 0.747463
000030 fd 8c 9d be fc 09 23 3f 9c d5 30 3f 9c ae 2f 3f
       -0.30771628 0.6368711 0.6907594 0.6862581
000040 79 07 31 3f 95 15 ec 3e b3 f6 44 3e 8b 68 27 3f
       0.6915203 0.46110216 0.19234733 0.65393895
000050 68 ad 20 3f 42 59 8e 3e 7f 6f 3e be b5 2e 18 3f
       0.62764597 0.27802473 -0.1859722 0.5944627
000060 fc e6 43 3f b6 23 08 3f db 43 23 bf af 51 0d 3f
       0.7652433 0.5317949 -0.63775414 0.55202764
000070 ec 5f a0 3e 66 65 91 be 06 19 c4 3d 02 39 0a 3e
       0.31323183 -0.28397673 0.09575085 0.13498309
000080 e1 9d 32 3f 3a bb aa be d4 80 83 be ba bf 13 3f
       0.69772154 -0.33345968 -0.25684226 0.57714427
000090 78 7f 99 bd 15 93 85 3e 10 3b de 3e ce 5d 0b 3e
       -0.07495016 0.26088777 0.43404436 0.13610002
0000a0 03 7f 19 3f 5a 80 f1 3e 1a 6d 1f be 95 61 c3 3e
       0.5995943 0.47168237 -0.15568963 0.38160387
0000b0 70 85 e1 be 37 0c 13 3f ba df f6 3d ea 27 c6 bd
       -0.44047117 0.57440513 0.12054391 -0.09675582
0000c0 5d f3 6b 3e 90 da 59 be d7 8d 23 3f 13 80 ab 3e
       0.23042054 -0.21274781 0.63888305 0.3349615
0000d0 44 28 30 3d 27 a7 fc bd 56 24 2a 3d 30 c5 a4 3d
       0.04300715 -0.12336569 0.04153856 0.08045423
0000e0 3c a3 f8 be f1 e5 43 3e ab 1d 55 be 9f b1 14 3f
       -0.48562038 0.19130684 -0.20812099 0.5808353
0000f0 17 65 96 bd e0 06 bb be 71 b7 f2 3c 8e 54 0c 3f
       -0.073435 -0.36528683 0.029628487 0.5481652

2.weight f4 [32, 64]
000000 d8 1e 27 3e 6b a4 b4 3e 67 61 bc 3e 2f a0 f0 bc
       0.1632036 0.3528169 0.36793062 -0.029373256
000010 18 dd 88 bd 9b db cb be 8b 3d 34 3d 64 d2 9f 3d
       -0.06682795 -0.39815983 0.044004004 0.07803801
000020 85 ba 70 3e 4f 7a e1 3e 70 ad 9a 3d f5 38 18 3c
       0.23508652 0.44038627 0.07552612 0.009290923
000030 57 51 97 3e 15 79 71 3d 34 6e 92 3d da 92 fd 3d
       0.29554245 0.058953363 0.07149926 0.12381525
000040 9b b8 77 3d bc f1 bf 3d 52 fe 55 3e 02 f5 f0 bd
       0.060478788 0.09372279 0.20897797 -0.117654815
000050 c1 68 a6 bd 85 2c c3 3d eb 7b c9 be a7 d3 5b bd
       -0.08125449 0.09529976 -0.39352354 -0.053668644
000060 8e a7 c1 3d 62 48 90 be 3e 25 c5 be 70 d4 1a 3e
       0.09455787 -0.28180224 -0.38504976 0.15120101
000070 18 4b 82 bc 98 7a 64 3e 34 13 22 3e 2e f6 10 3e
       -0.015904948 0.22312391 0.15827638 0.1415641
000080 56 e5 73 bc 97 5b 85 bd 57 ef a6 bd 8a af 9a 3d
       -0.014886221 -0.0651161 -0.08151119 0.07553013
000090 2c 86 41 be 9b ed 91 3e 13 34 ca bc da ad ac bc
       -0.18898839 0.2850159 -0.024683034 -0.021078993
0000a0 95 20 87 3d 06 02 2e be f4 3c ae 3e 2c 22 a2 bd
       0.065980114 -0.1699296 0.3403088 -0.07916674
0000b0 0a 06 9c bd c6 68 7d bd 38 86 17 3e ee 66 d4 be
       -0.07618339 -0.061867498 0.14797294 -0.4148478
0000c0 73 77 fa 3d b6 b4 92 bd 9c 41 d3 3e 2e 95 4c be
       0.122298144 -0.07163374 0.41260993 -0.19978783
0000d0 12 14 33 3e 8a 58 a5 3d f2 72 6b 3e 77 06 2d 3e
       0.17488125 0.08073528 0.22993067 0.16896997
0000e0 47 e9 8c 3e b7 73 43 3c 9b b8 1f 3e 80 00 fd bd
       0.27521726 0.011929444 0.15597765 -0.12353611
0000f0 6a 7d 84 3e 97 c8 5f 3e 50 c1 63 3e 6b 51 89 bd
       0.25876933 0.21853863 0.22241712 -0.06704982
000100 09 80 35 3d 5f 76 e0 3e 05 d3 d1 3e 80 22 0d be
       0.044311557 0.4384031 0.40981308 -0.13782692
000110 12 24 cc bd 5f 8b a0 be 5c 98 20 3e 9c 06 c0 3d
       -0.09967817 -0.31356332 0.1568312 0.09376261
000120 c7 6b 93 3e b1 24 c1 3e a8 0e 74 3d 32 4f 1d bd
       0.28793165 0.37723306 0.05958429 -0.038405605
000130 17 de a0 3e 5d d4 2e be 84 12 f2 bb 07 6f 40 3c
       0.3141944 -0.17073198 -0.007387461 0.011745221
000140 19 53 f1 bd f3 04 d8 3d 47 44 57 3e 13 d2 b9 3c
       -0.11783428 0.10547819 0.2102214 0.022683179
000150 ee 7a 64 bc ce e7 84 3e 65 5d f0 be e2 84 20 3d
       -0.013945324 0.25958103 -0.46946254 0.039189227
000160 43 d6 69 3d 60 87 00 be 8e f3 d2 be 7a 3f 71 3e
       0.0570891 -0.12551641 -0.41201442 0.2355937
000170 f1 98 59 3e 9f bc 92 3e 49 9b 16 be 70 22 1a 3e
       0.21249749 0.2865953 -0.14707674 0.150522
000180 98 c3 99 3d a2 f2 bf bd 96 85 20 3d 08 52 30 3d
       0.0750801 -0.093724504 0.039189897 0.04304698
000190 90 be e1 bd 2d 0d 71 3e ae 4f d8 bd 98 2c 6f bd
       -0.11022675 0.23540182 -0.10562073 -0.058392137
0001a0 c3 a1 fb bd d7 23 98 bd 23 33 b1 3e 36 6a bd bc
       -0.12286713 -0.07428711 0.34609327 -0.023121934
0001b0 ec 7d e8 bd 74 9f 88 3d 92 18 2a 3e 82 24 bc be
       -0.11352143 0.06671038 0.16610935 -0.36746603
0001c0 d7 b5 e8 3c 13 66 2b be db d9 ab 3e 92 bc 91 be
       0.02840702 -0.16738157 0.33564648 -0.2846418
0001d0 80 60 22 3e cc ce 00 be d5 31 f6 3d d5 ce a6 3e
       0.15857124 -0.12578887 0.120212235 0.32579675
0001e0 6a 6a 8e ba 0d e2 27 be 21 eb dd bd db 17 af 3c
       -0.0010865454 -0.16394825 -0.10835863 0.02137368
0001f0 2e d0 b6 3d 0d 0f 1c 3e 92 59 35 3d c2 5c 44 3a
       0.08926426 0.15240116 0.044274874 0.00074906286
000200 59 86 4c 3d 5c a4 fe bd 56 e6 fc bd ee 2a e8 bd
       0.04993281 -0.12433693 -0.123486206 -0.11336313
000210 2c 07 6a bd fd 59 d2 bc 7b 94 37 3e cd 8b e1 3d
       -0.057135746 -0.025677675 0.17927735 0.11012993
000220 be 69 28 be d5 86 66 be 93 66 93 3c a2 8c c4 3d
       -0.16446587 -0.22512372 0.017993247 0.09597136
000230 b1 34 3a be 17 58 ff 3c f2 3f c9 3d 63 de 9d bc
       -0.18184163 0.031169934 0.0982665 -0.019271081
000240 bb 4d 14 bd ec 03 8d bd fe 10 b7 be cc 9b de bb
       -0.036206942 -0.06885514 -0.35755152 -0.006793475
000250 b0 db eb 3d 71 13 db bd b7 3a 2b bd ed e6 f0 3c
       0.115165114 -0.106970675 -0.04180404 0.029406989
000260 d9 61 99 bd 7a 78 59 3d 98 96 ec bd 14 1b 04 bd
       -0.07489366 0.05309341 -0.11552161 -0.032252386
000270 d0 5b 37 bd 8c 1a 3b 3c 64 f3 21 be 7b 90 17 be
       -0.044765294 0.0114199035 -0.15815502 -0.14801209
000280 b5 5f 14 3e 03 51 13 3d 9c c9 64 3d 6d 34 89 3d
       0.14489634 0.03596593 0.055856332 0.066994525
000290 4b ca 0c be 99 36 9d be da a9 7b bd 7d ef 7f bd
       -0.13749044 -0.30705717 -0.06144128 -0.062484253
0002a0 f8 1e ae 3c 37 5c 2c bd 03 9a 40 be f2 5e 73 3d
       0.021255001 -0.04208013 -0.18808751 0.05941672
0002b0 94 8d 38 3d 73 c1 b1 bc 72 77 7e 3d 1e 67 2b 3d
       0.045056894 -0.02169869 0.06212563 0.041846387
0002c0 3d 99 b5 3d 60 00 0f bd f2 07 30 be d8 f4 38 bd
       0.088671185 -0.034912467 -0.17190531 -0.045155376
0002d0 a0 9b ef bd 61 19 f0 bc 79 c6 79 be 22 97 3c be
       -0.11699605 -0.029308977 -0.24392118 -0.18417028
0002e0 8c b1 21 3c bf 79 08 3e 31 22 ca 3d 73 3d 3b 3d
       0.009868991 0.13327692 0.09869803 0.0457129
0002f0 15 47 a9 be 02 be 0f bd 89 20 e3 bd b3 75 70 3d
       -0.33062044 -0.035093315 -0.1109019 0.058705997
000300 b1 a4 6c bd fe 4d c8 3e 58 2e cc 3e 84 10 57 be
       -0.05777425 0.39122003 0.39879107 -0.21002394
000310 35 ef ec bc 47 56 05 bf e6 22 fc bd 8b 09 9a 3d
       -0.028922657 -0.52084774 -0.12311344 0.075213514
000320 d3 8f 8b 3e 26 4a e1 3e 2b c0 e2 3d 6e 3e 51 bc
       0.27258167 0.44001883 0.110718094 -0.012771232
000330 1f 68 95 3e b8 cd a2 bd fc 4c 85 bd 2e 05 f1 3d
       0.29181 -0.07949394 -0.06508824 0.11768566
000340 1c 00 68 3d f5 f3 d0 3d 90 eb 3d 3e 03 e5 38 3d
       0.05664073 0.10202781 0.18546891 0.045140278
000350 33 64 2e be c0 f7 1a 3e cd d0 0d bf 27 67 6d 3d
       -0.1703041 0.15133572 -0.5539673 0.057959702
000360 7f d2 b3 3c c7 0e b6 be 31 eb bd be 0f 3c d9 3d
       0.021950958 -0.3555815 -0.370935 0.106071584
000370 01 88 d3 bd 92 b3 c2 3e 9d 8b 32 3d 36 b8 03 3e
       -0.10328675 0.38027626 0.043590177 0.1286324
000380 19 e7 20 bb 76 d8 84 ba 55 58 67 bc 3f b9 01 bc
       -0.0024551807 -0.0010135311 -0.014120181 -0.007917701
000390 60 4c 33 3d c3 a7 8c 3e 21 d0 bb 3b de 3d 28 3d
       0.04377401 0.27471742 0.005731598 0.041074626
0003a0 35 dc e3 3c 2b 51 25 bd 55 36 b3 3e 75 c8 e5 bc
       0.027814964 -0.04036061 0.3500239 -0.028049687
0003b0 65 ab 1b bc 82 1f 5e 3d 74 05 40 3e ea 6a ab be
       -0.009501313 0.054229267 0.1875208 -0.33480006
0003c0 3a 49 32 3e 23 72 ee 3d 19 ce cb 3e 3b 21 81 be
       0.17410746 0.116428636 0.39805678 -0.25220665
0003d0 96 ca 5d 3e 06 dd 47 3d 76 b3 62 3e 59 9a aa 3e
       0.21659312 0.04879477 0.22138771 0.33320883
0003e0 e6 ed 37 3e 4d f8 af bd c0 bd 22 3e 87 8f 08 be
       0.17961845 -0.085922815 0.15892696 -0.13336001
0003f0 1d a1 a6 3e f3 ad de 3d 6a f7 fd 3d 76 24 86 3d
       0.32544795 0.10873022 0.12400706 0.06549923

2.bias f4 [32]
000000 e8 74 dc 3e 15 bc 98 3e 2d b4 0c 3f f6 9e 59 3e
       0.43057942 0.29830995 0.54962426 0.21252045
000010 db 1e 1a 3e ab 70 8a 3f 05 73 5f 3e f8 25 32 3f
       0.15050833 1.0815634 0.2182122 0.69589186
000020 d6 d2 fa 3d 69 ed a5 3d 86 e3 4d 3f 2b 1e 26 3e
       0.12247245 0.08101923 0.804253 0.16222446
000030 e5 58 03 3e 05 f5 26 3f 3e 38 6c 3f a7 a5 bd 3d
       0.1282688 0.6521762 0.9227332 0.09260111
000040 b9 c8 89 bd aa cc a6 3e 78 56 63 3d 6f 42 2c 3e
       -0.06727738 0.3257802 0.055502385 0.16822217
000050 47 66 53 3f 7c f8 4d 3d ed bc 53 3f 99 41 02 3f
       0.8257794 0.0502858 0.8271015 0.50881344
000060 68 90 42 3f 82 9d 1d 3e 50 05 b9 3e 3b 42 80 3d
       0.76001596 0.15392116 0.36136866 0.062626325
000070 18 bd cf 3e b6 5d 70 3f dd e3 9c 3e 50 53 da bd
       0.40573955 0.9389299 0.30642596 -0.10660422

5.weight f4 [16, 32]
000000 0c 5a 43 be 39 0a 8c bd cc 52 86 3e 2a 9a c7 bc
       -0.19077319 -0.06837887 0.26235044 -0.024365503
000010 bf ab b4 3c d2 db 8a 3e 3d 76 6b bd 4c 86 3d 3e
       0.022054551 0.27120835 -0.057485808 0.18508261
000020 b9 77 98 bc cf 0c 85 bd 4a c8 bb 3c 1a 94 39 bd
       -0.018611776 -0.06496584 0.022922654 -0.045307256
000030 87 7b 1b bd 37 12 4d 3e 10 44 d7 3c d3 10 92 bc
       -0.0379596 0.2002648 0.026277572 -0.017830288
000040 92 36 dc 3c 95 76 9a be 88 d8 40 be 29 8b 2c 3e
       0.02688149 -0.30168596 -0.188326 0.1684996
000050 7a 90 b7 3c 9b e5 57 bd 7b 2a c2 bb 93 70 4b 3e
       0.022407759 -0.052709203 -0.005925474 0.19867162
000060 95 48 3c 3e 20 bc 8e bd 94 50 ad be 77 79 0d 3d
       0.18387063 -0.06969476 -0.3385054 0.034539666
000070 b0 77 d4 3b 32 5d 93 3e f0 88 9a bd fa 8c 0c bd
       0.0064839944 0.2878204 -0.0754565 -0.034314133
000080 55 b4 96 bd e9 38 e4 bd 70 68 92 3d 73 28 94 bd
       -0.07358614 -0.11143667 0.07148826 -0.072342776
000090 73 9f da bd a8 f9 b0 3a ac 95 8e bd 39 7f 82 3d
       -0.10674944 0.0013502138 -0.069621414 0.06371922
0000a0 f8 00 32 bd bd 37 16 be 87 0e 78 3e 23 4c f7 3d
       -0.043457955 -0.146697 0.24224292 0.12075069
0000b0 3f 00 03 3e ce 7f ee bc d2 d5 4a 3e 06 fb ca bd
       0.12793063 -0.029113676 0.19808128 -0.0991116
0000c0 48 b4 2b 3e 81 07 da bd 5e bc 88 3e 96 a3 33 bd
       0.1676799 -0.106459625 0.26706213 -0.04385718
0000d0 76 a4 2f 3e 61 6e 23 be f1 a3 7f be 07 6f 49 bd
       0.1715258 -0.15960075 -0.24964882 -0.04917815
0000e0 1a 1c de bd ab 9d db bd 72 28 94 bd 5c 2f 72 3d
       -0.10845204 -0.10723432 -0.07234277 0.059127197
0000f0 5a 76 9c 3d a0 88 a9 3d cd 0c af bd ba 30 9a bd
       0.07639761 0.08278012 -0.085473634 -0.07528825
000100 04 4b 9b be 7e 0c e9 bd f5 e1 7b bd c4 01 62 be
       -0.3033067 -0.11379336 -0.061494786 -0.22070986
000110 fc d9 33 3c f0 3d 9b 3d df 5b 75 be 5d c8 14 3c
       0.0109772645 0.07580173 -0.23960827 0.009080973
000120 fb 89 fb ba 68 8b 00 be be 11 ac 3d 70 d6 8a bb
       -0.0019190902 -0.1255318 0.084018216 -0.0042369887
000130 ca a4 d2 3c ae 43 b9 3d 85 e5 f3 3d 79 90 6d bd
       0.025713343 0.09046112 0.11909012 -0.057999108
000140 20 e3 bf 3d 08 33 c8 be c9 cc 52 be 4c 7f 14 3d
       0.093694925 -0.39101434 -0.20585932 0.036254212
000150 3a e6 58 3d c8 ee 32 bd 20 44 e6 be a0 0a 0e 3c
       0.052953936 -0.04368475 -0.4497385 0.008669525
000160 6a 6e ab bd 1c 81 2e be c6 70 b1 be c3 80 cb 3d
       -0.08370669 -0.17041439 -0.34656352 0.09936669
000170 a8 c1 0a bb f1 21 88 3d 8c 2a 18 be b8 af bf bd
       -0.0021172557 0.06647099 -0.1485998 -0.093596876
000180 be 93 92 bd d5 ea b8 bd a3 e8 91 3d d5 da 40 bd
       -0.07157086 -0.09029166 0.0712445 -0.047083694
000190 8b 4f 51 3d 1e 58 d9 3c 52 25 98 bd 43 ef b6 bb
       0.05110125 0.026531275 -0.07428993 -0.0055827214
0001a0 ab bb 08 3c 8e ae a1 bd 43 c5 5e 3e c2 a2 03 3d
       0.008345525 -0.07894622 0.21754937 0.03213764
0001b0 9f 8d 43 3c dd d5 65 bc c3 24 09 bf 2e 1d 0d 3d
       0.011935621 -0.01402804 -0.5357172 0.034451656
0001c0 e2 6e 46 3b 66 2c 07 be 60 5f 68 3d 2b 16 b7 3c
       0.0030278494 -0.1320053 0.05673158 0.022349438
0001d0 54 60 30 bf 7b 7d dd bd c2 16 ba 3e 4a 97 5c 3d
       -0.68896985 -0.10814949 0.36345488 0.053855218
0001e0 4e 61 6a bc fd a3 ae bd a6 3c a0 bd 94 82 f3 bd
       -0.014305426 -0.08527372 -0.07824068 -0.1189014
0001f0 21 c9 ad be 06 b9 41 3c a7 6e b1 3d 6b 8a 95 bd
       -0.33942512 0.011823898 0.086636834 -0.07301792
000200 f3 ba 03 be f3 9c 0d be e8 94 15 3e 2b 9e ba bd
       -0.12864284 -0.13829403 0.14607584 -0.091121994
000210 ce 3a 05 3e 97 d7 99 3d 2d e5 9f bd c6 01 0f 3e
       0.13010713 0.075118236 -0.07807384 0.1396552
000220 ca 43 a6 3d a2 3b 81 3d 55 87 48 3e 48 6d ff 3c
       0.081183985 0.06310202 0.19582875 0.031180039
000230 70 9c 13 3c 0f ff 0d 3e f2 cf 0e bf 9b a8 d4 3d
       0.009009466 0.13866828 -0.5578605 0.103837214
000240 ae d5 02 3d ea d6 06 be 69 cd 09 3d 12 7d ef 3d
       0.031942062 -0.1316792 0.03364316 0.11693777
000250 ab 0b 16 bf 42 ae 45 bd e3 b1 16 bf eb ad de 3d
       -0.58611554 -0.04826189 -0.58865184 0.10873016
000260 48 1c 39 3e 9e d2 19 be 22 30 13 be e4 ac 1c be
       0.18077195 -0.1502175 -0.1437383 -0.15300328
000270 c8 02 85 3e 9a 53 05 3e e8 b2 ee 3d 2a b9 b2 bd
       0.25978684 0.13020173 0.116552174 -0.087267235
000280 55 1b 20 bf cd 2c d8 be 2d bb 52 bd e1 bd 15 bf
       -0.62541705 -0.4222168 -0.051448036 -0.5849286
000290 88 19 01 3e de d8 c1 3d 68 e9 20 bf 75 6f 2b bd
       0.12607396 0.09465192 -0.6285615 -0.04185434
0002a0 ff 47 d5 3d 4c 14 d0 3d dc c2 e2 3d 3d f2 ce 3d
       0.10414123 0.10160121 0.11072323 0.10104797
0002b0 a9 ce bf be 20 c5 86 bc f3 ed 94 bb d6 a3 8d 3d
       -0.37462357 -0.016451418 -0.0045449673 0.06916015
0002c0 de 54 df 3c c9 d4 00 bf c8 75 51 3d 46 3a b9 38
       0.027262148 -0.50324684 0.051137716 8.832342e-05
0002d0 1b b5 7e bc 0f 02 40 be 74 5d be bd a9 6c c3 3c
       -0.015546109 -0.18750785 -0.092951685 0.023855524
0002e0 aa 65 51 3d 1a 0d 38 bf d4 76 06 bf 68 02 44 bd
       0.051122345 -0.7189499 -0.5252507 -0.047853857
0002f0 0e f9 fb 3d 41 0e 07 3d d6 7c 79 3c 45 33 a6 be
       0.12303363 0.032972578 0.015227517 -0.3246099
000300 e2 e4 e4 bd 1d b2 b2 bd 2c dd a3 bb 65 05 9b bd
       -0.111764684 -0.08725379 -0.005000731 -0.07569388
000310 ba cf 23 bd 79 5e 04 3e 63 9a 74 bd 6a f4 42 bd
       -0.039993025 0.12926663 -0.059717547 -0.047596373
000320 91 3d af 3d 86 e2 e8 bb c2 c2 24 be de 30 bc 3d
       0.08556665 -0.007107082 -0.16089919 0.09189008
000330 70 63 15 bd 76 a6 08 3e c1 83 93 3e 5b 2b 9b 3d
       -0.036471784 0.1334475 0.28811458 0.07576629
000340 c2 c6 b1 bd 99 d6 14 be 97 70 e8 bc af f5 69 bd
       -0.08680488 -0.14534988 -0.028374 -0.057119068
000350 85 83 25 be fe 47 9b 3b 36 2d 0f be 46 0e 8c 3d
       -0.16163452 0.0047388067 -0.1398209 0.0683866
000360 60 35 cd 3d 76 17 02 bd 3b ac aa bd 46 d7 9d bd
       0.10019946 -0.031760655 -0.083336316 -0.07707076
000370 28 80 78 3d a8 1a 52 bc 7d 0d 2b 3c 48 13 77 bd
       0.060669094 -0.012823738 0.010440228 -0.060321122
000380 21 87 83 be a3 ad 32 be 3b b0 2a 3d 86 f6 12 be
       -0.25689033 -0.1744905 0.041671973 -0.14351854
000390 64 37 05 3e 02 42 a3 bc 75 b6 40 be ff 3e 66 bb
       0.13009411 -0.019928936 -0.18819602 -0.0035132763
0003a0 c6 ea 60 3d e7 b5 29 3d df ed 1b 3e 27 1b 1f bd
       0.054911397 0.04143324 0.1522746 -0.038844254
0003b0 cf 2e 0a 3d 11 71 8b 3d 40 7e 87 3e 4b cb ae 3d
       0.033736046 0.06808675 0.2646351 0.08534869
0003c0 15 49 be bd d7 15 99 be b7 16 9c bd 61 71 24 3d
       -0.09291283 -0.29899475 -0.0762152 0.04014719
0003d0 89 cb a3 3e 36 16 ed bd 0f 70 01 3d 94 76 6b 3d
       0.31991223 -0.11576502 0.031601008 0.05748613
0003e0 01 50 06 3e 42 88 25 be 36 2a 4c be da 92 cc bd
       0.13116457 -0.1616526 -0.19937977 -0.09988947
0003f0 29 f9 d5 be 72 cf 43 3d 8d 6b db 3d 26 3d 1d be
       -0.41791657 0.047805257 0.10713873 -0.15355358

5.bias f4 [16]
000000 91 e4 24 c0 16 7d f5 3f 02 1d c7 bd 1a 00 0e 40
       -2.5764506 1.9178798 -0.0972233 2.2187562
000010 ac 04 0a 40 60 b3 e0 3f 0f 1a ef 3f f2 2e e2 3f
       2.1565351 1.7554741 1.8679827 1.7670577
000020 c1 12 2c bf 3d 4a d3 3f 0b 07 16 40 e5 f5 04 40
       -0.67216116 1.6507031 2.3441799 2.0775082
000030 75 37 a1 3f d5 32 eb 3f 36 54 d8 3f 32 2d dc 3f
       1.2595049 1.8374888 1.6900699 1.7201293

7.weight f4 [13, 16]
000000 f1 9a cf 3d 59 22 3e 3d 02 4d 59 3e 14 52 fb 3e
       0.101369746 0.046419475 0.21220782 0.49086058
000010 4d 0e f5 3e 65 31 05 3e ce 95 34 3e 41 12 90 3e
       0.47862473 0.13007124 0.17635271 0.28138927
000020 af 78 86 3e b7 ad 9b 3e 5a 43 ab 3e 02 93 a4 3e
       0.2626395 0.3040597 0.33449823 0.32143408
000030 ce 5c f8 3e 11 c3 d3 3e 11 08 3b 3f 22 f0 f0 3e
       0.48508304 0.4135976 0.73059183 0.47058207
000040 da 6b a1 bd 8d 9f 84 3e 88 68 10 3c 08 f1 0c 3f
       -0.07881899 0.25902978 0.008813985 0.55055285
000050 95 ed 00 3f ff c5 02 3e f1 02 8e 3e 9b 09 ac 3e
       0.5036252 0.12770842 0.2773662 0.33601078
000060 60 89 11 bc a2 1a b3 3e 39 e1 cc 3e 1f 2d 45 3e
       -0.00888285 0.34981257 0.4001558 0.19255494
000070 52 2b 00 3f 9c 7d e2 3e fc 6f 4c 3f 96 19 04 3f
       0.500661 0.44236457 0.79858375 0.5160154
000080 1e 06 44 3e be a8 c1 3d 86 69 5f 3e a4 60 eb 3e
       0.19142959 0.09456013 0.21817598 0.45972168
000090 ff b9 e1 3e 1a da df 3d 4d a1 4b 3e 91 8c 9c 3e
       0.44087216 0.109302714 0.1988575 0.30575994
0000a0 fe 94 11 3e 55 7d 6c 3e f6 7a a8 3e f6 9a 2f 3e
       0.14216992 0.23094685 0.32906312 0.17148957
0000b0 14 9b ed 3e 76 c8 d5 3e 2e f5 26 3f 52 0f e9 3e
       0.46407378 0.41754502 0.65217865 0.455195
0000c0 1e ed d1 3d 03 86 05 3e 63 34 f3 3d 4a 0b fe 3e
       0.10250305 0.13039403 0.11875226 0.49617988
0000d0 41 83 ea 3e 99 13 df 3d 3e 80 82 3e 01 bc 93 3e
       0.45803264 0.1089241 0.25488466 0.28854373
0000e0 0f c1 52 3e 20 43 95 3e 16 60 b3 3e d0 4a 3e 3e
       0.20581459 0.29152775 0.35034245 0.18583226
0000f0 90 68 ea 3e fa d8 cd 3e c8 13 38 3f 5b 7f ef 3e
       0.457829 0.40204602 0.71905184 0.46776852
000100 56 9b 0b 3e 95 2e b8 3d 74 db 31 3e 14 52 fc 3e
       0.13633475 0.0899326 0.17368871 0.4928137
000110 72 9a f3 3e ff 28 e7 3d 60 eb 56 3e 20 6a 8d 3e
       0.4757877 0.11287116 0.20988226 0.2762003
000120 45 b3 e3 3d 4a 1f a1 3e 61 c2 ad 3e bf 44 7b 3e
       0.11118177 0.31469184 0.33937362 0.24537943
000130 aa a1 f3 3e d4 af cb 3e a5 68 3c 3f 05 b9 f8 3e
       0.47584277 0.39782584 0.73597175 0.4857866
000140 35 12 f3 3d a9 46 69 3d 02 3e 8d 3e a7 6c f6 3e
       0.11868707 0.056952152 0.2758637 0.4812977
000150 81 51 ee 3e 8f ff e5 3d cb b6 30 3e 64 e5 a0 3e
       0.46546558 0.112303846 0.1725723 0.3142501
000160 c6 7f 6a 3e 59 c5 9c 3e 02 3d ab 3e f2 d6 1a 3e
       0.22900304 0.30619314 0.33444983 0.15121058
000170 3f ce f7 3e 5c c3 d9 3e 57 74 3d 3f b2 63 ed 3e
       0.4839954 0.4253186 0.74005646 0.46365124
000180 f7 1e 46 3e c2 f8 f9 3d d0 81 32 3e 54 fd f6 3e
       0.1934775 0.1220565 0.17432332 0.4824015
000190 38 70 e6 3e ef db a6 3d 22 8f 54 3e aa 5d 9f 3e
       0.4500749 0.08147418 0.20757726 0.31126148
0001a0 ad 02 3d 3e e9 0f 94 3e 6c cc a2 3e 4f ad a3 3d
       0.18458052 0.28918388 0.31796587 0.0799204
0001b0 63 d2 e4 3e a8 b5 d0 3e a5 49 37 3f 99 64 e0 3e
       0.44691762 0.40763593 0.7159675 0.4382675
0001c0 86 29 88 3e 0b 6d 51 3d 50 14 2f 3e 28 9a eb 3e
       0.2659418 0.051129382 0.17097592 0.4601605
0001d0 3c fb e8 3e c5 da 96 3d 81 01 75 3e 48 c7 83 3e
       0.45504177 0.07365946 0.23926355 0.25737977
0001e0 9b df 7e 3e aa fc 9b 3e 57 97 9c 3e 35 4b 4e 3e
       0.24889986 0.30466205 0.30584213 0.20145877
0001f0 46 02 db 3e 4e 7c d3 3e e1 a3 35 3f 18 e1 df 3e
       0.42775172 0.41305774 0.70953184 0.4372642
000200 5b 60 97 3e c0 15 13 3d 22 a8 81 3e 09 33 e6 3e
       0.295657 0.035909414 0.25323588 0.44960812
000210 89 07 e0 3e fb 2d 93 3d 3a 9f 24 3e 6e 15 87 3e
       0.4375575 0.071865045 0.16076365 0.26383537
000220 af 7b 59 3e 31 01 8f 3e 5e 67 9a 3e 99 de 30 3e
       0.21238588 0.27930596 0.30156988 0.17272414
000230 ec 78 e8 3e 83 e6 c3 3e 5e 50 35 3f 78 da e1 3e
       0.45404756 0.38261804 0.70825756 0.4411199
000240 a3 b8 95 3e 05 88 9a 3d ae a7 66 3e 70 d1 ea 3e
       0.2924243 0.07545475 0.22524902 0.45862913
000250 d2 4f e3 3e 75 96 44 3d 14 08 2a 3e e7 26 92 3e
       0.44396836 0.04799505 0.16604644 0.28545305
000260 d4 68 39 3e 0e d5 8a 3e c8 8b 99 3e 6f 85 bc 3d
       0.18106395 0.27115673 0.29989457 0.09205138
000270 3e be e3 3e 3c 73 d0 3e 63 d5 2f 3f 24 07 e4 3e
       0.4448108 0.40712917 0.6868498 0.44536698
000280 d9 02 ac 3e a9 12 31 3c 3b be 95 3e 5d fd e1 3e
       0.33595923 0.010807672 0.29246697 0.44138613
000290 6b e7 d9 3e c8 a7 8e 3d a2 aa 14 3e 8e ec 84 3e
       0.4255937 0.069655955 0.14518216 0.25961727
0002a0 b6 32 83 3e 7e c2 98 3e 67 34 94 3e 05 bf fe 3d
       0.25624627 0.29835886 0.2894623 0.12438778
0002b0 3c ba e0 3e 75 48 c1 3e ca 1c 3a 3f 0b a5 de 3e
       0.43892086 0.37750593 0.7270018 0.43485293
0002c0 f6 c3 c4 3e 0f 51 eb bc 48 dd 94 3e 4d d9 de 3e
       0.38430756 -0.028725175 0.29075074 0.43525162
0002d0 93 48 d6 3e 12 d8 56 3d 2a ae 13 3e 3c 8a 7d 3e
       0.41852245 0.052452154 0.14421907 0.24759763
0002e0 94 a7 98 3e 22 a5 92 3e cb 7b 91 3e 55 df 1c 3e
       0.29815352 0.2864161 0.2841476 0.1531957
0002f0 45 6b da 3e 62 0b cd 3e 78 db 2b 3f 4a e7 d5 3e
       0.42659965 0.40047747 0.6713176 0.41778022
000300 b7 91 d2 3e 31 e4 4b 3d ab a1 a6 3e 5a 25 d4 3e
       0.41126797 0.049778167 0.32545218 0.41434747
000310 29 f5 ce 3e 8d 57 a1 3c 08 18 06 3e 50 4a a3 3e
       0.40421417 0.019695068 0.13095105 0.31892633
000320 60 10 85 3e 14 97 81 3e 9b 2a 89 3e b3 b5 10 be
       0.25989056 0.25310576 0.26790318 -0.14131813
000330 1d ae d4 3e 4d 59 c3 3e 76 d3 24 3f 20 bc cb 3e
       0.41539088 0.3815407 0.64385164 0.39791965

7.bias f4 [13]
000000 d9 42 98 c0 6e 71 22 c0 9c 95 7a c0 ad 46 94 c0
       -4.75816 -2.5381732 -3.9153814 -4.6336274
000010 82 bd 9f c0 78 ca a0 c0 5e 76 92 c0 06 49 a4 c0
       -4.9918833 -5.0247154 -4.576949 -5.133914
000020 d8 61 93 c0 39 a0 9f c0 ea 03 9d c0 56 78 91 c0
       -4.605694 -4.9883084 -4.906728 -4.5459394
000030 a9 c5 a4 c0
       -5.1491284
