results/PokerGPU/poker_qnet_final.pth (torch, 14859 bytes, 8 tensors)

0.weight f4 [32, 40]
0	0xbb5b618d	-0.0033474893
1	0xbb00d036	-0.0019655353
2	0x3dcc63bf	0.099799626
3	0x3d590067	0.0529789
4	0x3ca3829e	0.019959744
5	0xbddc81ee	-0.107669696
6	0xbcd502a4	-0.026002236
7	0x3d2c7b89	0.04211
8	0x3e1618fc	0.14657968
9	0x3e3067ac	0.17227048
10	0x3d9efd2c	0.077631325
11	0xbd9dbcfd	-0.07702062
12	0xbdc65858	-0.09684819
13	0x3d0c1657	0.034200992
14	0x3e29f31f	0.1659665
15	0xbe05ba67	-0.13059388
16	0x3d771d34	0.060330585
17	0xbd9a7c17	-0.075431995
18	0x3cd5ee58	0.026114628
19	0x3dd4d56f	0.10392272
20	0xbcda3d4b	-0.026640555
21	0x3d5af1c5	0.053453226
22	0x3acd6d93	0.0015672914
23	0x3dad6b5b	0.08467742
24	0x3dd7deba	0.105405286
25	0xbcb9c8e1	-0.022678794
26	0x3e088d11	0.13335063
27	0x3cad1fa3	0.02113325
28	0x3dacbaa9	0.0843404
29	0xbd09ce10	-0.033643782
30	0xbbb68935	-0.0055705556
31	0x3b10a403	0.0022070415
32	0xbcae06cf	-0.021243481
33	0x3cbd4c49	0.023107665
34	0xbd64cba3	-0.055858266
35	0x3d9577f5	0.072982706
36	0xbd2e0d8b	-0.042493384
37	0xbdcccfd4	-0.100005776
38	0x3e1026a7	0.14077245
39	0xbde0e269	-0.10980684
40	0xbdf96ea3	-0.121793054
41	0xbdb687e8	-0.08912641
42	0x3e175ef7	0.1478232
43	0x3d62275f	0.05521333
44	0xbdbd6b7b	-0.09249016
45	0x3dda30c6	0.10653834
46	0x3cdf7618	0.027277991
47	0x3e047df1	0.12938668
48	0xbc537f8e	-0.012908829
49	0xbdbc38c4	-0.09190515
50	0xbd83b734	-0.064314276
51	0x3d2fdfca	0.04293803
52	0x3c9c43eb	0.019075355
53	0x3e3133c6	0.17304906
54	0x3dad5cdc	0.08464977
55	0xbd138890	-0.036018908
56	0xbd83dce1	-0.06438614
57	0x3e2d12a3	0.1690164
58	0x3e1646cb	0.14675443
59	0xbd3293cf	-0.043597993
60	0xbd86bff3	-0.0657958
61	0xbd88156c	-0.06644711
62	0x3de8e54b	0.11371859
63	0xbd48677a	-0.048926808
64	0xbdde4c59	-0.10854406
65	0x390ddeaf	0.00013529764
66	0xbd98824a	-0.07446726
67	0x3c943058	0.018089458
68	0x3dbfae9c	0.09359476
69	0x3e19bf43	0.15014367
70	0xbd9ba1a6	-0.07599191
71	0x3dd6a543	0.1048074
72	0x3db1bc96	0.08678548
73	0xbe02f2c6	-0.12787923
74	0xbdb0ec39	-0.08638806
75	0xbd5fd72d	-0.054648567
76	0x3d5999c6	0.053125165
77	0xbdc33522	-0.09531619
78	0xbdae7542	-0.08518459
79	0x3e0a25cd	0.13490982
80	0x3ddd452e	0.108042106
81	0x3d872f7c	0.06600854
82	0xbd4b166f	-0.04958194
83	0xbdf7a796	-0.12092511
84	0xbe3e7bda	-0.18601933
85	0x3d62d288	0.05537656
86	0xbdd9690f	-0.106157415
87	0x3ac0ccd1	0.0014709478
88	0x3dd41db2	0.103572264
89	0x3d7bbca8	0.061459213
90	0xbcd388da	-0.025822092
91	0xbd1e96e3	-0.038718116
92	0x3e328c0b	0.17436235
93	0x3e55270e	0.2081568
94	0xbdca46b3	-0.09876766
95	0xbd0b1f0a	-0.033965148
96	0x3d99db77	0.07512563
97	0xbd3c1471	-0.045917932
98	0xbdcc0191	-0.09961236
99	0x3c5933fe	0.013257025
100	0x3ceb7423	0.028741902
101	0x3df6f1ee	0.12057863
102	0xbd2d1ffc	-0.04226683
103	0xbdd03d85	-0.10167984
104	0xbd3761e4	-0.04477109
105	0x3cebfcb2	0.028807018
106	0xbd8b041e	-0.06787895
107	0x3e21cc81	0.15800668
108	0x3e1ac65f	0.15114735
109	0x3e0c8e35	0.13726123
110	0x3c0a8061	0.0084534595
111	0x3e28a3e5	0.16468771
112	0x3db39e94	0.08770481
113	0x3cb0f830	0.02160272
114	0x3e1a8a66	0.15091857
115	0xbe0a5753	-0.13509874
116	0x3e26076b	0.16213767
117	0x3e01a4d3	0.12660532
118	0x3e2b6740	0.16738605
119	0x3df6681c	0.12031576
120	0x3de02839	0.10945172
121	0x3e0ffaf7	0.14060579
122	0x3b9efa4f	0.0048516165
123	0x3da1344d	0.07871304
124	0x3de6ec29	0.11275513
125	0x3db2a6e6	0.087232396
126	0x3da72e58	0.08163136
127	0x3dfbf502	0.12302591
128	0x3dacf649	0.08445413
129	0xbd6ff996	-0.058587633
130	0x3d275ed5	0.040861923
131	0xbd61fa8f	-0.055170592
132	0x3bbecd6a	0.005822827
133	0xba9f7050	-0.0012164209
134	0xbd05c126	-0.032654904
135	0x3de185ce	0.11011849
136	0x3d97d00a	0.07412727
137	0xbd06873a	-0.032843806
138	0xbddcf1d7	-0.10788315
139	0x3d59499f	0.053048726
140	0x3d823c8b	0.06359204
141	0xbdde8164	-0.10864523
142	0x3a2ac35f	0.0006514098
143	0xbde6b630	-0.11265218
144	0x3dc0ae36	0.09408228
145	0xbc5c3ee9	-0.013442733
146	0xbdebc53b	-0.11512228
147	0xbe0c9043	-0.13726906
148	0xbe1301c4	-0.14356142
149	0xbd9a0f2a	-0.075224236
150	0xbe1cf64f	-0.15328334
151	0x3d95a38c	0.07306585
152	0xbda6eef0	-0.081510425
153	0xbd004520	-0.031315923
154	0x3d228b13	0.039683413
155	0xbd753106	-0.059861206
156	0xbd1e4857	-0.038643207
157	0x3d0b6c8e	0.034039073
158	0xbde4f808	-0.11180121
159	0xbd982bd6	-0.07430236
160	0xbde49da9	-0.11162884
161	0xbc91d863	-0.017803377
162	0xbcf66b44	-0.030080445
163	0xbd9b9817	-0.07597368
164	0x3e32196f	0.17392515
165	0xbdd9cff2	-0.106353655
166	0x3d7cb63e	0.061697237
167	0x3cf59db8	0.029982433
168	0xbe26f9c9	-0.16306223
169	0x3cdd0dc9	0.026984112
170	0x3de7c014	0.11315933
171	0xbe24596e	-0.1604974
172	0xbcc07886	-0.02349497
173	0x3c0794ae	0.008275194
174	0x3dc6d157	0.09707897
175	0xbcd838d6	-0.026394289
176	0xbdbe8007	-0.09301763
177	0xbe0b0aea	-0.13578382
178	0xbdb871ab	-0.090060554
179	0x3c8fa0be	0.017532703
180	0xbdb36f05	-0.0876141
181	0xbe064c0f	-0.13114952
182	0xbd7f5d15	-0.06234463
183	0xbdfce944	-0.123491794
184	0x3bf20d86	0.007386866
185	0xbdf8d8d5	-0.121507324
186	0x3bd64e5f	0.0065401043
187	0xbe0af847	-0.13571273
188	0x3d837cac	0.06420264
189	0xbe18d9a4	-0.14926773
190	0xbdb2221f	-0.08697914
191	0x3d9662de	0.07343076
192	0xbc0417fc	-0.008062359
193	0x3dc933e1	0.09824348
194	0x3daebf54	0.08532587
195	0xbdbda9a2	-0.092608705
196	0x39447fdb	0.00018739646
197	0xbcda646e	-0.026659217
198	0xbdf9e70c	-0.12202272
199	0x3d9cee21	0.07662607
200	0xbe1fee81	-0.15618326
201	0xbe199d9c	-0.1500153
202	0xbd8762ea	-0.06610663
203	0xbcacc29e	-0.021088894
204	0x3d777584	0.060414806
205	0xbd88784f	-0.06663572
206	0xbcb64df8	-0.022253975
207	0x3d3beddc	0.045881137
208	0x3e250d81	0.16118433
209	0xbe089e95	-0.13341744
210	0x3da7ea94	0.08199039
211	0x3d058946	0.032601617
212	0xbc3b6e5c	-0.011439886
213	0x3e2048c6	0.15652761
214	0xbd169555	-0.036763508
215	0xbda6e4a9	-0.08149082
216	0x3df7b792	0.1209556
217	0xbe11ae12	-0.14226559
218	0xbdd84096	-0.10559194
219	0xbc87ad9d	-0.016562277
220	0xbdaa4752	-0.083143845
221	0xbb83302e	-0.004003546
222	0xbd8db513	-0.06919303
223	0x3a439162	0.00074603234
224	0x3d48b335	0.04899903
225	0xbe0e4699	-0.13894118
226	0x3d677fb6	0.05651828
227	0x3d3bc3ff	0.045841213
228	0xbda48581	-0.08033276
229	0x3d8dd258	0.069248855
230	0xbe106ab2	-0.14103201
231	0x3d68c445	0.056827802
232	0x3c8b028c	0.016968988
233	0xbe126ddb	-0.14299719
234	0x3e0ec921	0.13943912
235	0x3e148e80	0.14507484
236	0xbd06e195	-0.032929976
237	0x3cbd79e0	0.023129404
238	0xbdf6a984	-0.12044051
239	0x3d1e555d	0.038655628
240	0xbdf68c0a	-0.12038429
241	0xbe10810b	-0.14111726
242	0xbe10e5ae	-0.14150116
243	0xbe0e87ed	-0.13919039
244	0x3df9b3f5	0.12192527
245	0x3d727ab3	0.059199046
246	0x3d8048dd	0.062638976
247	0x3dfdf94b	0.124010645
248	0x3df71b9d	0.12065814
249	0x3d407c38	0.046993464
250	0xbdafbf58	-0.08581418
251	0x3e0a3270	0.13495803
252	0x3df5ae25	0.11996106
253	0xbdcb5ad6	-0.09929435
254	0x3c253a2c	0.01008467
255	0x3d01c33c	0.03168033

0.bias f4 [32]
0	0xbdccdf09	-0.10003478
1	0x3e2b2b78	0.16715801
2	0xbdaab021	-0.08334375
3	0xbda94641	-0.08265353
4	0x3d44c095	0.048035223
5	0x3d541347	0.051776197
6	0x3e1bea9c	0.15226215
7	0xbd5148f2	-0.051094957
8	0x3d80cf51	0.062895425
9	0xbd5645ef	-0.052312788
10	0x3cb71a20	0.022351325
11	0xbdf8d12c	-0.12149271
12	0xbe02b3cd	-0.12763901
13	0xbe12cba1	-0.14335491
14	0xbe1933e4	-0.14961201
15	0xbdac6c9a	-0.084191516
16	0x3da5bf03	0.08093073
17	0x3d08bddd	0.033384193
18	0xbdd7eaac	-0.10542807
19	0x3d9a86af	0.0754522
20	0x3d929451	0.07157195
21	0x3a7a0f64	0.00095390365
22	0x3dc60b33	0.09670105
23	0x3d9470ad	0.07248054
24	0xbd8f47cd	-0.06996117
25	0xbcee9d21	-0.02912766
26	0xbdf99442	-0.12186481
27	0xbcf3e4e9	-0.029772239
28	0x3d9e4cda	0.07729502
29	0x3d95560d	0.072918035
30	0xbddf7924	-0.109117776
31	0xbcc6dada	-0.024274278

2.weight f4 [24, 32]
0	0x3cdf2791	0.027240546
1	0x3cacaca8	0.021078423
2	0x3e37cdda	0.1794962
3	0x3e0c9a9a	0.13730851
4	0x3d53f546	0.051747583
5	0xbcb1740d	-0.021661783
6	0xbc708eed	-0.014682514
7	0xb9e29224	-0.00043214962
8	0xbd3fa485	-0.046787757
9	0x3e0e0ee4	0.13872868
10	0x3e2d5ac9	0.16929163
11	0x3e4e7a56	0.20163855
12	0x3c006903	0.007837537
13	0x3dde45da	0.10853167
14	0x3cf23788	0.029567495
15	0xbc7dba76	-0.01548635
16	0xbd9bfc7c	-0.07616517
17	0xbc8380fc	-0.016052715
18	0x3e2c2605	0.16811378
19	0x3ddb09d7	0.10695236
20	0x3d8d837d	0.06909845
21	0x3e42e046	0.19030866
22	0xbca2d252	-0.01987568
23	0xbd9442b3	-0.07239284
24	0xbceffa4c	-0.029294156
25	0xbd0e2535	-0.034703452
26	0xbd11bac2	-0.035578497
27	0xbe08edc9	-0.13371958
28	0x3df7feb9	0.12109131
29	0xbdc784cf	-0.09742128
30	0xbd88c8c9	-0.06678922
31	0xbd0e0982	-0.034677036
32	0x3df0f8b6	0.11766188
33	0xbd2d6cc3	-0.04234005
34	0x3e5bacc5	0.21452625
35	0xbd7f27a8	-0.06229368
36	0x3df7d670	0.121014476
37	0xbd85d311	-0.06534398
38	0xbe0c6c50	-0.13713193
39	0xbd094f52	-0.03352291
40	0x3dec7a67	0.11546784
41	0x3e37ccfb	0.17949288
42	0xbe030a9f	-0.1279702
43	0xbd750bed	-0.059825826
44	0xbdec7149	-0.11545045
45	0x3db6000d	0.088867284
46	0xbdb31d93	-0.08745875
47	0xbdbe232d	-0.09284053
48	0xbd576b27	-0.052592423
49	0xbdb2e378	-0.087347925
50	0xbbe90664	-0.0071113575
51	0xbd0c13d2	-0.03419859
52	0x3daa28e1	0.08308578
53	0xbc0bbc72	-0.008528816
54	0x3e0e7f7b	0.13915817
55	0x3996b8bb	0.00028747864
56	0xbd2d0c11	-0.042247836
57	0xbd5add7c	-0.05343388
58	0xbd917ade	-0.07103513
59	0xbd71de9c	-0.059050187
60	0x3deaa88b	0.11457928
61	0x3e43f09d	0.19134755
62	0x3d22b83c	0.03972648
63	0xbdac07b9	-0.083999105
64	0xbd8b2cb3	-0.06795635
65	0xbd91f724	-0.071272165
66	0x3c88afbb	0.016685357
67	0x3dc02d17	0.093836
68	0x3d515b07	0.0511122
69	0x3c7edbd4	0.015555341
70	0xbd98752a	-0.07444222
71	0x3daed4b3	0.08536663
72	0xbd4ba455	-0.049717266
73	0xbe4eb9db	-0.20188086
74	0xbe4cfb44	-0.20017725
75	0xbdb1a3c5	-0.08673815
76	0xbd8aa8b7	-0.06770461
77	0x3da7d415	0.08194748
78	0xbd1d8e2e	-0.03846567
79	0x3e03528a	0.12824455
80	0xbdefec72	-0.1171502
81	0xbe44d076	-0.19220147
82	0x3dbb1a10	0.091358304
83	0x3c2735f7	0.010205737
84	0x3d84d11f	0.06485199
85	0x3d9668c3	0.073442005
86	0xbe0f23a5	-0.13978441
87	0xbd321b2c	-0.043482944
88	0x3e09240b	0.13392656
89	0xbd5e515d	-0.054276813
90	0xbda20517	-0.07911127
91	0xbe2e62c7	-0.17029868
92	0x3cbae72a	0.022815306
93	0xbd69346f	-0.05693477
94	0x3d9b86fe	0.07594107
95	0x3d51adfe	0.051191323
96	0x3df19908	0.117967665
97	0x3c637594	0.013883013
98	0xbd3031df	-0.04301631
99	0x3d071a73	0.03298421
100	0xbda84207	-0.08215719
101	0x3e3bac09	0.18327345
102	0x3e03a2fe	0.12855145
103	0xbd9598f7	-0.07304566
104	0x3e5ac191	0.21362902
105	0xbd9ca4b5	-0.07648603
106	0xbdaa8000	-0.08325195
107	0x3d0fd8c9	0.03511885
108	0xbe216d97	-0.15764461
109	0x3c55976a	0.013036588
110	0xbdd92092	-0.106019154
111	0xbde360df	-0.11102461
112	0xbd73a6e8	-0.059485346
113	0x3b8306b4	0.003998602
114	0x3ad6742d	0.0016361527
115	0xbe028e7a	-0.12749663
116	0x3db7ffd5	0.08984343
117	0x3e564837	0.20925985
118	0x3e25f089	0.16205038
119	0x3e399059	0.1812147
120	0xbd919fca	-0.071105555
121	0x3d9da25b	0.076969825
122	0xbdb328d9	-0.087480254
123	0x3d93c07e	0.07214449
124	0x3d67e57f	0.05661535
125	0x3da2faad	0.07957969
126	0x3e424a90	0.18973756
127	0x3cc4ba38	0.024014577
128	0x3d9e3998	0.07725829
129	0x3cf93907	0.0304227
130	0xbe25f1d7	-0.16205536
131	0x3db445f2	0.088024035
132	0xbd67201d	-0.05642711
133	0xbd9132be	-0.070897564
134	0x3e102c63	0.14079432
135	0x3d930a6d	0.07179723
136	0x3d680747	0.056647565
137	0x3b9029e2	0.004399524
138	0x3e1a1879	0.15048398
139	0xbc9f5344	-0.019448884
140	0xbdb7ab81	-0.08968259
141	0x3d93664f	0.07197248
142	0x3e034041	0.1281748
143	0xbb4c6c38	-0.0031192433
144	0xbdafa1f0	-0.08575809
145	0xbda92ab7	-0.082601
146	0xbe062b2d	-0.13102408
147	0x3e31ae4e	0.17351648
148	0x3cdb5e96	0.0267785
149	0xbdd956be	-0.10612248
150	0x3ddfa4ba	0.10920091
151	0x3df63c48	0.120232165
152	0x3d326810	0.043556273
153	0x3de9f193	0.1142303
154	0xbc5012b0	-0.012699768
155	0xbe19ddfb	-0.15026085
156	0xbdb3b53b	-0.08774801
157	0x3d97d188	0.07413012
158	0xbd99b26f	-0.07504737
159	0x3d39087a	0.0451741
160	0xbcf46594	-0.029833592
161	0xbd3a87bb	-0.0455396
162	0xbe1bef81	-0.15228082
163	0xbe0cb0d3	-0.13739328
164	0xbcc6cb48	-0.024266854
165	0x3e1c3bf0	0.1525724
166	0x3dee76d4	0.116437584
167	0x3ccf9300	0.02533865
168	0xbde8546c	-0.11344227
169	0xbb49330f	-0.00307006
170	0xbb17b1da	-0.002314678
171	0x3c37b040	0.011211455
172	0x3d97eebf	0.07418584
173	0xbd52619d	-0.051362623
174	0x3c8a0cb3	0.016851759
175	0xbd0913b3	-0.033466052
176	0xbdd67506	-0.10471539
177	0x3e24aa94	0.16080695
178	0xbd0cb119	-0.03434858
179	0xbcbd0512	-0.023073707
180	0xbe18206b	-0.14856116
181	0xbe0036b2	-0.12520865
182	0xbdd5b9af	-0.10435807
183	0xbdfdf301	-0.12399865
184	0x3d741177	0.05958697
185	0xbdc8f925	-0.098131455
186	0xbdd05d15	-0.10174004
187	0x3c923d55	0.017851511
188	0xbc828218	-0.015931174
189	0x3dc6b60d	0.09702692
190	0xbdafbeb5	-0.08581296
191	0xbe26edab	-0.163016
192	0x3e2b5cea	0.16734663
193	0x3d99b0da	0.07504435
194	0x3db81879	0.08989043
195	0xbd3a7771	-0.045524064
196	0xbdd9691d	-0.10615752
197	0x3e3fc91b	0.1872906
198	0x3c7316b8	0.01483696
199	0x3e4743b1	0.19459416
200	0x3cdf5318	0.027261302
201	0xbdaf1c61	-0.08550335
202	0xbd215cae	-0.039395027
203	0x3e1054f4	0.14094907
204	0xbc1f07e8	-0.009706475
205	0xbc149561	-0.009068818
206	0xbd9c8b05	-0.07643703
207	0xbe063dfe	-0.13109586
208	0x3d4d168d	0.050070334
209	0x3d951d9d	0.07281039
210	0xbd96b7e8	-0.07359296
211	0x3dab4cda	0.08364268
212	0xbe006c9d	-0.12541433
213	0xbdef9edb	-0.11700221
214	0xbdac11a1	-0.084018
215	0x3cb21268	0.021737292
216	0xbd1c38ee	-0.03814023
217	0xbe075d4d	-0.13219185
218	0xbdd70b35	-0.105001844
219	0x3d7a8fe1	0.06117237
220	0x3de34543	0.11097195
221	0x3e1b3639	0.15157403
222	0xbd88376b	-0.06651195
223	0x3e3e47e5	0.18582113
224	0xbdabcc79	-0.083886094
225	0x3de30564	0.110850126
226	0x3cad52b8	0.021157607
227	0xbdc28ee8	-0.094999135
228	0xbcbdfd8a	-0.023192186
229	0x3d4ece5d	0.050489772
230	0xbe2c62cb	-0.16834562
231	0x3e5478d1	0.20749213
232	0xbd9baab3	-0.07600918
233	0xbbd45a9e	-0.006480529
234	0x3db9b99d	0.09068606
235	0xbdbccadd	-0.092183806
236	0x3df0dbba	0.117606595
237	0x3e41e395	0.18934472
238	0xbc47cb81	-0.012194515
239	0xbcab63bc	-0.02092158
240	0x3cc4f363	0.024041837
241	0xbcda5db0	-0.026656002
242	0xbd11633a	-0.03549502
243	0x3d474be4	0.04865636
244	0x3e095ad6	0.13413557
245	0x3c8ec7c6	0.017429244
246	0x3dbc523b	0.09195372
247	0xbb16ceab	-0.0023011367
248	0xbae0f50f	-0.0017162877
249	0x3d1a7e9a	0.037718393
250	0x3cf3f644	0.029780515
251	0x3cbd8336	0.023133855
252	0x3e120653	0.14260225
253	0x3daf005a	0.08544989
254	0x3dbeac50	0.0931021
255	0x3d3adf9a	0.0456234

2.bias f4 [24]
0	0x3dc9b295	0.09848515
1	0x3cfacd52	0.030615482
2	0xbe60e99a	-0.21964112
3	0x3d1b3a2e	0.03789728
4	0x3e07a21c	0.13245434
5	0x3e0440bf	0.12915324
6	0x3df2a580	0.11847973
7	0x3ddf1d15	0.10894219
8	0x3e030436	0.12794575
9	0x3dd4c986	0.1039
10	0x3de509c3	0.111835025
11	0xbdf5533a	-0.11978765
12	0x3dd81d99	0.1055252
13	0x3df6f0c6	0.12057643
14	0xbe2b14ce	-0.16707155
15	0x3ddd9b0c	0.108205885
16	0xbe1a196e	-0.15048763
17	0x3e4435e5	0.19161184
18	0xbd64286b	-0.055702608
19	0xbe06f4b8	-0.1317929
20	0xbdabf786	-0.08396821
21	0xbb84e97d	-0.0040561543
22	0xbd02a04f	-0.031891163
23	0x3dbe98c2	0.0930648

5.weight f4 [18, 24]
0	0xbd183d86	-0.03716805
1	0xbe547e75	-0.20751365
2	0x3da1a136	0.07892077
3	0x3d882f61	0.06649662
4	0xbd393bdc	-0.045223102
5	0xbd615bf9	-0.055019353
6	0x3d855981	0.06511212
7	0xbd239c84	-0.039944187
8	0xba1c4b47	-0.0005962145
9	0xbe2035b9	-0.15645494
10	0xbe0d6c51	-0.1381085
11	0xbde26db6	-0.11056082
12	0xbd02b9da	-0.031915523
13	0x3dfd3431	0.1236347
14	0xbdb00d78	-0.08596319
15	0x3e1f6133	0.15564422
16	0xbdc43cf2	-0.09581937
17	0xbe44cd9b	-0.19219057
18	0x3e08fc66	0.13377532
19	0x3d483daa	0.048886932
20	0xbd32f75d	-0.043692935
21	0x3e4ae84c	0.19815177
22	0xbd58e869	-0.05295602
23	0x3e23fdfe	0.16014859
24	0xbdfc5ca2	-0.12322356
25	0x3e2bc5df	0.167747
26	0xbdf36301	-0.11884118
27	0xbe1f24b1	-0.1554134
28	0xbe07db5b	-0.13267271
29	0xbd167f84	-0.036742702
30	0x3e56491b	0.20926325
31	0x3de72d57	0.11287945
32	0x3e28ff4b	0.16503637
33	0xbd9d2c2e	-0.07674442
34	0xbe0d6ba9	-0.138106
35	0x3df25b74	0.118338495
36	0x3dc6ebb8	0.097129285
37	0xbe34fe65	-0.17675169
38	0xbd4eb6fa	-0.05046747
39	0x3d6c06ee	0.057623796
40	0x3d48eca8	0.049053818
41	0xbe1aacc1	-0.15104963
42	0x3e1629df	0.1466441
43	0x3c7d4ed9	0.015460693
44	0x3d7b710a	0.0613871
45	0x3cf504ab	0.029909452
46	0x3e6a217d	0.22864337
47	0xbdf5bfcc	-0.11999473
48	0xbdac23e6	-0.084052846
49	0x3cb12d22	0.021627966
50	0xbd3cf1d8	-0.046129078
51	0xbd8f41bc	-0.0699496
52	0x3e194553	0.14967851
53	0xbde5090d	-0.11183367
54	0x3dc24669	0.09486086
55	0xbe24477e	-0.16042897
56	0x3d705fa3	0.058684956
57	0x3da8c135	0.08239976
58	0xbe34ae14	-0.1764453
59	0xbc157c10	-0.009123817
60	0x3dd474cc	0.1037384
61	0x3d7b7909	0.061394725
62	0xbdba3e05	-0.090938605
63	0xbc07d0dc	-0.008289542
64	0x3e4cd76c	0.20004052
65	0x3d86f0d6	0.065889046
66	0x3e0c9730	0.13729548
67	0xbe38eb1d	-0.18058439
68	0x3e37b4c8	0.17940056
69	0x3df4f5d1	0.11960948
70	0x3c8b76be	0.017024394
71	0xbe6f7bbf	-0.23387049
72	0x3e0c5f2d	0.13708182
73	0x3d5165f7	0.051122632
74	0x3e0c6fde	0.13714549
75	0xbdb34783	-0.08753874
76	0x3c2f3018	0.010692619
77	0x3dd05cce	0.10173951
78	0xbd79547d	-0.06087159
79	0x3e102cd1	0.14079596
80	0x3e61dd3b	0.22057049
81	0x3e428499	0.18995894
82	0xbda6f939	-0.08153004
83	0x3c3053db	0.01076218
84	0xbd8b5938	-0.068041265
85	0xbe09b6c2	-0.13448623
86	0x3c7a0faf	0.015262528
87	0xbe5b7e36	-0.21434864
88	0xbd6bdcb8	-0.05758354
89	0x3dae3885	0.08506874
90	0xbe2ba9e4	-0.16764027
91	0x3e700019	0.23437537
92	0xbe297a72	-0.16550615
93	0x3d43c176	0.04779192
94	0x3e852352	0.2600351
95	0xbd884066	-0.06652908
96	0x3e05dd6f	0.13072751
97	0xbe1d01b9	-0.15332688
98	0x3da4d484	0.08048347
99	0x3e4c6de8	0.19963801
100	0x3d03a210	0.032136977
101	0x3e1a16ca	0.15047756
102	0xbd414a91	-0.047190253
103	0xbd893a11	-0.067005284
104	0xbdb881af	-0.0900911
105	0xbd8d6770	-0.06904495
106	0x3e1eaee9	0.1549641
107	0x3e3ba33b	0.18323986
108	0x3e308a84	0.1724034
109	0x3df125ec	0.11774811
110	0xbdd90f9b	-0.1059868
111	0xbd98084d	-0.07423458
112	0xbcfec683	-0.031100517
113	0xbde02efd	-0.10946462
114	0xbe05c776	-0.1306437
115	0x3b01900d	0.00197697
116	0x3e1442cc	0.14478606
117	0xbe4e7eb9	-0.20165528
118	0x3dd33ed3	0.10314717
119	0xbe3bcbd8	-0.18339479
120	0xbe2944f7	-0.16530214
121	0x3e3fda67	0.18735658
122	0x3dec358c	0.11533651
123	0x3db6b934	0.089220434
124	0x3d15bc8b	0.03655676
125	0xbe4cdb64	-0.20005566
126	0x3c832d65	0.016012857
127	0xbe16dcce	-0.14732668
128	0x3d7bcde0	0.061475635
129	0xbe2ee5a6	-0.17079791
130	0x3e370dd8	0.17876375
131	0x3d8bcd32	0.06826247
132	0x3d6a9212	0.05726821
133	0x3da2bacc	0.07945785
134	0xbd8c29db	-0.06843921
135	0xbdd4474c	-0.10365161
136	0x3dde5f31	0.10858
137	0xbc0cdf5b	-0.008598174
138	0xbd068fab	-0.032851856
139	0xbd1d5cf0	-0.03841871
140	0xbbfd7873	-0.007735306
141	0xbdd691e3	-0.104770444
142	0x3e3f88ad	0.18704481
143	0xbde55594	-0.11197963
144	0x3ce29ba4	0.027662106
145	0x3e7ab4b5	0.24482997
146	0x3c84a3ea	0.016191442
147	0x3e618b6e	0.22025844
148	0xbdce7495	-0.1008083
149	0xbe200a2e	-0.15628883
150	0x3e5e8eb1	0.2173412
151	0x3d83d126	0.06436376
152	0x3e5277a7	0.20553456
153	0x3d3a4f13	0.045485567
154	0xbddbd176	-0.10733311
155	0xbdc7b123	-0.09750583
156	0x3e57dee6	0.21081123
157	0xbe576a20	-0.21036577
158	0xbdfed6ea	-0.12443335
159	0x3dbcbde2	0.09215905
160	0x3e12c147	0.14331542
161	0x3e4256bf	0.18978404
162	0xbdcaeb67	-0.09908181
163	0x3c73baee	0.0148761105
164	0x3e4e7a8d	0.20163937
165	0xbc6d6515	-0.014489432
166	0xbd6157e3	-0.055015456
167	0xbe3e8021	-0.18603565
168	0xbde20b8a	-0.11037357
169	0x3e0d31a6	0.1378847
170	0xbd351420	-0.044208646
171	0x3e0a12a7	0.13483678
172	0xbd124a8c	-0.035715625
173	0xbdc73084	-0.097260505
174	0xbd656764	-0.056006804
175	0x3c3d689e	0.011560587
176	0xbe10a3be	-0.14124963
177	0xbdd336fb	-0.10313221
178	0x3d0a2fbc	0.03373693
179	0xbd2490e6	-0.04017725
180	0x3e3b68fb	0.18301766
181	0xbd123023	-0.035690438
182	0xbd397787	-0.045280006
183	0xbdab877e	-0.083754525
184	0x3ca67942	0.020321492
185	0x3e25d6cf	0.16195224
186	0x3e3dc73e	0.18533036
187	0xbe05b027	-0.13055478
188	0x3c743560	0.014905304
189	0xbc74309b	-0.014904167
190	0xbbc911d5	-0.006136159
191	0x3db0b965	0.08629111
192	0x3d0fba66	0.035089873
193	0xbe15ab8e	-0.14616224
194	0x3e0fd1df	0.14044903
195	0xbd53a2d5	-0.05166896
196	0x3e050550	0.12990308
197	0xbddfe062	-0.109314695
198	0x3c407a22	0.011747869
199	0xbe6be800	-0.2303772
200	0x3ca096c2	0.019603137
201	0x3d68f7bc	0.056876883
202	0x3e25e7c0	0.16201687
203	0xbd74477e	-0.059638493
204	0x3dd51b1c	0.10405561
205	0xbc873a8a	-0.016507406
206	0xbdf8d215	-0.12149445
207	0xbe19126f	-0.14948438
208	0x3c31d107	0.010853059
209	0x3b4e7eef	0.0031508764
210	0x3e09485c	0.13406509
211	0xbe706098	-0.23474348
212	0xbc5145f7	-0.012773029
213	0xbe267ac1	-0.16257764
214	0x3d080436	0.03320714
215	0x3e3b0c30	0.18266368
216	0x3ba4ea62	0.0050328234
217	0x3de2d290	0.11075318
218	0xbe21e8e4	-0.15811497
219	0x3db2e91c	0.08735868
220	0xbe0e340e	-0.13887045
221	0xbe1cf0a9	-0.1532618
222	0x3ddc42aa	0.10754903
223	0xbce261bc	-0.027634494
224	0x3c39da22	0.011343511
225	0x3dc8d26c	0.0980576
226	0x3d8ad1db	0.06778308
227	0x3cfee695	0.03111581
228	0x3e6b48fc	0.2297706
229	0xbc32b92e	-0.010908408
230	0x3c65f3ec	0.014035206
231	0xbe145a01	-0.14487459
232	0x3dbb8455	0.091561
233	0x3d9e48ad	0.077287056
234	0xbd6907bb	-0.056892138
235	0x3db12da4	0.086512834
236	0x3d12bb61	0.03582323
237	0xbd4c3416	-0.04985436
238	0xbdd7f180	-0.10544109
239	0xbe7227b0	-0.23647952
240	0xbc6631d6	-0.014049968
241	0xbe16233b	-0.14661877
242	0x3d84d40e	0.06485759
243	0x3dd4bc9f	0.10387539
244	0x3df13d16	0.11779229
245	0xbd748fb5	-0.059707362
246	0x39e6ad43	0.0004399811
247	0xbd718f37	-0.05897447
248	0xbdb7ff42	-0.089842334
249	0x3b347fb4	0.0027541937
250	0x3e3e522c	0.18586034
251	0x3e0dd874	0.13852102
252	0xbd9b3b56	-0.07579677
253	0x3d51d38a	0.05122713
254	0x3e13420d	0.14380665
255	0xbdf28029	-0.11840851

5.bias f4 [18]
0	0xbc353f70	-0.011062488
1	0x3de0dd68	0.1097973
2	0xbdfd6df8	-0.123744905
3	0x3cb6f336	0.022332769
4	0x3e0c1a49	0.13681902
5	0x3e392878	0.18081844
6	0x3dc9d19e	0.098544344
7	0xbe251083	-0.1611958
8	0xbbeeb71b	-0.0072850115
9	0x3e07c2e5	0.1325794
10	0x3d7dc8b5	0.061958987
11	0x3e15af24	0.14617592
12	0xbc32566e	-0.010884864
13	0x3dc5e310	0.09662449
14	0xbdd4eb46	-0.10396437
15	0xbe10510f	-0.14093421
16	0x3d553538	0.052052706
17	0x3dedfda3	0.11620643

7.weight f4 [13, 18]
0	0x3da95db3	0.08269825
1	0xbe13dabb	-0.14438908
2	0xbcc59ae1	-0.024121704
3	0xbc8c0c04	-0.017095573
4	0xbe0aef27	-0.13567792
5	0x3e7e0d0a	0.24809662
6	0xbc9dc03e	-0.019256707
7	0xbe186105	-0.1488076
8	0x3e460373	0.19337253
9	0x3e760f82	0.24029353
10	0xbe1b2da4	-0.1515413
11	0xbe61374d	-0.21993752
12	0xbd2f6cf0	-0.0428285
13	0x3de31d83	0.11089613
14	0xbdd99e78	-0.10625929
15	0xbe28914a	-0.16461673
16	0x3de8674e	0.11347829
17	0xbd97690c	-0.07393083
18	0xbc9dce9a	-0.019263554
19	0x3e4e7aa2	0.20163968
20	0x3e0c5c24	0.13707024
21	0x3e644dc8	0.22295296
22	0x3b75115b	0.0037394378
23	0x3d803679	0.0626039
24	0x3e4e60a7	0.20154057
25	0x3d1de5e0	0.038549304
26	0xbe0b0370	-0.1357553
27	0x3d977798	0.073958576
28	0xbd4ffcfd	-0.050778378
29	0xbe310c6d	-0.17289896
30	0x3cbb0c9b	0.02283316
31	0xbd1acfd1	-0.037795845
32	0x3d82ce3f	0.063869946
33	0x3e6b1720	0.2295804
34	0x3deb7011	0.11495984
35	0x3b9ff3fb	0.0048813797
36	0xbd4f0c4b	-0.050548833
37	0x3d6aa317	0.05728444
38	0xbe30d040	-0.17266941
39	0x3e6c0121	0.23047306
40	0xbdf3994a	-0.11894472
41	0xbe070eac	-0.1318919
42	0x3cd88186	0.02642895
43	0x3d9104ae	0.07080971
44	0xbda631e2	-0.08114983
45	0xbe1153e5	-0.1419216
46	0x3e1f242c	0.15541142
47	0xbe531c56	-0.20616278
48	0x3e4f89e0	0.20267439
49	0x3e3c3377	0.18379007
50	0xbe2fc5c4	-0.17165285
51	0xbe1f410a	-0.15552154
52	0x3d0dabbc	0.034587607
53	0xbcc21cde	-0.023695406
54	0xbe307993	-0.17233877
55	0x38f4620c	0.00011653089
56	0xbe021c5d	-0.12706132
57	0x3d47ba7f	0.04876184
58	0x3dfe2686	0.124096915
59	0xbe00b0c0	-0.12567425
60	0xbca24979	-0.019810425
61	0xbde375eb	-0.111064754
62	0x3e0e2b83	0.13883786
63	0x3d53d7fb	0.051719647
64	0xbe0941b6	-0.13403973
65	0x3e28d332	0.16486815
66	0x3e5e8b2f	0.21732782
67	0xbe129d1f	-0.1431775
68	0x39a88dbe	0.00032149063
69	0x3d8e526b	0.06949314
70	0xbc6e2a58	-0.014536463
71	0xbd97ec33	-0.07418098
72	0xbe588c14	-0.21147186
73	0xbdfe1c25	-0.12407712
74	0x3e6d2664	0.23159176
75	0x3bcd814d	0.0062715174
76	0x3df0e69c	0.11762735
77	0xbe137eec	-0.14403886
78	0x3d0f1724	0.034934178
79	0x3e880fb6	0.26574486
80	0xbe0bebb5	-0.13664134
81	0x3d28857c	0.041142926
82	0xbe48e2f0	-0.1961782
83	0x3d65a196	0.056062303
84	0x3e3299a0	0.17441416
85	0x3d6211f2	0.055192895
86	0x3e2a23b3	0.1661518
87	0x3e758206	0.23975381
88	0xbd1f5fa4	-0.03890957
89	0x3bd41894	0.0064726565
90	0xbe3bb53f	-0.18330859
91	0x3dea89ec	0.11452088
92	0x3e54ab52	0.20768479
93	0x3dea0acb	0.1142784
94	0x3e8c7683	0.27434167
95	0x3c2497e6	0.010045981
96	0x3e8cc758	0.27495837
97	0x3e85f024	0.26159775
98	0xbe34c9d9	-0.17655124
99	0x3e5b5663	0.21419673
100	0xbe551be7	-0.20811425
101	0xbdacb5ba	-0.08433099
102	0x3e675950	0.22592664
103	0x3e3d7c60	0.18504477
104	0xbd0eeaba	-0.03489182
105	0x3e635fbf	0.22204493
106	0x3e33d56b	0.17561881
107	0x3cfac137	0.03060971
108	0xbd9936a8	-0.07481128
109	0xbe08059d	-0.13283391
110	0xbd18e740	-0.037329912
111	0xbd38948d	-0.045063544
112	0x3d880afa	0.066427186
113	0x3e0f345f	0.13984822
114	0xbe0bfbfb	-0.13670342
115	0xbdcb9bd7	-0.099418335
116	0x3e2321c3	0.15930848
117	0xbe021d35	-0.12706454
118	0xbdd9b142	-0.10629512
119	0x3d8469fb	0.06465527
120	0x3e3569b9	0.17716111
121	0xbb6e0964	-0.0036321515
122	0x3e7c7ee7	0.24657784
123	0x3df72d90	0.12069237
124	0xbd9df0e5	-0.077119626
125	0x3e776d36	0.24162754
126	0xbe637e35	-0.22216113
127	0x3d8c36f7	0.06846421
128	0xbce0aa3c	-0.027424924
129	0x3e10d87a	0.1414508
130	0x3e3b950d	0.18318577
131	0xbd980183	-0.07422163
132	0x3e49ee7c	0.19719881
133	0xbe219d95	-0.15782769
134	0xbd835534	-0.064127356
135	0xbdd3d064	-0.10342482
136	0xbe087455	-0.13325627
137	0x3d86138c	0.06546697
138	0x3dc0931d	0.0940306
139	0x3e46f594	0.19429618
140	0x3c49a910	0.012308374
141	0xbe300269	-0.1718842
142	0x3e5238ee	0.2052953
143	0x3e6eaa07	0.23307048
144	0xbe668254	-0.22510654
145	0x3e405ac0	0.18784618
146	0x3dce6483	0.10077765
147	0xbd978529	-0.07398445
148	0x3e784229	0.24243988
149	0x3d5417d7	0.051780548
150	0x3cf8e5d9	0.030383037
151	0xbe1bc352	-0.15211228
152	0xbdd95d25	-0.10613469
153	0x3e59954d	0.2124836
154	0x3e356a72	0.17716387
155	0x3d36fa31	0.044672195
156	0x3d4e68bf	0.050392862
157	0x3e684b23	0.22684912
158	0x3d85c976	0.06532566
159	0xbcba5e5e	-0.022750076
160	0xbd9a13cc	-0.07523307
161	0x3d9e90cf	0.07742464
162	0xbde3c0c3	-0.11120751
163	0x3d255f93	0.04037435
164	0xbe0bb082	-0.13641551
165	0xbc716c8c	-0.014735352
166	0xbe050b59	-0.1299261
167	0x3e5c6cf7	0.21525942
168	0x3d7d9e74	0.06191869
169	0xbd182644	-0.037145868
170	0x3e19272a	0.14956346
171	0x3d98ad61	0.074549444
172	0x3dc941fa	0.09827037
173	0xbe425724	-0.18978554
174	0x3e16eb28	0.14738142
175	0x3cd4279a	0.02589779
176	0x3e6c8306	0.23096856
177	0x3da5050c	0.08057603
178	0x3cc27ea3	0.023742026
179	0xbe4dd513	-0.20100813
180	0xbc291b29	-0.010321417
181	0xbe25fb43	-0.1620913
182	0xbe50c0f3	-0.20386104
183	0xbe21b77a	-0.15792647
184	0xbc43de72	-0.011954891
185	0xbdbefcb2	-0.093255416
186	0x3df5fe39	0.1201138
187	0xbe16ed8b	-0.14739053
188	0x3bc2a611	0.005940207
189	0x3e57d579	0.21077527
190	0xbd837def	-0.06420504
191	0xbbcb80fa	-0.0062104436
192	0x3ca5e8eb	0.020252666
193	0x3e6575df	0.22408246
194	0x3def57eb	0.11686691
195	0xbd630f6d	-0.055434633
196	0x3e7565df	0.23964642
197	0xbe1159f0	-0.14194465
198	0x3de54c9a	0.11196251
199	0x3e22b0a8	0.15887702
200	0x3e2c1913	0.1680644
201	0xbe339704	-0.17538077
202	0x3d9f1942	0.077684894
203	0x3d5eb2b3	0.05436964
204	0x3e39715c	0.1810965
205	0x3b49ad85	0.0030773592
206	0x3d09386b	0.03350107
207	0x3cf14979	0.02945398
208	0xbc86747c	-0.016412966
209	0xbe6d1706	-0.23153314
210	0xbe1c5eef	-0.1527059
211	0x3db5e8ec	0.08882317
212	0x3db466e3	0.088086866
213	0x3db5c662	0.08875729
214	0x3e228a2b	0.1587302
215	0xbe4f5584	-0.20247465
216	0x3e235a38	0.15952384
217	0xbe0009fb	-0.12503807
218	0xbe24239a	-0.16029206
219	0x3de34c4b	0.11098536
220	0x3db6dbef	0.08928668
221	0x3e46f0eb	0.1942784
222	0x3e46030c	0.193371
223	0x3df1a2c5	0.11798624
224	0x3e847832	0.25872952
225	0x3c9823ce	0.01857176
226	0xbe49f35f	-0.19721745
227	0x3dee8bab	0.11647733
228	0x3db136ce	0.08653031
229	0x3df9207c	0.12164399
230	0xbdd7b53f	-0.10532617
231	0xbd42da5a	-0.047571518
232	0x3d80e621	0.062938936
233	0xbdf31393	-0.11868968

7.bias f4 [13]
0	0x3d9ed2c3	0.07755043
1	0x3e0d0e2e	0.1377494
2	0x3d46e437	0.048557486
3	0x3e8152c9	0.25258473
4	0x3e5e932b	0.21735828
5	0xbc891de5	-0.016737888
6	0xbe02d84b	-0.12777822
7	0xbe26f9ea	-0.16306272
8	0xbe2f494a	-0.17117801
9	0x3d00f627	0.03148475
10	0x3d29abbd	0.041423548
11	0x3e334214	0.17505676
12	0x3e68c31f	0.22730683
