results/PokerGPU/poker_qnet_final.pth (torch, 10187 bytes, 8 tensors)

0.weight f4 [23, 27]
000000 06 c1 1b 3e f8 77 33 3e 5c 54 a0 3d 82 8f d3 3d
       0.15210351 0.17526233 0.0782859 0.10330106
000010 c0 94 14 be 7a 0b 5d 3c 5f fa 9d bc 8c 72 81 3d
       -0.14509869 0.013491506 -0.019284425 0.06320676
000020 37 3d 49 3e 8e 7b b9 bd f5 c6 5e 3d 02 95 8b 3d
       0.19652258 -0.09056769 0.05438896 0.0681553
000030 c8 d8 a3 bc b9 2e 51 be 17 d8 01 bd 3b 7a b4 bd
       -0.02000083 -0.2042798 -0.03170022 -0.08812376
000040 f1 91 cb bd 6e 85 18 bc ff 41 ae 3d 7d e9 36 bd
       -0.099399455 -0.009309156 0.085086815 -0.044656266
000050 41 b2 22 3c 60 c5 85 be 70 20 7a 3d 96 83 a3 3b
       0.009930194 -0.26127148 0.06106609 0.0049900515
000060 31 d1 91 3c de 04 b1 3c 4d 27 97 3d f7 38 1a be
       0.017799946 0.021608766 0.07380543 -0.15060793
000070 81 67 1a be 2e af ad bd 16 c6 0a bd 09 ac 2b be
       -0.15078546 -0.084806785 -0.033880316 -0.16764845
000080 76 be b9 bc 64 d3 1d 3d 06 e4 1b be 63 ab 3e 3e
       -0.022673827 0.038531676 -0.15223703 0.18620066
000090 42 d7 f8 bd e2 b1 0d be 24 9b b4 3c 54 cd 40 bd
       -0.12150432 -0.13837388 0.022046633 -0.047070816
0000a0 45 5b 22 3e 2f 42 7f bd 2b 3a 43 be 22 ec 25 3e
       0.15855129 -0.062318977 -0.19065158 0.16203359
0000b0 48 2e 3c 3e 2e 67 1d bc 76 98 4d 3d f5 e0 86 3d
       0.1837703 -0.0096071195 0.050194226 0.06585876
0000c0 ea ab 11 be c7 b8 b1 3d da f6 a7 3d 1e 4a 97 bd
       -0.14225736 0.086778216 0.0820138 -0.073871836
0000d0 d4 f1 ab bd 29 f7 81 3d a6 ab f4 bd 31 9d c9 3d
       -0.083957344 0.0634597 -0.11946802 0.09844435
0000e0 df be 9e 3d 0e fd 03 3b 47 fe e8 3d 85 ba 07 3e
       0.077512495 0.0020139846 0.113766246 0.13254745
0000f0 74 14 50 bd 4e ee d8 39 7b 6b 96 bc 54 4e a3 bd
       -0.050800756 0.0004137628 -0.018361798 -0.07973924
000100 5f 38 66 3d 53 bb 9c bc 33 a0 14 be 3e f5 34 bd
       0.056206103 -0.019132292 -0.14514236 -0.044179194
000110 fe ec 13 3e f2 e2 12 be e1 f0 32 bc e5 a8 b7 3d
       0.14445874 -0.14344385 -0.010921688 0.08967761
000120 32 d7 49 3d 11 ad 84 be 8b 5a 03 3e 90 85 3b 3e
       0.049277492 -0.2591329 0.12827508 0.18312669
000130 a6 42 89 bd a2 c5 7a 3e a7 0b c6 3d 16 c3 06 be
       -0.06702165 0.24489453 0.09670191 -0.13160357
000140 1a 13 52 be 7e e9 be 3d 54 80 a8 bd f1 70 b1 3d
       -0.20515099 0.09321879 -0.08227602 0.0866412
000150 9c a0 80 3c 6b dc aa 3e fa 92 43 3c 86 91 0d be
       0.015701585 0.3337129 0.011936897 -0.13825044
000160 9f 84 b8 3d b9 db f4 3c 1f 3d f1 3d 94 97 80 3d
       0.090096705 0.029889928 0.11779236 0.06278911
000170 98 39 c7 bd e8 3f f9 bd 71 02 09 be 07 7a 9d 3c
       -0.09727782 -0.12170392 -0.13379838 0.019223226
000180 ff 60 c3 bd 1e 36 90 bd 9a 26 99 bc 78 77 c6 bd
       -0.09539985 -0.07041572 -0.018695164 -0.096907556
000190 07 25 04 bf 50 cf f0 3b 78 a8 02 be f7 16 c9 be
       -0.51619 0.0073489323 -0.12759578 -0.39275333
0001a0 ce 97 26 bc 22 70 9d bd 62 aa b0 be 12 2a 3c 3d
       -0.010168029 -0.07687403 -0.34504992 0.04593856
0001b0 02 3d c3 bc 0f 5f 9e 3b a8 8b 0d be 42 cf a3 bc
       -0.023832802 0.004833109 -0.13822806 -0.01999629
0001c0 9c 2c 07 bf 08 0b d6 bd 53 14 53 3c 7b 7e 92 be
       -0.52802444 -0.10451323 0.012883264 -0.28612122
0001d0 12 dc c5 bb d8 3d 14 3d 96 e8 83 3d e5 1a 98 3d
       -0.0060381973 0.03619179 0.064408466 0.07427005
0001e0 38 1f 0e 3e 98 9f 8e 3e ae 67 7f 3b 29 a9 e5 bd
       0.13879097 0.27856135 0.003897171 -0.11213905
0001f0 ff 78 da 3d c0 a7 17 be b5 22 45 3c db 8d e2 3e
       0.106676094 -0.14810085 0.012032201 0.44248852
000200 cb a1 45 bd 40 de c1 3d ce ff a4 3e 2f 46 4b 3e
       -0.04825 0.09466219 0.32226413 0.19850992
000210 2e 1b fb bd 13 67 4c be 6a 40 a8 bd 8b af 8f 3d
       -0.122610435 -0.19961195 -0.08215411 0.07015904
000220 75 62 19 3e f0 af a8 3c 3d b7 4e be 53 e8 9f bd
       0.14978965 0.020591706 -0.20187087 -0.07807984
000230 ac c5 c1 3c 8b 62 7f 3c 0f a2 9b bc a5 1c f0 3d
       0.023653828 0.015587459 -0.018998174 0.117242135
000240 f0 91 c6 bd 80 e8 1a be 2f 32 0d 3e be 1f 17 bd
       -0.09695804 -0.15127754 0.13788675 -0.036895506
000250 27 97 49 be a1 e5 2f be 64 be ae 3d ba 5e de be
       -0.19686566 -0.1717744 0.08532408 -0.43431646
000260 6e d6 90 be 16 7d cb 3d b0 51 99 be 69 8e 44 3e
       -0.28288597 0.099359676 -0.29945135 0.1919495
000270 17 08 2a be 9e 53 a0 be a3 bb 15 3e f0 33 ff bd
       -0.16604649 -0.31313795 0.14622359 -0.12461078
000280 9b f7 5b be 33 06 80 3d ae e0 c5 3d 10 12 bc 3d
       -0.21481173 0.062511824 0.09661995 0.09183133
000290 35 53 7f 3d 7d fa 31 bd 60 c2 47 3d f1 68 2e bc
       0.06233521 -0.043451775 0.048769355 -0.010645137
0002a0 d4 68 07 bd 64 ed 88 3d cb b7 8c 3d 39 7c a5 bd
       -0.033058956 0.06685904 0.06870993 -0.08080334
0002b0 41 82 df bc 16 2e d0 3d 07 30 e7 bc 78 d3 9e be
       -0.02728379 0.1016504 -0.028221143 -0.31020713
0002c0 29 15 b7 3d 6d f6 15 be 86 8f bf be 19 4f 66 be
       0.08939583 -0.14644785 -0.37414187 -0.22491111
0002d0 a1 d6 1b 3e 04 7d 03 be a5 34 84 bc 33 00 23 3e
       0.15218593 -0.12840658 -0.016138384 0.15918045
0002e0 be 7b 60 be 82 48 cc 3c 1a 03 01 3e 25 90 40 be
       -0.21922204 0.024936918 0.1259884 -0.18804987
0002f0 8f c7 ec bb be 27 5e 3d 9e 07 a7 ba 86 db cf 3d
       -0.0072259377 0.05423712 -0.0012743359 0.10149293
000300 1f f7 d9 bd 21 05 5a be 91 b5 cd bc 7e 64 26 3c
       -0.10642838 -0.21291019 -0.025110992 0.010155795
000310 f0 b3 c2 bd 99 92 7a 3c f4 bb 05 3e c7 7f 95 bd
       -0.095069766 0.015293741 0.1305998 -0.07299762
000320 f7 b6 ea bd a0 d0 23 3e f8 55 bb 3e 33 60 40 3d
       -0.11460679 0.15997553 0.36589026 0.046966743
000330 21 3e 7d 3d 81 5c a9 3e 9c fc ab bd 6a c3 36 3e
       0.06182683 0.33078387 -0.08397791 0.17847982
000340 9d 5a f0 3e 7c 65 81 3e cf 46 5e 3c 8f f5 f5 3e
       0.46944132 0.2527274 0.013566687 0.4803891
000350 6b 75 22 3b a2 47 86 bc ae b4 d5 3d b7 13 fa 3d
       0.0024789225 -0.016391579 0.104348525 0.122107916
000360 15 bd bf 3d b3 e3 0c be 5c 53 9b 3d 78 d1 d9 bd
       0.093622364 -0.13758735 0.07584259 -0.10635656
000370 82 f8 5b 3e 04 b7 59 bd e0 7f e4 3d 47 38 a6 3d
       0.21481517 -0.053153053 0.11157203 0.08116203
000380 55 ba 08 be d9 b3 ba bd 70 63 cf 3d 2a ec e1 bd
       -0.1335233 -0.091163345 0.10126388 -0.11031373
000390 9f 6d 52 3e 51 3a a4 be 2a 9a 4f 3d b6 f7 0f be
       0.2054963 -0.32075742 0.05068413 -0.14059338
0003a0 1c 1d 1f be e9 e2 6e 3e af 64 b1 bc ee 80 0f be
       -0.15538448 0.23328747 -0.021654455 -0.14014027
0003b0 fa 44 e1 bc d9 5e 91 bd 88 b4 ec bd 7f e1 1c 3e
       -0.02749871 -0.07098169 -0.11557871 0.15320395
0003c0 df 1d 38 3e 57 90 a0 be 5f 91 dc 3c e4 2c df bd
       0.17980145 -0.31360123 0.026924787 -0.10897234
0003d0 97 57 96 bd ef 0c 99 bd fc 55 6d 3d b2 9d 20 3e
       -0.07340925 -0.0747317 0.05794333 0.15685156
0003e0 25 fc 72 3d 76 4d 64 bc dc ad 59 3d cc 16 23 3e
       0.059322495 -0.013934484 0.05314432 0.15926665
0003f0 ae 4a 53 be db 51 9c bd 46 90 29 3e 6e 1c 46 3e
       -0.20633957 -0.076328 0.16558942 0.19346783

0.bias f4 [23]
000000 3b 91 6c bd b5 ef fd 3d fe 47 72 3d 77 b3 d2 bd
       -0.05775569 0.12399236 0.05915069 -0.102881365
000010 c3 43 08 be d3 61 13 be a6 18 21 be 0d 36 06 be
       -0.13307099 -0.14392786 -0.15732059 -0.13106556
000020 40 36 34 3e e6 4e 40 3e b5 c6 b0 3c bf dd 9a 3c
       0.1759882 0.18780097 0.021579126 0.018904565
000030 e5 52 98 3b 4a 8b 13 be ca 1e 48 3d cc 15 cd 3d
       0.0046485537 -0.14408603 0.048857488 0.10013923
000040 3a 21 45 3e 85 63 37 3e 67 54 2c 3d 1c 58 b0 bd
       0.19250956 0.17909057 0.04207268 -0.086105555
000050 6b 28 ab bd 3d 66 33 bd aa 2b 40 be
       -0.083573185 -0.043798674 -0.18766657

2.weight f4 [19, 23]
000000 c4 2c 2c be 92 40 b8 3d fa d5 28 bd 5e dc 0a 3c
       -0.16813952 0.08996691 -0.04121969 0.008475391
000010 cc 9b b6 3c fd e1 56 3d 63 12 63 bd 41 66 f0 bd
       0.022291087 0.052461613 -0.055437457 -0.117382534
000020 b1 a2 14 3c bc ff 8b be 37 25 1e bd 48 77 d1 bd
       0.009071992 -0.27343547 -0.03860971 -0.10227829
000030 b3 27 f2 3d a1 0e 65 bd e1 77 2b 3d dd 08 e8 bd
       0.11823978 -0.055922154 0.041862372 -0.113298155
000040 38 ef 0a 3e 5d bd 35 3e 04 0a 80 3d 91 8a 49 be
       0.13567817 0.17748018 0.0625191 -0.19681765
000050 ea 2b f7 3d 59 3b 00 3d 87 d1 4e bc 12 78 a9 bd
       0.12068923 0.0313066 -0.012623197 -0.08274855
000060 89 f2 22 3e b3 19 a9 bd 0b c8 58 bc ff 0b ad bd
       0.15912832 -0.08256855 -0.013231288 -0.08449554
000070 d2 8d 7c be 33 a4 c1 3d 21 92 44 be ca 0c 7e 3b
       -0.24663475 0.09455147 -0.19196369 0.0038764947
000080 25 56 23 3e 32 d1 d6 bd 59 25 22 3e 08 ff 01 be
       0.1595083 -0.104891196 0.1583456 -0.12694943
000090 8a c0 6f 3e 7e 6b 99 3d 24 79 cd 3c fa f5 a6 bd
       0.23413292 0.07491206 0.025082178 -0.08152385
0000a0 a9 f2 d4 3d 13 92 6f bd 24 f8 5a bd 48 30 93 bd
       0.10397846 -0.058488917 -0.0534593 -0.07186943
0000b0 7a 27 98 bd c4 31 1c bd ef 7b 8d bc 12 f3 51 3d
       -0.074294046 -0.038133398 -0.01727101 0.0512572
0000c0 23 c6 2c 3e 65 8c a3 bd 12 b7 7b 3e 12 4f 5b be
       0.16872458 -0.079857625 0.24581555 -0.21416882
0000d0 ba 98 cd bd 79 52 8a 3d d4 0b 85 bd 24 ec 22 be
       -0.10038896 0.06754012 -0.06496397 -0.15910393
0000e0 9d 49 22 3e bf 37 4e 3d a4 73 6f 3e 99 a1 ad 3d
       0.15848394 0.050346132 0.23383957 0.08478088
0000f0 35 bb 61 3c 7f 10 7f bd 31 62 a5 3d b6 5e b9 3d
       0.013777544 -0.06227159 0.08075369 0.09051268
000100 75 15 0c bd 88 70 b3 bd ce 1b 5a 3d 98 2f 5a 3c
       -0.03420015 -0.08761698 0.053249173 0.013317011
000110 bf 08 04 3e 73 76 80 be 1a 10 4e be fb a3 64 bd
       0.12893961 -0.2509037 -0.2012333 -0.055820446
000120 87 f2 95 be 7c 8b ba 3d 04 a5 9b bd 04 2b 4b bd
       -0.29286596 0.09108636 -0.075998336 -0.04960157
000130 c9 53 c7 bc fc fd cd bd 58 31 fc 3d 8e ed d7 3d
       -0.024331944 -0.10058209 0.12314099 0.10543357
000140 99 9d 02 be 0e 12 2d 3e 1f a1 78 3e 42 e1 26 3e
       -0.12755431 0.16901419 0.24280213 0.16296867
000150 9a 6c 59 be bb 03 39 3e be a5 52 3e 29 7e f7 bd
       -0.21232834 0.1806783 0.20571038 -0.1208461
000160 67 2c 49 3e 73 31 d7 3d 04 23 db 3d 52 1b 90 3c
       0.19645844 0.105074786 0.10700038 0.017591152
000170 72 30 e5 bc eb 67 2a be ae 51 0b bc 4b e7 bb bd
       -0.027977202 -0.16641204 -0.008503361 -0.09174975
000180 7b 93 04 be a5 93 11 3e b6 12 22 bd 7d 18 ef bd
       -0.12946884 0.14216478 -0.039568625 -0.11674593
000190 07 be 9e bd 4f 44 6e bd 1a 19 3a be 89 9a c3 3b
       -0.077510886 -0.058170613 -0.18173638 0.0059693498
0001a0 29 5a 29 bc 43 e7 a9 3d cf 42 01 3e f3 1e df bc
       -0.010336437 0.08296063 0.12623142 -0.027236437
0001b0 b9 c9 e1 bd 3a 95 19 be 0f 1b 3f be ab 64 bd 3d
       -0.11024804 -0.14998332 -0.18662666 0.092477165
0001c0 8d 06 e9 bb e6 75 f3 bd 5e 65 c4 3d 8f cd 9d be
       -0.0071113766 -0.11887722 0.09589647 -0.3082089
0001d0 2a ba 31 be 7e 97 aa bb de 89 cb bd b0 d1 3b 3e
       -0.17356172 -0.0052060476 -0.099384055 0.18341708
0001e0 95 ad 52 bb 3e ea ad bd b1 a5 42 3e ef 70 1c 3d
       -0.003214692 -0.08491944 0.19008519 0.03819364
0001f0 86 bd 22 be ee 71 4a 3d dd 8f cf 3c 40 4c 59 3e
       -0.1589261 0.049425058 0.025337154 0.21220493
000200 8d 00 b0 bc 8b 86 e3 3d 43 84 4c bd c6 22 30 3e
       -0.021484638 0.111096464 -0.049930822 0.17200765
000210 3e ba 15 bd 69 12 13 be ae e2 d5 3d 0f 07 0f 3e
       -0.036554568 -0.14362492 0.10443626 0.13967536
000220 86 17 0f be 80 ed 49 bb 5a d5 c1 bd 8d 90 c4 3d
       -0.13973817 -0.0030811727 -0.09464522 0.095978834
000230 bf b0 56 3c aa 97 04 be 1b d2 6a 3d 32 f8 41 be
       0.013103663 -0.1294848 0.05732928 -0.18942335
000240 a7 4c 70 bd dc 01 0e 3e da 0c 2a bd 2e d6 25 3e
       -0.05866685 0.13867897 -0.041516162 0.16194984
000250 4e f5 e7 bd 97 44 81 3c f4 ab 12 3e 95 b4 53 bd
       -0.11326085 0.015779776 0.14323407 -0.05168589
000260 bc 62 7c bd 9f e3 00 be cc b9 bf 3b 2f 36 3d bd
       -0.061617598 -0.1258683 0.005851006 -0.04619425
000270 25 8d ee 3d 38 d9 67 3d e3 05 09 be 6a 99 56 3e
       0.11648015 0.05660364 -0.13381152 0.2095696
000280 08 ee 70 3e dd 74 5e 3e 32 a7 28 be f9 04 54 be
       0.23528302 0.21724267 -0.1647003 -0.20705022
000290 af e4 df bd 28 dd 2c be 62 d4 44 be 0f ab 53 3e
       -0.1093229 -0.1688124 -0.19221643 0.20670722
0002a0 f2 dc 8b bd 43 1f 82 be fb 6a 44 3e 13 97 9d bd
       -0.06829251 -0.25414476 0.19181435 -0.07694831
0002b0 a8 47 53 3d 12 b1 89 bc 01 40 3c 3e cc 8c 6b 3d
       0.05158201 -0.016808067 0.1838379 0.05750732
0002c0 3c b1 e1 b9 f2 d6 ee 3d 74 76 ef bb 88 0a c4 bc
       -0.00043047394 0.11662091 -0.007307822 -0.023930803
0002d0 5d 31 29 bd 7d 32 f0 3d 91 6c 88 3d 2f 36 55 3c
       -0.041306842 0.1172838 0.066613324 0.013013407
0002e0 39 63 16 be 85 a8 4e 3e 16 ae 5e bb eb 7f a4 bc
       -0.14686288 0.20181473 -0.0033978275 -0.020080527
0002f0 cb 0a 1e bc 15 5c 71 bd 9f 1b 52 bd c1 3e af bc
       -0.009646128 -0.058925707 -0.051295873 -0.021392228
000300 b9 4b 68 bd 6b 12 12 3e 44 f4 0e 3e c1 ae 18 3e
       -0.05671284 0.14264838 0.13960367 0.14910413
000310 74 8b 35 3c 4f 41 76 3c e6 c2 98 bd 97 ef 2a bd
       0.0110806115 0.015030219 -0.07459049 -0.041732397
000320 70 6b cd bc fc ca b0 3d ac cf b3 bd 98 2e 2e bc
       -0.025075644 0.08632466 -0.08779845 -0.010631226
000330 e2 b3 a6 bd d2 46 bf 3d 3b cf 36 3e dd df 04 bd
       -0.08139779 0.0933968 0.1785249 -0.032440055
000340 25 16 de 3d 3e 97 4f bd 55 2c 95 bd 49 67 47 3d
       0.108440675 -0.050681345 -0.07283846 0.048682485
000350 2f 86 02 be 13 17 5b be 74 24 b2 3d eb ae 6b be
       -0.127465 -0.21395521 0.08698359 -0.23015945
000360 60 79 76 3c 90 1b 5b be f9 7a 2f bb 39 4e 53 3d
       0.0150435865 -0.21397233 -0.0026776178 0.05158827
000370 1a 7d 4d 3e 7d ff 1c 3e 90 8d b2 3d 3e fe 56 3e
       0.20067254 0.15331836 0.08718407 0.20995423
000380 aa 79 c6 3d f1 74 47 be a1 83 66 3e e1 ee 64 3d
       0.09691174 -0.19478203 0.2251115 0.055891875
000390 9a e9 00 be 7a 20 3a 3e 79 95 5e 3d 55 14 4e bd
       -0.12589112 0.18176451 0.054341767 -0.05031236
0003a0 79 de e8 bd 09 67 4a be 79 5e 12 bd 3d ef 17 3c
       -0.11370558 -0.19765867 -0.035734627 0.009273347
0003b0 8f 94 c7 ba d0 db 36 be 2b 5d 90 bc 58 27 61 3d
       -0.0015226769 -0.1785729 -0.017622551 0.05496916
0003c0 72 0e ff 3d 8e cc 63 bd 82 00 b0 3d 3b ef 04 bd
       0.12453927 -0.055615 0.08593847 -0.03245471
0003d0 4f 4e 9e bc 18 ae 16 be 43 02 fb bc 26 a0 5d bc
       -0.01932445 -0.14714849 -0.030640727 -0.013526952
0003e0 d8 c6 55 bd 5c ff 5d be 69 4f f9 3c 41 d3 f8 bd
       -0.052191585 -0.21679443 0.030433374 -0.121496685
0003f0 9f 1b 1f 3e e7 36 e8 bd eb 91 0c bd 3e 19 82 be
       0.1553788 -0.11338597 -0.034318846 -0.25409883

2.bias f4 [19]
000000 5e 13 2a 3e 21 78 6c bd 74 be ef bc bf 41 98 bd
       0.1660895 -0.05773175 -0.02926562 -0.07434415
000010 a4 3a 2d 3e a7 76 70 3e 73 5c 4a bc 4f a1 62 bd
       0.16916901 0.23482762 -0.012351143 -0.055329617
000020 a3 d4 b3 3c ff 83 08 bd ce 7f 17 bd cd 61 a0 bc
       0.021951979 -0.033329006 -0.03698712 -0.019577885
000030 74 36 c0 3d 1f c3 bf 3d 9a b7 65 3b 84 78 9d 3d
       0.09385386 0.09363388 0.0035052062 0.07689002
000040 b2 bb 39 3e 3c fc 45 bd e3 a0 1b 3d
       0.18138006 -0.048336253 0.03799523

5.weight f4 [16, 19]
000000 e4 14 ba bc c5 d6 49 3d 3c db 16 be a2 16 71 be
       -0.02271504 0.049277086 -0.14732069 -0.2354379
000010 b1 ff 58 be 85 ee 52 bc 9a b5 61 bc b6 73 86 3e
       -0.21191289 -0.01287425 -0.013776207 0.26260155
000020 78 07 1c bc da 6c 41 bc 96 bf 54 be 34 87 00 be
       -0.009523265 -0.011805737 -0.20776209 -0.12551576
000030 47 62 72 bc 73 ed 9e bc 95 51 7a be ce a9 60 bb
       -0.014793939 -0.019400334 -0.24445184 -0.00342809
000040 40 94 51 bc 9c 79 55 3e 59 43 61 be 2d 7c 9c bb
       -0.012791693 0.20847172 -0.21998347 -0.004775545
000050 0b 02 72 3e fb 70 8d be fe 0c c5 ba 41 9b f6 3d
       0.23633592 -0.2762526 -0.0015033779 0.12041331
000060 c8 07 e7 bb b9 6c cd bc d2 9d 21 bc 01 d1 14 be
       -0.007050488 -0.025076257 -0.009864287 -0.14532854
000070 c1 57 b9 bc 98 f5 a0 bc a0 6c 25 bc 9e 22 c6 bb
       -0.022624852 -0.019648358 -0.010096699 -0.006046607
000080 55 0f 51 bc 6d 13 f8 ba 88 d1 f7 bb 94 99 ce bb
       -0.012760003 -0.0018926688 -0.00756282 -0.006304929
000090 be a9 21 be fc 99 50 bd cc ee 5b 3e 7a c2 1b 3d
       -0.15787408 -0.0509281 0.21477813 0.038027264
0000a0 89 c3 0f 3e f9 29 a6 bd b2 16 f9 bd e4 b3 28 3d
       0.14039434 -0.081134744 -0.12162532 0.041187182
0000b0 a8 6e b5 bc b1 7e 6f bc 2d 08 4a bc 49 60 60 3e
       -0.022147492 -0.014617608 -0.012331051 0.2191173
0000c0 5a de 1b bd d8 65 3e 3e 6b 98 17 3e 60 db 4a 3d
       -0.038053848 0.18593538 0.14804237 0.04952562
0000d0 4c 6b 38 bd d4 73 14 3e 75 10 ac 3d 0d ab 7d 3d
       -0.0450242 0.1449731 0.084015764 0.061930705
0000e0 c0 1d 30 3c eb 5d 9a 3d 99 ad 20 3e e4 3b 8b be
       0.01074928 0.07537445 0.15691222 -0.2719413
0000f0 d3 0c 3d 3e 3b 1d bb bc ec 44 80 3d d6 ab 48 3d
       0.18461923 -0.022841087 0.06263146 0.048992
000100 a1 a7 87 bd 89 f5 31 3e 3c 51 ef b9 8d 56 9b bc
       -0.066237696 0.1737882 -0.00045646157 -0.018962169
000110 a1 32 2c 3e 4c c1 16 3e 53 02 4b bc 0f 66 12 be
       0.16816188 0.14722174 -0.012390691 -0.14296745
000120 53 6d 1b 3e af 84 36 be 5f 03 43 3e 9d ba c5 be
       0.15178423 -0.17824052 0.19044255 -0.38618937
000130 3e 83 79 3e 90 ce 32 3e ef 0a c2 be 56 17 a7 be
       0.24366471 0.1746161 -0.37898967 -0.3263499
000140 a3 38 1f be 4e 1a b5 3d cf 1b c8 3e 8c 9a 04 be
       -0.15548949 0.08842908 0.39083716 -0.1294958
000150 60 ea f3 3d fb d6 0f 3e a7 a9 00 3d 1c 3a 9a bc
       0.11909938 0.14046852 0.031411793 -0.018826537
000160 2e 50 03 3e 49 1a f4 3d 18 4a f3 bc eb f5 03 3e
       0.12823555 0.11919076 -0.029698417 0.12886779
000170 35 fc 76 3c 2f 57 17 be ab dd 55 be 19 dd 4f bc
       0.015074779 -0.14779352 -0.20885341 -0.012686991
000180 87 40 fb 3d c4 6c ac be f2 f5 90 bc 29 25 d6 3d
       0.12268167 -0.33676732 -0.0176954 0.104563065
000190 75 1f 32 bc f0 c2 b3 bc 89 9d 67 bb b8 08 32 bc
       -0.010871758 -0.02194354 -0.00353417 -0.0108663365
0001a0 36 20 6b bc 74 dd 52 3e e3 4d a0 bc ab b0 58 bc
       -0.014350941 0.2059229 -0.01956839 -0.013225715
0001b0 df a7 3a bc ed 54 d7 bb 40 23 8a bc 9a 81 06 bc
       -0.011392563 -0.0065714032 -0.016862512 -0.00820961
0001c0 bf 7f f8 3d 7d 1b 1f be e0 0b 28 3c 43 11 5a 3e
       0.12133741 -0.1553783 0.0102567375 0.21295647
0001d0 b5 5b 87 bd a6 5f 15 3e 3c 44 a4 3d 72 7d 0c be
       -0.066092886 0.14587268 0.08020827 -0.13719729
0001e0 52 1a a1 3c 02 81 3c be 7c e7 98 3d b1 db 4f 3d
       0.01966587 -0.18408588 0.07466027 0.050746623
0001f0 3b 11 af 3e c9 aa 69 be f9 ca eb bd f5 9a bb 3c
       0.34192833 -0.22819056 -0.11513323 0.022901038
000200 7a 42 75 bd cd ce 0d 3c f4 ab 1f 3e b9 d5 60 bd
       -0.05987785 0.008655262 0.15592939 -0.05489132
000210 59 3a 6f bd 2e a1 db bd 75 2f cc 3e ec 46 53 3e
       -0.058405254 -0.10724102 0.39879957 0.20632523
000220 0b 39 0c 3e 94 c5 bd 3d ff bf 5a 3e b2 cc 48 bc
       0.13693635 0.09266201 0.21362303 -0.012255834
000230 7c 48 88 be 0d ec f0 bd f0 16 8a bc ce fc 4b 3e
       -0.266178 -0.11763773 -0.01685664 0.19920656
000240 38 4b 4b be 06 09 ee 3c be c8 3d 3e d8 9b 52 bd
       -0.19852912 0.029057037 0.18533608 -0.051418155
000250 2c d2 26 be 98 68 ce bd 76 18 d4 3d 38 95 8f 3d
       -0.16291112 -0.100785434 0.10356228 0.07010883
000260 7e ee f6 bc 67 f4 be bd de 5e 22 3e a9 ca 91 be
       -0.030143019 -0.0932396 0.15856501 -0.2847493
000270 0d b4 68 be e5 c4 1b be 0b 91 2c 3e 04 e0 c4 bb
       -0.22724934 -0.15211828 0.16852205 -0.00600815
000280 17 de 4d 3e 4a 62 93 3d fa bf 89 be 82 5c 85 3d
       0.20104252 0.071964815 -0.2690428 0.06511785
000290 6e fb 8c 3d c7 70 f9 3b c6 16 9b 3d e5 4b 60 3e
       0.06883894 0.007612321 0.07572703 0.21903951
0002a0 ff 6a 0f be 0f f8 e2 3d 83 19 2b be 99 b7 82 be
       -0.1400566 0.1108247 -0.1670895 -0.255307
0002b0 82 21 c1 be c7 79 07 be e2 d5 51 be 02 ea ef bd
       -0.37720877 -0.13230048 -0.20491746 -0.11714555
0002c0 fa ac 3b 3e 0a 8c 02 be c7 c1 91 bd ff e9 d7 bd
       0.18327704 -0.12748733 -0.07117038 -0.10542678
0002d0 11 be 85 3e 96 21 b6 bc ad c5 ce 3c d8 57 89 bd
       0.26121572 -0.022232812 0.025240744 -0.06706208
0002e0 26 de 17 3e e3 cf c9 3d 28 52 b3 bd bc c7 0f 3e
       0.14830837 0.09854104 -0.087559044 0.14041036
0002f0 46 87 d1 3d d9 e2 da be 1f cf 30 3d 03 c8 9a bd
       0.102308795 -0.42751196 0.043166276 -0.075576805
000300 15 82 10 3e 0d d0 53 3c 0d 66 e1 3d 56 16 59 bc
       0.14112122 0.012928021 0.11005793 -0.013249954
000310 6d 20 3f bd 25 cc 5a be 8c ec 41 3d bb 41 3a 3d
       -0.046661783 -0.21366937 0.04734473 0.04547284
000320 c9 f8 4a 3e 8d 89 0e be 1f 2e 80 3d 18 db 09 3e
       0.19821467 -0.13919659 0.06258797 0.13462484
000330 82 48 a7 3d 02 82 fd bd ea 52 80 bd 9f c3 53 be
       0.08168127 -0.12378313 -0.062658146 -0.20680092
000340 b5 bf 3f be e0 0a 13 be b9 7c 0e be 83 24 10 3e
       -0.18725474 -0.14359617 -0.13914765 0.14076428
000350 b1 49 48 3e e1 50 ea bd 84 f0 75 3d 15 42 15 3e
       0.19559361 -0.11441208 0.060043827 0.1457599
000360 fb 69 1a 3e f1 03 ef 3d 31 2d 32 3e 5e 46 31 bd
       0.15079491 0.11670674 0.17400052 -0.043279998
000370 75 eb 60 3d 96 31 87 3b a5 87 eb bd 97 60 d4 bd
       0.05491205 0.004125784 -0.115004815 -0.103699856
000380 e3 44 ef 3d fc cb 6a bc e2 56 24 3e f5 59 f8 be
       0.11683061 -0.01433086 0.16048768 -0.48506132
000390 99 f1 0a 3e d6 89 78 be 67 88 34 3e 0d 5b 83 bb
       0.13568725 -0.2427133 0.17630158 -0.004008657
0003a0 d1 9d 94 bb ba 42 8e 3d 6b f2 20 3b 75 65 13 be
       -0.0045354147 0.06946321 0.0024558555 -0.14394172
0003b0 d0 aa af bb ea cb 4b 3e 23 b9 53 bd fd 51 0c 3e
       -0.0053609386 0.19902006 -0.051690232 0.13703151
0003c0 97 55 8e 3d 08 3a fa bc 25 6b 47 be 63 43 42 3e
       0.06949919 -0.03054525 -0.19474466 0.18971018
0003d0 9e 2e 04 3e c4 27 05 be fa 8e 56 be 45 e9 fb 3d
       0.12908408 -0.1300345 -0.20952979 0.12300352
0003e0 ee be 69 be d3 ac c4 3d 3e 28 f5 bd b3 ea 13 be
       -0.2282674 0.09603276 -0.11970566 -0.14445
0003f0 4b 1b 14 3e a0 bc da 3d 94 46 85 3e 2c 70 10 be
       0.14463536 0.106805086 0.2603041 -0.1410529

5.bias f4 [16]
000000 43 fb 3a be 31 9d eb be 2e d2 ea bd 86 43 13 3f
       -0.18259911 -0.46018365 -0.1146587 0.5752491
000010 2b 4b 41 3f 1f a6 c2 be a4 8c 89 3e f0 2e 24 3d
       0.7550532 -0.38017365 0.26865113 0.040083826
000020 c9 28 7f 3e ac c3 e6 3e 51 de 33 3e e5 c6 4d 3e
       0.24917902 0.4507116 0.17565276 0.20095403
000030 f6 e6 84 3e bb f3 dc 3c 67 78 f0 3e 1d 8f 49 3e
       0.2595746 0.026971688 0.4696686 0.196835

7.weight f4 [13, 16]
000000 75 28 0f be 4b 1e 37 3e 4f 65 ff 3d ca 34 01 3e
       -0.13980277 0.1788265 0.12470495 0.12617794
000010 65 e5 4f 3e c7 47 51 be ec 75 92 3d 93 71 12 3e
       0.20302351 -0.20437537 0.07151398 0.14301138
000020 22 08 48 3e ff 0a e3 3d e0 b6 72 bd 4c 36 fb 3d
       0.19534352 0.11086082 -0.059256434 0.12266216
000030 90 5a 06 bd 90 bb 66 bd 97 e9 24 3e 4c fd e8 3d
       -0.03280121 -0.056331217 0.16104732 0.113764375
000040 3c 13 57 be 6c 1f d4 be 47 b6 b7 bd b4 61 51 3e
       -0.21003431 -0.41430223 -0.089703135 0.20447427
000050 43 9f 91 3e 16 b4 da be 33 6d 63 3e f7 73 fd 3d
       0.2844182 -0.4271552 0.22209625 0.12375634
000060 94 fb 75 3e ce 33 3b 3e ff 32 1f 3e 82 c3 55 bc
       0.2402175 0.1828148 0.15546797 -0.013047101
000070 3f bc 63 3e e2 87 ef 3d ab c3 28 3e 24 a0 36 3e
       0.22239779 0.116958395 0.16480891 0.17834526
000080 8c 12 f5 3c ab fb 9e bd e9 3f e7 3d 4e fd 01 3e
       0.02991607 -0.077628456 0.11291487 0.12694284
000090 c9 e6 7a 3e a3 6f c3 bd 4e ce 0d 3e b1 06 39 3d
       0.245021 -0.095427774 0.1384823 0.045172397
0000a0 c4 3f 4d 3e 7d fb 1a 3e 8b 8c ad 3b 1c 24 db 3d
       0.20043856 0.15134998 0.005296295 0.10700247
0000b0 fb c5 a8 3d 00 a2 38 3d 19 49 c6 3d ca 6f 42 3e
       0.08240887 0.04507637 0.09681911 0.18987957
0000c0 12 e7 ed 3b 4b 45 68 be a7 3f 80 3e 6f 31 13 3e
       0.0072602117 -0.22682683 0.25048563 0.14374326
0000d0 e1 90 5a 3e 4b 6f 97 bd 63 a8 54 3e c8 14 26 3e
       0.2134433 -0.07394274 0.2076736 0.16218865
0000e0 89 35 4c 3e db db 09 3e 81 6d a2 bd 3f fc 8d 3d
       0.19942297 0.13462774 -0.079310425 0.06932878
0000f0 c3 64 aa bd 8b 41 b6 3b c2 84 cf 3d 0b 29 12 3e
       -0.0832 0.0055620125 0.101327434 0.14273469
000100 eb 6b a1 bd a6 1f 82 be 99 c7 36 3e 67 99 10 3e
       -0.07881912 -0.2541477 0.17849578 0.14121018
000110 b4 e3 5a 3e 1c 51 05 be 79 9b 21 3e 10 6b 64 3d
       0.21375924 -0.13019222 0.15781964 0.055766165
000120 98 16 44 3e 55 2f 3e 3e 2a af 19 bc c8 d2 da 3d
       0.19149244 0.18572743 -0.009380141 0.106847346
000130 64 43 0a 3d 28 78 24 3d e5 e7 a5 3d ae cb 39 3e
       0.033755675 0.040153652 0.08100871 0.18144104
000140 67 37 99 3d 2c 55 78 be 5c b0 1a 3b 46 97 18 3e
       0.0748127 -0.2425124 0.0023603654 0.14901456
000150 fd dd 7d 3e 3c ab 39 bd 23 75 2f 3e d2 49 a7 3d
       0.24791713 -0.045329317 0.17134528 0.08168377
000160 4a 7b 5a 3e 2e 27 10 3e f4 7e 63 3d 42 f9 f5 3c
       0.21336094 0.14077446 0.055540994 0.030026082
000170 1a bb 29 3e 83 0d b3 3d d9 8b 00 3e 0a 16 3e 3e
       0.1657528 0.087428115 0.12553348 0.18563095
000180 48 16 90 3d c4 93 8d be 77 52 a9 3d 02 d8 2e 3e
       0.070355 -0.276518 0.08267682 0.17074588
000190 3f a1 6e 3e 4d 19 2f be 13 d5 15 3e 19 93 8a 3d
       0.23303698 -0.17099495 0.14632063 0.06766338
0001a0 2f a5 2a 3e f0 c9 df 3d b1 71 73 3d 91 a0 8e 3c
       0.16664575 0.109271884 0.059434596 0.017410548
0001b0 18 ba 09 3e bb ec 92 3d fa e7 ed 3d 50 80 44 3e
       0.13449895 0.07174059 0.11616512 0.19189572
0001c0 42 54 9f 3d b8 d7 6a 3d 11 67 f3 bc 66 e9 38 3e
       0.07779743 0.05733463 -0.029712232 0.18057784
0001d0 7c c0 5b 3e 6f e3 61 be f9 fb de 3d 4e b2 66 3d
       0.21460146 -0.22059415 0.10887904 0.05632239
0001e0 98 87 31 3e cc 65 0b 3e 00 be f6 3d 2e bf 38 3d
       0.17336881 0.13613051 0.120479584 0.0451042
0001f0 ba 47 2b 3e 94 b0 be 3d 98 8f 2a 3e 7e 8d 1f 3e
       0.1672658 0.09311023 0.16656339 0.15581319
000200 25 f5 b2 3c 4a 2f 0a 3d 2f 33 08 be f2 0c 33 3e
       0.02184541 0.033736505 -0.13300775 0.17485407
000210 1d 5a 70 3e 02 48 98 be 83 f9 b8 3c 04 bb 38 bc
       0.23471875 -0.29742438 0.022579914 -0.011275057
000220 23 dc 25 3e b1 7b f6 3d ef 80 40 3e 1a 6c e1 3d
       0.16197257 0.12035311 0.18799184 0.11006947
000230 f1 cd 63 3e 87 97 18 3e e3 be 59 3e 6c 83 17 3e
       0.22246529 0.14901553 0.21264224 0.14796227
000240 fa de a0 3d 71 4e c3 bd 9d b7 32 3e d8 8e 0b 3e
       0.078550294 -0.09536446 0.17452855 0.1362871
000250 56 db 62 3e 45 aa a8 bd cb 62 57 3e e3 60 f6 3d
       0.22153983 -0.08235601 0.2103378 0.120301984
000260 07 f5 60 3e 06 d7 0e 3e 82 57 9c bd 9a 3a 0a 3d
       0.2196847 0.13949212 -0.07633878 0.033747293
000270 0b c2 43 3d 27 91 7c 3d 67 86 b5 3d b4 dc 51 3e
       0.047792476 0.061661866 0.08863526 0.20494348
000280 cb 13 2b bd c2 86 92 be 94 f5 2e 3e ef 06 22 3e
       -0.041766923 -0.28618437 0.17085868 0.15822957
000290 6c 72 54 3e 10 5f 76 be 87 76 00 3e c3 7f 40 bc
       0.20746773 -0.24059701 0.12545215 -0.011749211
0002a0 13 3d 10 3e bf 77 29 3e e8 8f 85 3d d3 82 22 3e
       0.14085798 0.16549586 0.065215886 0.15870218
0002b0 9c 0c 42 3b 24 e8 36 3e ca 32 e8 3d d6 ff 23 3e
       0.0029609567 0.17861992 0.11337812 0.16015562
0002c0 50 12 aa 3d 3a a5 43 be 14 48 53 bc bd 05 0e 3e
       0.08304274 -0.19105998 -0.012895603 0.13869376
0002d0 ef f5 71 3e f3 0b 8d bd b2 28 ae 3d 24 f0 83 3d
       0.23628972 -0.06887045 0.08503856 0.064422876
0002e0 df 35 64 3e 4c 53 eb 3d 72 87 cf 3c e3 07 14 3e
       0.22286175 0.11490497 0.02533314 0.14456134
0002f0 cc 4b ac 3d 31 40 0c 3e 6e 9a 54 3e e3 56 17 3e
       0.084128946 0.13696362 0.20762035 0.14779238
000300 69 4a 2b 3e cf 94 bd be 8a 6b 36 bc 7d 4c 1b 3e
       0.16727604 -0.37027594 -0.011134038 0.15165897
000310 bc 5e 28 3e 88 b1 c9 be 7d ac 5c 3d 6d e0 ec bc
       0.16442388 -0.39393258 0.053875435 -0.028915608
000320 1a 12 7a 3e a5 39 65 3e 22 40 9e 3c 7c e5 4f 3e
       0.24420968 0.22385271 0.01931769 0.20302385
000330 73 79 11 3e ff cc 44 3e bf 6a 4b 3e 20 e0 53 3e
       0.14206485 0.19218825 0.19864939 0.20690966

7.bias f4 [13]
000000 6a 1b 22 3e 5f cb 6e 3e c0 10 21 bd fd c9 ac 3d
       0.1583077 0.23319767 -0.039322615 0.08436964
000010 4c 9f 2f be 17 4f da bd 26 ea 8e 3d b7 47 03 3e
       -0.1715061 -0.106596164 0.06978254 0.12820326
000020 aa 3b 17 3e f0 a9 2f 3e c3 5e 4d 3e 03 84 99 3e
       0.14768854 0.1715467 0.2005568 0.2998353
000030 eb 75 c6 3e
       0.3876184
