results/PokerGPU/poker_qnet_final.pth (torch, 14859 bytes, 8 tensors)

0.weight f4 [32, 40]
0	0xbbd7b0a4	-0.0065823365
1	0xbbb78ef8	-0.00560176
2	0x3dc68fc2	0.096953884
3	0x3d8b526e	0.068028316
4	0x3d2130ef	0.039353307
5	0xbe02beb8	-0.12768066
6	0xbd3a286d	-0.04544871
7	0x3d166664	0.03671874
8	0x3e0544e7	0.13014565
9	0x3e25b5bd	0.16182609
10	0x3d87450c	0.066049665
11	0xbd92a514	-0.071603924
12	0xbdd875bb	-0.1056933
13	0x3c23f180	0.010006309
14	0x3e16bc61	0.14720298
15	0xbe071725	-0.13192423
16	0x3d1a8bc6	0.037730955
17	0xbdc11ced	-0.09429345
18	0x3ca7e7c9	0.020496266
19	0x3db04bfc	0.08608243
20	0xbd3658ac	-0.044518158
21	0x3d45cf58	0.04829344
22	0xbc667be1	-0.014067621
23	0x3d98f384	0.07468322
24	0x3dcb51ee	0.09927736
25	0xbd2da216	-0.042390905
26	0x3df4667b	0.11933609
27	0x3c8ff719	0.01757388
28	0x3d8f0792	0.06983866
29	0xbd3df492	-0.04637582
30	0xbc886764	-0.016650863
31	0xbc0596e5	-0.008153652
32	0xbcf6b7d8	-0.03011696
33	0x3c5a92fa	0.013340706
34	0xbd8ac237	-0.06775325
35	0x3d86771a	0.065656856
36	0xbd403b1d	-0.046931375
37	0xbde39e04	-0.111141235
38	0x3e05991e	0.13046691
39	0xbdf218d3	-0.11821141
40	0xbdfd3a05	-0.12364582
41	0xbdbab52b	-0.09116586
42	0x3e158e5a	0.14605084
43	0x3d8aa36c	0.067694515
44	0xbda37f4b	-0.079832636
45	0x3dc13c57	0.09435337
46	0x3c7086e3	0.014680597
47	0x3e01548e	0.12629911
48	0xbcbc7c7c	-0.023008578
49	0xbdd126c8	-0.10212475
50	0xbd9b2b68	-0.075766385
51	0x3d6ba168	0.057526976
52	0x3c316fc2	0.010829868
53	0x3e1ca38c	0.15296763
54	0x3d8f4465	0.06995467
55	0xbd36a996	-0.044595324
56	0xbdaa515c	-0.08316299
57	0x3e2120e8	0.15735209
58	0x3e0fdebf	0.14049815
59	0xbd6c6615	-0.05771454
60	0xbd9dd9c0	-0.07707548
61	0xbd96ce9d	-0.07363627
62	0x3ddc218c	0.10748586
63	0xbd61dd27	-0.055142548
64	0xbde87a1a	-0.11351414
65	0xbc4d4387	-0.012528307
66	0xbdb0eb34	-0.086386114
67	0x3c3a75c5	0.0113806175
68	0x3da87e2b	0.0822719
69	0x3e101d83	0.14073758
70	0xbdb11dcc	-0.086482614
71	0x3dc56cf8	0.09639925
72	0x3da7c19c	0.08191225
73	0xbe09349b	-0.13398974
74	0xbdc14b1a	-0.094381526
75	0xbd7481ae	-0.059693985
76	0x3d497770	0.04918617
77	0xbdd3c6dd	-0.103406645
78	0xbdc0863d	-0.09400604
79	0x3e022cf9	0.12712468
80	0x3ddb2413	0.1070024
81	0x3d850a1f	0.06496071
82	0xbd4c81b5	-0.049928386
83	0xbde4c7a3	-0.1117089
84	0xbe3335b7	-0.1750096
85	0x3d35d4f3	0.044392537
86	0xbdf01224	-0.1172221
87	0xb9bd5def	-0.00036118875
88	0x3dc0db94	0.09416881
89	0x3d4f2f08	0.050581962
90	0xbd1c90b8	-0.038223952
91	0xbcba6e6b	-0.02275773
92	0x3e285519	0.16438712
93	0x3e40b90b	0.18820588
94	0xbde2afec	-0.11068711
95	0xbd120c79	-0.035656426
96	0x3d6ffa45	0.058588285
97	0xbd6d3db7	-0.057920184
98	0xbdd843fa	-0.105598405
99	0x39c1940d	0.00036922135
100	0x3c801253	0.015633738
101	0x3deaaf32	0.11459197
102	0xbd50c826	-0.050972126
103	0xbddc05fe	-0.107433304
104	0xbd53d122	-0.051713116
105	0x3ca46958	0.020069763
106	0xbd9df99f	-0.07713627
107	0x3e1e1c11	0.15440394
108	0x3e120b7f	0.14262198
109	0x3e035b68	0.12827837
110	0xbb26d3f1	-0.0025455917
111	0x3e248f31	0.16070248
112	0x3da93c1c	0.08263418
113	0x3c44f58d	0.0120214345
114	0x3e18da27	0.14926969
115	0xbe0c5f45	-0.13708217
116	0x3e222696	0.15835032
117	0x3df83d90	0.12121117
118	0x3e256aef	0.16154073
119	0x3de77fee	0.113036975
120	0x3dd9c747	0.10633712
121	0x3e0c6147	0.13708983
122	0x3a72691f	0.00092472316
123	0x3db9d749	0.090742655
124	0x3e0009c7	0.1250373
125	0x3d9ac69e	0.075574145
126	0x3d8d67a3	0.06904533
127	0x3df35423	0.11881282
128	0x3d95b686	0.07310204
129	0xbd89c4bf	-0.067269795
130	0x3d070b25	0.032969613
131	0xbd2ed16a	-0.04268018
132	0xbb51c4e0	-0.0032008216
133	0xbca7dd10	-0.020491153
134	0xbd308ca8	-0.04310289
135	0x3de358b5	0.11100904
136	0x3d6ce68c	0.057837054
137	0xbd392188	-0.045197994
138	0xbdf2f3be	-0.118628964
139	0x3d28f0ab	0.041245144
140	0x3d4983a9	0.049197827
141	0xbdf671bd	-0.120334126
142	0xbc15e95c	-0.0091498755
143	0xbdf5061b	-0.11964055
144	0x3db4646e	0.08808218
145	0xbce2aeed	-0.027671302
146	0xbdffa1aa	-0.12482007
147	0xbe14b884	-0.14523512
148	0xbe1f67c2	-0.15566924
149	0xbdb0b86d	-0.086289264
150	0xbe296230	-0.16541362
151	0x3d951cfe	0.072809204
152	0xbdb44dc7	-0.08803897
153	0xbd246f05	-0.04014494
154	0x3d23b928	0.0399715
155	0xbd7de8da	-0.061989643
156	0xbd2cb2eb	-0.042162817
157	0x3cf3f037	0.02977763
158	0xbdf31b81	-0.1187048
159	0xbdaa8197	-0.083254986
160	0xbde29ca8	-0.11065036
161	0xbc8d3806	-0.017238628
162	0xbcf66c6e	-0.030081
163	0xbdac90a0	-0.084260225
164	0x3e27ff1b	0.16405909
165	0xbdc6a9e5	-0.097003736
166	0x3d925a03	0.071460746
167	0x3d0851b0	0.03328103
168	0xbe1eac86	-0.154955
169	0x3d1b33d6	0.03789123
170	0x3dfc7e06	0.123287246
171	0xbe1ae6bf	-0.15127085
172	0xbc98ebc9	-0.018667119
173	0x3c9fc280	0.019501925
174	0x3ddd3e91	0.10802949
175	0xbc952f46	-0.018211018
176	0xbdaa158e	-0.083048925
177	0xbe01e5b2	-0.12685278
178	0xbdab826e	-0.08374487
179	0x3cd6c41c	0.02621656
180	0xbda176a2	-0.078839555
181	0xbe015f65	-0.12634046
182	0xbd5b5176	-0.053544484
183	0xbde6d5a2	-0.11271216
184	0x3c69f074	0.01427852
185	0xbde6d1f0	-0.11270511
186	0x3c9f4dfb	0.019446364
187	0xbe013b30	-0.12620234
188	0x3d9323a3	0.071845315
189	0xbe0ea15a	-0.13928738
190	0xbdaa6981	-0.083209045
191	0x3dac5e1e	0.08416389
192	0xb929be8c	-0.0001618808
193	0x3dcfe0b5	0.10150281
194	0x3dc54002	0.09631349
195	0xbda90226	-0.08252363
196	0x3bed4d1a	0.0072418572
197	0xbcaa9c31	-0.020826431
198	0xbde69c31	-0.1126026
199	0x3dabebd3	0.08394589
200	0xbe212021	-0.15734912
201	0xbe1b710d	-0.15179844
202	0xbd8b1a5e	-0.067921385
203	0xbc156abe	-0.009119688
204	0x3d940e70	0.07229316
205	0xbda0f422	-0.07859065
206	0xbd0a6554	-0.03378804
207	0x3d2f54aa	0.04280535
208	0x3e1b6437	0.15174948
209	0xbe177974	-0.14792424
210	0x3d878322	0.066168085
211	0x3d4642f7	0.048403706
212	0xbcade82a	-0.021228869
213	0x3e0c2058	0.13684213
214	0xbd4e05af	-0.05029839
215	0xbdb7e252	-0.08978714
216	0x3dd5d36c	0.10440716
217	0xbe1d86d5	-0.15383466
218	0xbdec1491	-0.1152736
219	0xbd00d1b9	-0.031450007
220	0xbdbc8234	-0.09204522
221	0xbc506268	-0.012718774
222	0xbda193ac	-0.07889494
223	0xbb9e64b6	-0.004833783
224	0x3d3008bb	0.042977076
225	0xbe1d9efb	-0.15392677
226	0x3d355eca	0.04427985
227	0x3d10ddae	0.03536766
228	0xbdbc5f28	-0.09197837
229	0x3d7131bb	0.058885317
230	0xbe1e2c69	-0.15446629
231	0x3d472609	0.048620258
232	0x3c291efc	0.010322329
233	0xbe1bfc2d	-0.15232916
234	0x3e06e375	0.13172705
235	0x3e0f7107	0.1400796
236	0xbd1cce55	-0.03828271
237	0x3c87d51d	0.016581113
238	0xbe046a16	-0.12931094
239	0x3cf04d65	0.02933378
240	0xbe038100	-0.12842178
241	0xbe17a5c2	-0.14809325
242	0xbe17f1c8	-0.14838326
243	0xbe0a82c1	-0.13526441
244	0x3e02d0ac	0.12774915
245	0x3d5b6414	0.05356224
246	0x3d6a5c2e	0.057216816
247	0x3df014f2	0.11722745
248	0x3df26c2f	0.11837041
249	0x3d4126bc	0.04715608
250	0xbdadd78d	-0.08488379
251	0x3de80f6c	0.113310665
252	0x3e04ce6a	0.12969366
253	0xbdc9043a	-0.09815259
254	0x3b400916	0.002930229
255	0x3cd2dc01	0.025739672

0.bias f4 [32]
0	0xbdf4aa04	-0.119464904
1	0x3e1e3b7a	0.15452376
2	0xbdc16bd2	-0.09444393
3	0xbdc26a57	-0.09492939
4	0x3d6d7539	0.05797312
5	0x3d239091	0.03993279
6	0x3e160c24	0.14653069
7	0xbd8855d5	-0.06656996
8	0x3d3d19a7	0.046167042
9	0xbd32f68d	-0.04369216
10	0x3cf95e34	0.030440427
11	0xbe0a37a5	-0.13497789
12	0xbe04379b	-0.12911837
13	0xbe244520	-0.16041994
14	0xbe25cff5	-0.1619261
15	0xbd9c028a	-0.07617672
16	0x3d7e3d2c	0.062070057
17	0x3cef63fc	0.029222481
18	0xbdf509ab	-0.11964735
19	0x3d8e0096	0.069337055
20	0x3d82cc4b	0.06386622
21	0xbbf6cc49	-0.007531677
22	0x3db1c359	0.08679838
23	0x3d869096	0.06570546
24	0xbd9489b5	-0.07252828
25	0xbd02f2db	-0.031969886
26	0xbe0a7dda	-0.13524571
27	0xbd1df16b	-0.038560312
28	0x3d64fe20	0.055906415
29	0x3d6210f0	0.055191934
30	0xbdf44895	-0.119279064
31	0xbd29c49d	-0.04144727

2.weight f4 [24, 32]
0	0x3b4b5b00	0.0031029582
1	0x3bf38895	0.0074320533
2	0x3e24ef45	0.16106899
3	0x3de7aa47	0.11311775
4	0x3d180228	0.03711143
5	0xbd277af3	-0.040888738
6	0xbb079840	-0.0020690113
7	0xbcb65cd9	-0.02226107
8	0xbd904a93	-0.07045474
9	0x3df6deaf	0.12054192
10	0x3e2fe7df	0.17178296
11	0x3e3d57cb	0.18490522
12	0x3ca3214e	0.019913342
13	0x3dc84fb2	0.09780826
14	0x3cf74e51	0.030188711
15	0x3b0685ad	0.0020526454
16	0xbd97410c	-0.073854536
17	0xbcf9cd26	-0.03049333
18	0x3e1a3478	0.15059078
19	0x3df02480	0.11725712
20	0x3d6a71c4	0.0572374
21	0x3e328789	0.17434515
22	0xbd1c8a32	-0.03821773
23	0xbdaaef51	-0.08346427
24	0xbc9ae39e	-0.018907364
25	0xbcd4e19f	-0.02598649
26	0xbc9b8fe2	-0.018989507
27	0xbe189fb6	-0.14904675
28	0x3dcab00c	0.098968595
29	0xbddd5a3f	-0.10808229
30	0xbdb051a3	-0.08609321
31	0xbd6e9090	-0.058243334
32	0x3dc056e9	0.09391577
33	0xbd77fd82	-0.0605445
34	0x3e482a49	0.1954738
35	0xbda629c7	-0.08113437
36	0x3ddeb9e8	0.108753026
37	0xbdaf7594	-0.08567348
38	0xbe055c84	-0.13023573
39	0xbd61d1f5	-0.05513187
40	0x3db9cadc	0.090718955
41	0x3e2a253f	0.16615771
42	0xbe0c6044	-0.13708597
43	0xbdaa7394	-0.08322826
44	0xbdecf296	-0.11569707
45	0x3d98b6e5	0.07456759
46	0xbdacd802	-0.08439638
47	0xbdbc6f43	-0.09200909
48	0xbd62771c	-0.055289373
49	0xbdd689da	-0.10475512
50	0xbcd03ea0	-0.025420487
51	0xbd126dd2	-0.035749264
52	0x3d8b256d	0.06794248
53	0xbcf53350	-0.029931694
54	0x3df163de	0.11786626
55	0xbc584dbf	-0.01320213
56	0xbd10a7c8	-0.03531626
57	0xbd537871	-0.051628534
58	0xbd8655d2	-0.06559338
59	0xbd9d40cb	-0.07678374
60	0x3dbfcf55	0.09365717
61	0x3e3546e2	0.17702821
62	0x3c8d07e4	0.017215677
63	0xbde2586e	-0.11052023
64	0xbd4c078e	-0.049811892
65	0xbd5a84c9	-0.05334929
66	0x3d141010	0.03614813
67	0x3de46080	0.111512184
68	0x3d79d551	0.06099445
69	0x3d0bc137	0.03411981
70	0xbd78f51c	-0.06078063
71	0x3dd99db0	0.1062578
72	0xbd0e09bc	-0.034677252
73	0xbe47a875	-0.19497855
74	0xbe39d25a	-0.18146649
75	0xbd9392db	-0.07205745
76	0xbd82fa79	-0.0639543
77	0x3dcfbf41	0.10143901
78	0xbd11c0b3	-0.035584163
79	0x3e074fb5	0.13214
80	0xbdc80034	-0.09765664
81	0xbe356b0e	-0.1771662
82	0x3dd7edb2	0.10543384
83	0x3c40db97	0.011771104
84	0x3d9e7990	0.0773803
85	0x3dbd7842	0.09251453
86	0xbdf579f0	-0.11986148
87	0xbcc0fa4d	-0.023556853
88	0x3e13a0b4	0.14416772
89	0xbd187bbb	-0.037227374
90	0xbd7a486e	-0.06110423
91	0xbe1f4dd9	-0.1555704
92	0x3d16f94f	0.036858853
93	0xbd1ce7dc	-0.038307056
94	0x3dc4c2e2	0.096074834
95	0x3d8adb67	0.06780129
96	0x3dc87773	0.09788408
97	0x3badbe92	0.005302259
98	0xbd6fe362	-0.05856646
99	0x3c89bd9d	0.016814047
100	0xbdc4e571	-0.09614075
101	0x3e2befa2	0.16790631
102	0x3e16795a	0.1469473
103	0xbdbc7964	-0.09202841
104	0x3e4649ba	0.19364062
105	0xbdb89013	-0.09011855
106	0xbd981ec2	-0.074277416
107	0x3cb8cfe2	0.022560064
108	0xbe166714	-0.14687759
109	0x3bea6e66	0.007154274
110	0xbdc7a53c	-0.09748313
111	0xbdbc746c	-0.09201893
112	0xbd558fcf	-0.0521391
113	0xbb5d7bd1	-0.0033795724
114	0xbc3e4bef	-0.011614784
115	0xbde3259f	-0.1109116
116	0x3dae6ab4	0.08516446
117	0x3e49f709	0.19723143
118	0x3e17c3c7	0.14820777
119	0x3e336881	0.17520334
120	0xbd691968	-0.056908995
121	0x3dbc1871	0.09184349
122	0xbd8ab9eb	-0.06773742
123	0x3d7b11e1	0.061296348
124	0x3d1cbb2e	0.038264446
125	0x3d972f19	0.0738203
126	0x3e32597f	0.17416953
127	0x3b8590d9	0.004076105
128	0x3dc0f51b	0.0942175
129	0x3cc94551	0.024569185
130	0xbe21bcf1	-0.15794732
131	0x3dd0aba6	0.10188989
132	0xbd416ff7	-0.04722592
133	0xbd9e357b	-0.07725044
134	0x3dfaa507	0.12238508
135	0x3db68558	0.08912152
136	0x3d8f77d1	0.07005275
137	0x3b8bcb0d	0.004266149
138	0x3e0ca854	0.13736087
139	0xbcbf5a64	-0.023358531
140	0xbdc97858	-0.09837407
141	0x3d9c1e29	0.0762294
142	0x3e005456	0.12532172
143	0xbcad0fda	-0.021125723
144	0xbdc5bc6e	-0.09655081
145	0xbdb08299	-0.086186595
146	0xbdfa64ae	-0.122262344
147	0x3e1eb9d2	0.15500572
148	0x3cf1dda7	0.029524637
149	0xbdcb7c17	-0.09935778
150	0x3df0b887	0.11753946
151	0x3def4da8	0.11684734
152	0x3d0b96c3	0.034079324
153	0x3dc4e8dd	0.09614728
154	0xbcecd47e	-0.028909918
155	0xbe1b8106	-0.15185937
156	0xbd959165	-0.073031224
157	0x3d93cdc3	0.0721698
158	0xbd87fd06	-0.06640057
159	0x3d7f5f19	0.06234655
160	0xbd0abe95	-0.03387316
161	0xbd5e5da8	-0.054288536
162	0xbe24ad1a	-0.16081658
163	0xbe12362a	-0.14278474
164	0xbcbb0288	-0.022828355
165	0x3e156d24	0.14592415
166	0x3ddbc855	0.1073157
167	0x3cab685d	0.020923788
168	0xbdf725f0	-0.12067783
169	0xbb2ff7b7	-0.002685053
170	0xbc2d76d3	-0.010587412
171	0x3c057e56	0.008147797
172	0x3d8e0e54	0.069363266
173	0xbd748a79	-0.05970237
174	0x3c8a93eb	0.016916236
175	0xbd1456e1	-0.036215667
176	0xbde825a7	-0.113353066
177	0x3e1b77f0	0.15182471
178	0xbd12c1d9	-0.0358294
179	0xbce31aea	-0.027722795
180	0xbe1d8169	-0.15381397
181	0xbe07e027	-0.13269101
182	0xbde49464	-0.11161116
183	0xbe0864cf	-0.13319705
184	0x3d4d80bb	0.050171595
185	0xbdd89ce4	-0.105767995
186	0xbddd9267	-0.1081894
187	0x3c08c512	0.0083477665
188	0xbc8e5450	-0.017374188
189	0x3db3d7c8	0.087813914
190	0xbdbda51c	-0.09260008
191	0xbe272c59	-0.16325511
192	0x3e12870d	0.1430933
193	0x3d70acf2	0.058758684
194	0x3d915042	0.07095386
195	0xbd8782ab	-0.0661672
196	0xbdf85903	-0.12126353
197	0x3e2cc230	0.16870952
198	0x3cca5808	0.02470018
199	0x3e306395	0.17225488
200	0x3b42f776	0.002974955
201	0xbdd0a4ac	-0.10187659
202	0xbd32b66d	-0.043631006
203	0x3df8c6b2	0.12147273
204	0xbb08714e	-0.0020819488
205	0xbcc5df10	-0.024154216
206	0xbd988c42	-0.07448627
207	0xbde74db1	-0.11294115
208	0x3d466c6c	0.048443243
209	0x3d675136	0.056473933
210	0xbdb8e339	-0.09027714
211	0x3db76674	0.08955088
212	0xbe130972	-0.14359072
213	0xbe0de05a	-0.13855115
214	0xbdd933a2	-0.10605551
215	0x3c12f7bf	0.0089702
216	0xbcf93741	-0.030421855
217	0xbe020866	-0.12698516
218	0xbdb9d86a	-0.09074481
219	0x3d343813	0.04399879
220	0x3db51c4b	0.08843287
221	0x3e0d6d39	0.13811196
222	0xbdb76b7f	-0.0895605
223	0x3e25171f	0.16122101
224	0xbdde0be1	-0.108421095
225	0x3dc96e01	0.09835435
226	0x3b545a19	0.0032402335
227	0xbdeafb6b	-0.114737354
228	0xbd1b6eaf	-0.037947353
229	0x3d08793e	0.03331875
230	0xbe1d5d0e	-0.15367529
231	0x3e3dbfd4	0.18530208
232	0xbdcd7d76	-0.100336954
233	0xbccaadd9	-0.0247411
234	0x3dc31f71	0.09527481
235	0xbddd4a30	-0.10805166
236	0x3e04e48f	0.12977813
237	0x3e38bda9	0.180411
238	0xbc05b20c	-0.008160125
239	0xbb26a734	-0.002542925
240	0x3cf2eba7	0.029653383
241	0xbd2261b5	-0.039643962
242	0xbd5ff9d4	-0.054681614
243	0x3d7f0a04	0.06226541
244	0x3dfbcf15	0.12295357
245	0x3b0e92eb	0.002175505
246	0x3d976505	0.07392315
247	0xbc2b3aae	-0.010451002
248	0x3c061531	0.008183763
249	0x3d4eaa7b	0.05045555
250	0x3d42313a	0.047410227
251	0x3c162130	0.009163186
252	0x3df60685	0.12012962
253	0x3d9dedd8	0.07711381
254	0x3d9629f1	0.073322184
255	0x3cacf438	0.021112546

2.bias f4 [24]
0	0x3daebfd2	0.085326806
1	0x3c565683	0.013082149
2	0xbe4edd90	-0.20201707
3	0x3ceed748	0.029155388
4	0x3e064c17	0.13114963
5	0x3df5f93b	0.120104276
6	0x3dd0a853	0.10188355
7	0x3dc8a2a1	0.09796644
8	0x3df5aed8	0.119962394
9	0x3daf9e43	0.08575108
10	0x3dfb65af	0.12275254
11	0xbdf9fc1c	-0.12206289
12	0x3dcab1bb	0.09897181
13	0x3de7e9d1	0.11323894
14	0xbe2c75a3	-0.1684175
15	0x3dd3601e	0.10321067
16	0xbe26d4e6	-0.16292152
17	0x3e333c3e	0.1750345
18	0xbd64bb23	-0.05584253
19	0xbe17eab2	-0.14835623
20	0xbdcf3b0f	-0.101186864
21	0xbba6b8b8	-0.005087938
22	0xbd53c25f	-0.05169904
23	0x3db15c25	0.08660153

5.weight f4 [18, 24]
0	0xbd2f7e2c	-0.042844936
1	0xbe5703e7	-0.20997582
2	0x3dc807f4	0.09767142
3	0x3d95d0f0	0.07315242
4	0xbd90ced3	-0.070706986
5	0xbd82e2ec	-0.06390938
6	0x3da1cd7a	0.0790052
7	0xbd4658d5	-0.04842456
8	0x3bb1069a	0.0054023983
9	0xbe175bec	-0.14781159
10	0xbe193da6	-0.14964923
11	0xbde676a6	-0.11253099
12	0xbd23969e	-0.03993856
13	0x3dce083d	0.10060165
14	0xbddec6a1	-0.10877729
15	0x3e0571da	0.13031712
16	0xbde304fa	-0.110849336
17	0xbe4fe94e	-0.20303842
18	0x3e0ae6e4	0.1356464
19	0x3d664a28	0.056223065
20	0xbd0ee7e1	-0.034889106
21	0x3e340aea	0.17582288
22	0xbd311cdf	-0.043240424
23	0x3e0ae43b	0.13563626
24	0xbe13b19e	-0.14423224
25	0x3e19a0c8	0.1500274
26	0xbe0bd4d5	-0.13655408
27	0xbe296533	-0.1654251
28	0xbdf6855f	-0.12037157
29	0xbcd1dd85	-0.025618324
30	0x3e44124e	0.19147608
31	0x3dc8e0a2	0.0980847
32	0x3e2308f4	0.15921384
33	0xbdc411aa	-0.09573682
34	0xbe058800	-0.13040161
35	0x3df76165	0.120791234
36	0x3daab083	0.08334448
37	0xbe2bb3e9	-0.16767849
38	0xbd2608d3	-0.04053576
39	0x3d92ad8e	0.07162009
40	0x3d08e189	0.033418212
41	0xbe321f82	-0.17394832
42	0x3e123e4d	0.14281578
43	0xbb25a187	-0.002527328
44	0x3d3cdbdd	0.046108115
45	0x3d33b618	0.04387483
46	0x3e5321a0	0.20618296
47	0xbdde37d9	-0.10850496
48	0xbdd4cf03	-0.10391047
49	0x3b82ce9e	0.003991916
50	0xbd81560b	-0.063152395
51	0xbd9e06c7	-0.077161364
52	0x3e2d2891	0.16910006
53	0xbdcf92ae	-0.10135399
54	0x3d986b3c	0.07442328
55	0xbe32473b	-0.17409985
56	0x3d593c87	0.05303624
57	0x3d85a186	0.06524949
58	0xbe3264d5	-0.17421277
59	0xbbf75f4d	-0.0075492025
60	0x3db156c8	0.0865913
61	0x3da1b607	0.07896047
62	0xbd99628d	-0.074895
63	0x3c29c6a1	0.010362298
64	0x3e3ec44e	0.18629572
65	0x3d304787	0.043036964
66	0x3e09b0b1	0.13446309
67	0xbe453aa0	-0.19260645
68	0x3e28f4ad	0.16499586
69	0x3e09af53	0.13445787
70	0xbb8b8d20	-0.004258767
71	0xbe5ecde3	-0.21758227
72	0x3df5e67a	0.120068505
73	0x3d004add	0.031321395
74	0x3df785c9	0.12086064
75	0xbdce08d4	-0.100602776
76	0x3cec6621	0.028857293
77	0x3de22d41	0.11043788
78	0xbda73202	-0.08163835
79	0x3e018a05	0.12650307
80	0x3e5aaa91	0.21354128
81	0x3e2f7e85	0.17138107
82	0xbd9a3cc4	-0.075311214
83	0x3c33a05a	0.010963524
84	0xbda556c4	-0.0807319
85	0xbdf14c2a	-0.11782105
86	0x3cf51352	0.02991644
87	0xbe4bd481	-0.19905283
88	0xbd96c30c	-0.07361421
89	0x3d8335ac	0.064067215
90	0xbe302ada	-0.17203847
91	0x3e5d8037	0.21630941
92	0xbe3c183e	-0.18368623
93	0x3d852147	0.06500488
94	0x3e72750f	0.23677467
95	0xbd3d8149	-0.046265874
96	0x3deb7243	0.11496403
97	0xbe2eff34	-0.1708954
98	0x3d83424c	0.064091295
99	0x3e3dcde6	0.18535575
100	0x3d4ce981	0.050027374
101	0x3e249b95	0.16074975
102	0xbd875925	-0.066088
103	0xbda05449	-0.07828576
104	0xbdc30dc4	-0.0952411
105	0xbdb2f11a	-0.08737393
106	0x3e27c147	0.16382323
107	0x3e3bbf0e	0.183346
108	0x3e20c786	0.15701112
109	0x3e0503d9	0.12989749
110	0xbdc504e0	-0.096200705
111	0xbd69f7e6	-0.05712118
112	0xbd375328	-0.04475704
113	0xbe043f2c	-0.12914723
114	0xbe085263	-0.13312678
115	0xbc7f8bf7	-0.015597335
116	0x3e03d04b	0.12872426
117	0xbe43c47e	-0.19117925
118	0x3da5caf6	0.08095352
119	0xbe28c3ca	-0.16480938
120	0xbe3b7e19	-0.18309821
121	0x3e335e37	0.17516409
122	0x3dde352b	0.10849985
123	0x3d9b7b0e	0.0759183
124	0x3d0ff976	0.035150014
125	0xbe45e1f6	-0.19324479
126	0x3b5f5f55	0.0034083922
127	0xbe24fc83	-0.1611195
128	0x3d6e01af	0.058107074
129	0xbe38b9c5	-0.18039615
130	0x3e3daaa2	0.18522123
131	0x3d8d299b	0.06892701
132	0x3d2cd7c6	0.042197965
133	0x3da8f9c7	0.08250766
134	0xbd9483d5	-0.072517075
135	0xbddfbdb3	-0.10924854
136	0x3dc4a9d4	0.09602705
137	0xbcc004cf	-0.023439793
138	0xbd109e20	-0.03530705
139	0xbd5ac111	-0.05340678
140	0xbc8290e0	-0.015938222
141	0xbde91d34	-0.11382523
142	0x3e301aca	0.17197719
143	0xbde86b69	-0.11348612
144	0x3c2d18aa	0.010564962
145	0x3e6556f1	0.22396447
146	0xba919867	-0.0011108042
147	0x3e541fa2	0.20715192
148	0xbdac1b92	-0.08403696
149	0xbe168594	-0.14699394
150	0x3e49e34c	0.19715613
151	0x3d510b75	0.051036317
152	0x3e4c086e	0.1992509
153	0x3cd93cfa	0.026518334
154	0xbdc7a9ef	-0.09749209
155	0xbdc63b94	-0.096793324
156	0x3e47fb11	0.19529368
157	0xbe491dc2	-0.19640258
158	0xbde01991	-0.109423764
159	0x3dde1952	0.10844673
160	0x3e05551e	0.13020751
161	0x3e2b67ae	0.1673877
162	0xbdd169a0	-0.102252245
163	0xbba5d6d0	-0.005061008
164	0x3e3ced1b	0.18449824
165	0x3aaf3b15	0.0013369048
166	0xbda029d6	-0.078204796
167	0xbe2c2bb9	-0.16813554
168	0xbdff3a20	-0.12462258
169	0x3df71a29	0.120655365
170	0xbd75c8dc	-0.060006008
171	0x3e005730	0.1253326
172	0xbc774b34	-0.015093613
173	0xbdb2b048	-0.08725029
174	0xbd972b1e	-0.07381271
175	0x3b064c30	0.0020492189
176	0xbe15c1e7	-0.14624749
177	0xbdf1affc	-0.118011445
178	0x3d1a651b	0.037694078
179	0xbd23be61	-0.03997648
180	0x3e2e54b1	0.17024495
181	0xbc976e6e	-0.018485274
182	0xbce88b78	-0.028386816
183	0xbd805041	-0.06265307
184	0x3c323a37	0.010878137
185	0x3e124d66	0.14287338
186	0x3e3b4911	0.18289591
187	0xbe10d219	-0.14142646
188	0x3b1be223	0.002378591
189	0x3b1b96c0	0.0023740977
190	0xbccbf760	-0.024898231
191	0x3ddc8ceb	0.107690655
192	0x3d668b1f	0.05628502
193	0xbe0376c8	-0.1283828
194	0x3e1d1ce6	0.15343055
195	0xbd259ed5	-0.040434677
196	0x3de2040e	0.110359296
197	0xbdf36557	-0.118845634
198	0x3d0c9376	0.034320317
199	0xbe561f06	-0.20910272
200	0x3cced479	0.0252478
201	0x3d97ac81	0.074059494
202	0x3e1e859e	0.15480658
203	0xbd7f32df	-0.062304374
204	0x3dff9b15	0.124807514
205	0xbcdd5100	-0.027016163
206	0xbe0585a1	-0.13039257
207	0xbe27c137	-0.163823
208	0x3cf916c5	0.030406365
209	0x3cc9d711	0.024638684
210	0x3e0b209e	0.13586661
211	0xbe69aa87	-0.22818957
212	0x3ba80424	0.0051274467
213	0xbe2a5275	-0.16633017
214	0x3d6bd324	0.057574406
215	0x3e276c52	0.16349915
216	0xbc7a0db1	-0.015262053
217	0x3db88e39	0.09011502
218	0xbe338c4d	-0.17533989
219	0x3d94dff9	0.07269282
220	0xbdf9d968	-0.1219967
221	0xbe123b0c	-0.14280337
222	0x3db2081b	0.08692952
223	0xbd2e4362	-0.04254473
224	0x3bb78f12	0.005601772
225	0x3da18244	0.07886174
226	0x3d9ea90b	0.07747086
227	0x3d026749	0.03183678
228	0x3e5b4b1f	0.21415375
229	0x3b132e5c	0.0022458052
230	0x3ce80fe6	0.028327893
231	0xbe029b53	-0.12754564
232	0x3d9b20b7	0.07574599
233	0x3d604099	0.054749105
234	0xbd755114	-0.059891775
235	0x3d875f0c	0.06609926
236	0x3c9860b5	0.018600801
237	0xbd1ac429	-0.03778473
238	0xbe02d802	-0.12777713
239	0xbe60ad66	-0.21941146
240	0xbca3605f	-0.019943414
241	0xbe0a8d1f	-0.13530396
242	0x3d9f6c4b	0.07784327
243	0x3de4ce3c	0.111721486
244	0x3dc4c2fe	0.09607504
245	0xbd8d3208	-0.06894308
246	0x3c260155	0.0101321535
247	0xbd880845	-0.06642202
248	0xbdab313a	-0.083589986
249	0x3c616067	0.013755894
250	0x3e32d1bc	0.1746282
251	0x3e0b7d83	0.13622098
252	0xbdc869c6	-0.097858
253	0x3d060f3e	0.03272938
254	0x3dfcb9c4	0.123401195
255	0xbe0e13e4	-0.13874775

5.bias f4 [18]
0	0xbc60ee72	-0.013728725
1	0x3dbddb0b	0.09270295
2	0xbe1127b1	-0.14175297
3	0x3bb284e7	0.005447972
4	0x3df6d84c	0.12052974
5	0x3e2b59cb	0.16733472
6	0x3da5cabc	0.08095309
7	0xbe32e4a3	-0.1747003
8	0x3c585f51	0.013206319
9	0x3de8babc	0.11363742
10	0x3d6a38e0	0.057183146
11	0x3e15ec80	0.14640999
12	0xbced3b38	-0.028958902
13	0x3d9dbc6f	0.077019565
14	0xbdb89b1b	-0.09013959
15	0xbe21ef26	-0.15813884
16	0x3d12996a	0.03579084
17	0x3dd565a8	0.1041978

7.weight f4 [13, 18]
0	0x3d9ebf6c	0.077513546
1	0xbe2f39f4	-0.17111951
2	0xbd46e288	-0.04855588
3	0xbd36f804	-0.04467012
4	0xbe285b6d	-0.16441126
5	0x3e622c84	0.22087294
6	0xbd456220	-0.048189282
7	0xbe35d79e	-0.17758033
8	0x3e2f7741	0.17135336
9	0x3e583dcc	0.21117324
10	0xbe1bf09f	-0.15228508
11	0xbe612b6b	-0.21989219
12	0xbd91d53b	-0.071207486
13	0x3da8cb90	0.082419515
14	0xbe07b2e4	-0.13251835
15	0xbe44e34b	-0.1922733
16	0x3dac3d88	0.08410174
17	0xbdbab7bb	-0.09117075
18	0xbc26a359	-0.010170781
19	0x3e379e4e	0.17931482
20	0x3df2c01f	0.118530504
21	0x3e4e7538	0.20161903
22	0xbc87c3b2	-0.016572807
23	0x3d1f38dc	0.038872585
24	0x3e3e61a8	0.1859194
25	0x3cc6045e	0.024172004
26	0xbe20d8f6	-0.15707764
27	0x3d5c2a52	0.053751297
28	0xbd18ae43	-0.037275564
29	0xbe21a5ab	-0.15785854
30	0x3be52c68	0.006993819
31	0xbd678016	-0.056518637
32	0x3d4b27c7	0.04959848
33	0x3e5ab100	0.21356583
34	0x3dd1ea97	0.102498226
35	0xbac7cee7	-0.0015244157
36	0xbd0481b2	-0.03235025
37	0x3cfb5492	0.030679975
38	0xbe43e7c6	-0.19131383
39	0x3e557ea6	0.20849094
40	0xbe16f978	-0.14743602
41	0xbe21fc13	-0.15818815
42	0xbaafa74a	-0.0013401296
43	0x3d3250e6	0.043534182
44	0xbdd3a36e	-0.10333906
45	0xbe2eec66	-0.17082366
46	0x3e32c224	0.17456871
47	0xbe402d79	-0.18767346
48	0x3e37a195	0.17932732
49	0x3e204993	0.15653066
50	0xbe43b90e	-0.19113562
51	0xbe3aeb19	-0.18253745
52	0x3c3b685d	0.011438456
53	0xbcee0fd1	-0.029060276
54	0xbe31ce0a	-0.17363754
55	0xbcd446ab	-0.025912603
56	0xbe1e696e	-0.15469906
57	0x3cb2a6eb	0.021808108
58	0x3dc368b3	0.09541454
59	0xbe1be045	-0.15222271
60	0xbd45f3e2	-0.048328288
61	0xbe0e1805	-0.1387635
62	0x3deac70c	0.114637464
63	0x3cbdd66d	0.023173535
64	0xbe0650c9	-0.13116755
65	0x3e2e4471	0.17018296
66	0x3e417e6c	0.18895882
67	0xbe2f5732	-0.17123106
68	0xbcbc2654	-0.022967495
69	0x3d28b523	0.04118837
70	0xbd2fe83e	-0.042946093
71	0xbdbedeec	-0.09319863
72	0xbe5328d7	-0.20621048
73	0xbe1bb77a	-0.1520671
74	0x3e53af5f	0.20672368
75	0xbcab8ef3	-0.020942187
76	0x3db76534	0.0895485
77	0xbe2ff9a0	-0.17185068
78	0x3beab44a	0.0071626054
79	0x3e73d18e	0.23810408
80	0xbe2494c9	-0.16072382
81	0x3c4a7160	0.012356132
82	0xbe40b48f	-0.18818878
83	0x3d872bd4	0.066001564
84	0x3e16ab36	0.1471375
85	0x3cdb0ca7	0.026739432
86	0x3e13d4b3	0.14436607
87	0x3e590d9e	0.21196601
88	0xbd86d903	-0.065843605
89	0xbc415e05	-0.011802201
90	0xbe31655e	-0.17323825
91	0x3dbc1c31	0.091850646
92	0x3e40f82f	0.18844675
93	0x3dba54a7	0.090981774
94	0x3e831416	0.25601262
95	0xbc378f35	-0.011203577
96	0x3e836399	0.25661924
97	0x3e7befcd	0.24603195
98	0xbe4c6958	-0.1996206
99	0x3e47fa00	0.19528961
100	0xbe493093	-0.19647436
101	0xbda76639	-0.08173794
102	0x3e538894	0.20657569
103	0x3e287bc4	0.16453463
104	0xbd56e665	-0.052465815
105	0x3e4fe5cf	0.20302509
106	0x3e240a40	0.16019535
107	0x3c4c3c53	0.012465554
108	0xbd7f3c19	-0.062313173
109	0xbe24cf87	-0.1609479
110	0xbd6dce11	-0.05805785
111	0xbd94d693	-0.07267489
112	0x3d1f311f	0.038865205
113	0x3de42061	0.11138988
114	0xbe295368	-0.16535723
115	0xbe047c63	-0.12938075
116	0x3e09fa6d	0.13474436
117	0xbe1f6541	-0.15565969
118	0xbdbd78af	-0.09251534
119	0x3da67fdc	0.08129856
120	0x3e1bc526	0.15211925
121	0xbd05d03c	-0.03266929
122	0x3e65206a	0.22375646
123	0x3dbe6062	0.09295727
124	0xbdd61c54	-0.10454622
125	0x3e6fabe9	0.23405422
126	0xbe52c237	-0.205819
127	0x3d2d2b17	0.04227742
128	0xbd3b0608	-0.04566005
129	0x3df68b43	0.12038281
130	0x3e1f4b62	0.155561
131	0xbdd0d284	-0.10196403
132	0x3e2e3650	0.17012906
133	0xbe3c0bc1	-0.18363859
134	0xbdaf7324	-0.08566883
135	0xbe063162	-0.13104776
136	0xbdefb604	-0.117046386
137	0x3da723cc	0.081611246
138	0x3d8edcd2	0.06975712
139	0x3e2bb13a	0.16766825
140	0xbba70052	-0.0050964737
141	0xbe4ae8de	-0.19815394
142	0x3e3d37eb	0.18478362
143	0x3e68b7ff	0.22726439
144	0xbe5747e4	-0.21023518
145	0x3e25dd31	0.16197659
146	0x3db0d43f	0.08634233
147	0xbdc77aff	-0.097402565
148	0x3e5bc326	0.21461162
149	0x3cd735f5	0.026270846
150	0x3b41c7e1	0.00295686
151	0xbe36c851	-0.17849852
152	0xbe00be91	-0.12572695
153	0x3e3caad1	0.18424536
154	0x3e4662d7	0.19373642
155	0x3d7807ab	0.060554188
156	0x3cce8649	0.025210517
157	0x3e4d3590	0.20039964
158	0x3d4b22e7	0.049593832
159	0xbd4b9b58	-0.049708694
160	0xbdc95f59	-0.09832639
161	0x3d961434	0.07328072
162	0xbdc2cb2f	-0.095114104
163	0x3c7296ea	0.0148064885
164	0xbe213d85	-0.15746124
165	0xbd232e0d	-0.03983884
166	0xbe224cd8	-0.15849626
167	0x3e41b9a0	0.18918467
168	0x3d07e03e	0.03317284
169	0xbd852c27	-0.06502562
170	0x3e02d2ef	0.12775777
171	0x3d3915fc	0.04518698
172	0x3deab772	0.11460771
173	0xbe32c144	-0.17456537
174	0x3df7bf5b	0.12097045
175	0xbaf9b0df	-0.0019049904
176	0x3e5903cf	0.21192859
177	0x3d575eca	0.052580632
178	0xbb248f5d	-0.0025109865
179	0xbe58d3b4	-0.21174508
180	0x3ab3e6e4	0.0013725427
181	0xbe407cef	-0.18797658
182	0xbe639735	-0.2222565
183	0xbe39d332	-0.18146971
184	0xbd0e47f4	-0.03473659
185	0xbdf19171	-0.11795319
186	0x3dc5611f	0.09637665
187	0xbe2d9a93	-0.16953497
188	0xbc75d8a6	-0.015005266
189	0x3e3e0ca4	0.1855951
190	0xbd52c4d7	-0.051457252
191	0x3c07a024	0.008277927
192	0xb988d44e	-0.0002609812
193	0x3e4b774a	0.19869724
194	0x3dc9982c	0.098434776
195	0xbda1e87a	-0.079056695
196	0x3e615240	0.22004032
197	0xbe193dd3	-0.1496499
198	0x3e052318	0.13001668
199	0x3e08c7df	0.13357495
200	0x3e1e1eac	0.15441388
201	0xbe4b7598	-0.19869077
202	0x3d506fa0	0.050887704
203	0x3ce2b54a	0.027674336
204	0x3e1ed43e	0.15510651
205	0xbcb6d69e	-0.022319134
206	0x3c841293	0.016122138
207	0x3b2c0b4c	0.002625185
208	0x3af2385d	0.0018479932
209	0xbe5aac4a	-0.21354786
210	0xbe342aad	-0.17594405
211	0x3d7e4695	0.06207903
212	0x3d927c51	0.07152618
213	0x3d822f4d	0.06356678
214	0x3e0c976f	0.13729642
215	0xbe536621	-0.20644428
216	0x3e2df4d0	0.1698792
217	0xbe1ce48c	-0.15321559
218	0xbe356657	-0.17714821
219	0x3db0e528	0.08637458
220	0x3d77739f	0.060413
221	0x3e298b8b	0.16557138
222	0x3e28f95b	0.16501372
223	0x3dba5073	0.09097376
224	0x3e73a89f	0.23794793
225	0xbc2df5e1	-0.010617704
226	0xbe3f0ae9	-0.18656506
227	0x3e0441c7	0.12915717
228	0x3d7ff0fa	0.062485673
229	0x3dbd95aa	0.09257062
230	0xbe00ac42	-0.12565711
231	0xbd9b1a34	-0.07573357
232	0x3d243aa3	0.040094983
233	0xbe00ac20	-0.1256566

7.bias f4 [13]
0	0x3d583e93	0.05279405
1	0x3e04a440	0.12953281
2	0x3d1617c5	0.036643762
3	0x3e6806f5	0.22658904
4	0x3e478616	0.19484743
5	0xbd082270	-0.033235967
6	0xbe15d21f	-0.14630936
7	0xbe32485a	-0.17410412
8	0xbe392746	-0.18081388
9	0x3c77122e	0.015080018
10	0x3ceb95ac	0.028757893
11	0x3e2a859c	0.1665253
12	0x3e5c9a07	0.21543132
