results/PokerGPU/poker_qnet_final.pth (torch, 14731 bytes, 8 tensors)

0.weight f4 [32, 39]
000000 98 af e9 3d fd d8 12 3e ee fc a5 ba f8 53 a2 3d
       0.11410445 0.14340587 -0.001266388 0.07926172
000010 3d 8b 1a 3e 6d df fa 3d ad b4 59 3e c3 5d 7a 3d
       0.15092178 0.12249646 0.21260329 0.061124574
000020 20 a7 c1 3d 9f db a6 3d 8f d8 2e 3e ce a8 12 3e
       0.09455705 0.08147358 0.17074798 0.14322206
000030 4f 6f 34 3e 35 64 5d 3e a3 b9 b1 ba 62 f6 35 3e
       0.17620586 0.21620257 -0.0013559352 0.17769769
000040 6a 26 a6 3d 99 80 cc 3c ec 08 f2 3d f0 eb 7d 3d
       0.08112796 0.024963664 0.11818108 0.061992586
000050 fa 8d 64 bd 0f 5b 04 3e 69 c9 08 3e 45 ec c4 3d
       -0.055799462 0.12925361 0.13358082 0.09615377
000060 9f 55 c2 3d 8f 52 0b 3d 63 d0 41 3d 74 37 2f 3e
       0.09488987 0.03401428 0.047317874 0.17110997
000070 cc 45 0d 3c f4 5a 4e 3e 89 77 81 3c 40 0c db bd
       0.008622598 0.20151883 0.01580407 -0.10695696
000080 b6 4e 40 3e 3c 77 31 3e 19 4f e2 3d 77 05 5a 3e
       0.18780026 0.1733064 0.11050243 0.21291147
000090 d3 e3 ba 3d a4 08 f2 3d 57 8e 9f bd a2 d5 2d 3d
       0.09125485 0.11818054 -0.07790821 0.042440064
0000a0 a3 e7 0d 3e 66 77 8e 3c 79 96 c3 3d d1 10 8c bd
       0.13857894 0.017390918 0.09550185 -0.06839145
0000b0 af 46 5f 3e ed 7b 48 3d 45 27 b3 3d a4 01 13 3e
       0.21804307 0.04894631 0.087477244 0.14356095
0000c0 50 2a 58 bc 4c fd c7 3d 90 78 19 bd dc 4b 60 3e
       -0.013193682 0.097651094 -0.037468493 0.21903938
0000d0 7f ed dd 3d ac 25 de bc 3c a3 3f bd af f2 b9 bd
       0.108363144 -0.027117573 -0.04678653 -0.09079491
0000e0 fa 74 43 3e 0f 5d ea 3d 26 c3 16 3c 95 91 a5 bc
       0.19087592 0.11443531 0.0092018 -0.02021102
0000f0 66 63 2b 3d ee b5 5d 3e 08 9f 4b 3e c1 2c 26 3c
       0.04184284 0.21651432 0.19884884 0.010142506
000100 e8 af 27 3d ce bb 80 3e 4b 00 b1 bd 35 4a 66 3d
       0.04093924 0.25143284 -0.08642634 0.056223113
000110 f3 11 de 3c 06 97 b2 bd 74 67 fb 3d f8 40 62 3e
       0.027108168 -0.08720212 0.122755915 0.22095096
000120 c0 ca af bc 89 63 c9 bb f2 c9 8b 3c 3f 75 d3 3d
       -0.021458983 -0.0061458987 0.017064068 0.10325097
000130 51 10 2e 3d 3d d3 03 3e 10 9b 79 3d 8d 1c 10 be
       0.04249603 0.1287355 0.060938895 -0.14073391
000140 b7 49 3f 3d e5 1b 07 be 3d 1e b1 bd 98 5d 84 bd
       0.04670116 -0.13194235 -0.086483456 -0.06463164
000150 67 0f 2b be e5 3c 0c bd dd 41 0c 3e 4b c8 eb bd
       -0.16705094 -0.03423776 0.13697 -0.11512812
000160 96 09 ec 3d 05 bb 0d be b5 6b ff bd d8 0d 05 bc
       0.11525266 -0.13840874 -0.12471715 -0.008120976
000170 70 72 c8 bd 27 df 29 be d2 83 e1 bd 8b d2 db bd
       -0.09787452 -0.16589032 -0.11011471 -0.10733517
000180 0a 5f 0f be 8c df 17 be 46 8b ea bd e4 90 95 3d
       -0.14001098 -0.1483137 -0.114523456 0.07303026
000190 f0 02 ab 3d 37 23 93 bd 8e a5 02 bc 81 f6 05 3e
       0.0835017 -0.07184451 -0.007974042 0.13082315
0001a0 48 0c 77 bc bb d4 d3 bd ac 97 92 3d 3d 5d dc bd
       -0.015078612 -0.103433095 0.07157835 -0.10759971
0001b0 d0 b4 c4 3d 5e e9 9d bc fe dc 42 bd b8 ef 43 3d
       0.096048 -0.019276317 -0.047574036 0.047836035
0001c0 62 02 ac 3c f6 5d d1 bd 1f 8e 07 3e 6f bb 0f bd
       0.02099723 -0.10223 0.13237809 -0.03509086
0001d0 b7 5d e4 3d 4e 84 59 3e ac 38 0f 3e a6 4b 0d 3e
       0.11150687 0.21241876 0.13986462 0.13798389
0001e0 cc 2a df 3b a1 af bf bd 5f 76 0d 3e 55 5b a5 bb
       0.0068105217 -0.093596704 0.13814686 -0.005046288
0001f0 94 4c e9 3d 68 94 41 bb 9b de 4b 3e 1b ac 83 3e
       0.11391559 -0.002953792 0.19909136 0.25717244
000200 1d e6 0c 3e de 4b 53 bc 30 ad 21 3d f9 16 0e 3e
       0.13759656 -0.012896506 0.039471805 0.13875951
000210 ab ae 42 bd 82 db 84 bd c1 22 14 bd f4 a4 c4 3d
       -0.047529858 -0.0648718 -0.036165956 0.09601775
000220 47 a8 80 3d 85 8d fd 3d 00 c0 55 3e 16 af c5 bd
       0.06282096 0.12380508 0.20874023 -0.096525356
000230 bd 50 b5 3c 99 62 bf 3c cd 83 43 bd e3 0e 59 3c
       0.022133226 0.023362445 -0.047733117 0.013248178
000240 85 91 b6 bb 3d 82 a6 bd 9d 8f 82 3d 98 4c bb 3d
       -0.0055715465 -0.0813031 0.06375048 0.091454685
000250 3d 05 aa 3c de 3a 4a 3e 8a 15 b3 39 7c 17 2f bd
       0.020754451 0.19749019 0.00034157588 -0.042747006
000260 b8 d9 46 bb 76 97 2c bd 9e 62 d3 3d 04 d4 06 3d
       -0.0030342173 -0.042136632 0.10321544 0.032917038
000270 56 5d df bc a6 62 89 3d 70 23 c3 3d d2 ff 81 3c
       -0.027266186 0.06708269 0.095282435 0.015869055
000280 b7 a4 79 3d ed 46 f4 3d 43 f1 dd 3d 83 ad a3 bd
       0.0609481 0.119275905 0.10837033 -0.07992079
000290 73 51 b5 3b 35 f6 b8 bc a4 d3 97 bc 0c 1d b2 bd
       0.005533391 -0.022578338 -0.018533535 -0.086969465
0002a0 07 21 8d bc 65 c7 78 3d ce 50 bc bd 21 4c f7 bd
       -0.017227663 0.060737032 -0.091951 -0.12075067
0002b0 f2 e0 7d bd 8c c5 26 3e 20 09 c7 3d b7 ed 34 3d
       -0.061982103 0.16286296 0.09718537 0.044172015
0002c0 25 95 03 be 69 d2 9f bd 18 95 87 bd f7 b5 0c bc
       -0.12849863 -0.078038044 -0.06620234 -0.008588306
0002d0 f4 fd 4c bd b0 f3 2c bc c1 dd 02 3e 70 8c 13 3e
       -0.050046876 -0.0105561465 0.12779905 0.14409041
0002e0 ec c8 08 3d 0c 30 0f 3e 94 a6 7b 3d 74 fc 02 3d
       0.03339474 0.13983172 0.06143816 0.03197904
0002f0 f1 91 dd bd 64 0e 05 be 0f c0 e9 3d 4d c9 93 3c
       -0.10818852 -0.12993771 0.114135854 0.018040324
000300 70 19 ce bd 86 a4 ea bd b3 2d 9f 3c 6e b6 cd 3d
       -0.100634456 -0.114571616 0.01943097 0.10044561
000310 95 e4 a3 39 e7 6b 01 be e8 c5 13 be 25 fc 0d 3e
       0.0003126009 -0.12638818 -0.14430964 0.13865717
000320 c7 15 1b be 4c 4d 11 bd 9a 85 04 be 3c 6b d8 bc
       -0.15145026 -0.035474107 -0.1294159 -0.02641832
000330 f5 ae 60 3d 56 1e 50 3e 19 99 07 3e 92 ac 0a 3e
       0.054854352 0.20324072 0.13241996 0.13542393
000340 69 c9 86 bd b2 91 13 3e 40 b2 1d 3e 55 4c 0f bd
       -0.06581385 0.14411047 0.15400028 -0.034984905
000350 4a 04 ee 3d 53 78 03 bd e9 8d b3 3d fc 1d 52 3e
       0.11621912 -0.032097172 0.087673016 0.2051925
000360 81 f6 d3 3d 4e 88 a8 3d 8a 87 8e bd a1 51 88 3c
       0.10349751 0.08229123 -0.06959446 0.016640486
000370 3a f4 11 3c fa 70 25 3e 0e 6a 82 bc 30 55 95 bc
       0.008908326 0.16156378 -0.015919711 -0.018229097
000380 21 87 f4 3c 92 de 21 3d 2d b2 f4 bd 21 e4 92 b9
       0.02984959 0.0395189 -0.11948047 -0.0002801726
000390 d0 aa 1d 3e d1 51 bf bd fe 07 22 3e 5e c8 ef bd
       0.15397191 -0.09341777 0.15823361 -0.11708139
0003a0 7a 06 37 3d fb 0b 01 3e 97 7e eb 3d c5 c3 a6 bd
       0.04468391 0.12602226 0.114987545 -0.08142809
0003b0 20 ad 1f bc a9 50 fa 3d de 80 a6 3d 0f fc d2 bc
       -0.009745866 0.12222416 0.08130048 -0.025754957
0003c0 a1 6a 61 3d f9 2b 3c bc 8d 0c 5e 3d 41 d4 31 bd
       0.05503333 -0.011485093 0.054211188 -0.04341531
0003d0 ac 3d ac bd 91 9c 24 be e0 a8 35 3c 60 56 8d 3d
       -0.084102005 -0.1607535 0.011087626 0.0690124
0003e0 70 95 37 3e 17 d5 66 3d 9f 29 fc 3d 28 08 ee 3d
       0.179281 0.056355562 0.12312626 0.116226494
0003f0 93 41 f5 3b a2 db de 3c 6c bf 22 be 6b 25 96 bd
       0.0074846237 0.027204338 -0.15893334 -0.07331356

0.bias f4 [32]
000000 b4 ea 88 bc 67 73 cd 3d 5c 7e e1 3d de 4f 7e 3d
       -0.016713478 0.10031777 0.11010429 0.062087886
000010 03 60 d4 bd 99 f2 01 be 8d 59 11 be 20 b7 5b 3d
       -0.10369875 -0.126902 -0.14194317 0.05364144
000020 51 c0 7b 3c 26 c3 67 3e 62 d3 0d 3e 9c ff f2 3d
       0.015365676 0.22633037 0.13850167 0.1186516
000030 18 d0 34 3d a8 11 89 3d 85 02 ec 3c 7f 7c ac bd
       0.044143766 0.06692821 0.028809795 -0.08422183
000040 fe 3f 04 3e 68 38 5d bd 94 9a 02 be 1b 0c 03 3e
       0.12915036 -0.05400887 -0.1275428 0.12797587
000050 20 e2 95 3d 29 0d 06 3d 7c d4 73 3d 09 4d 8e bd
       0.073185205 0.032727394 0.059528813 -0.06948287
000060 c1 3f ff 3c 13 b3 af bd d6 99 c3 bb 32 7e 77 bc
       0.03115833 -0.085790776 -0.0059692664 -0.015105771
000070 47 a6 35 3d 05 48 34 3e de 22 9b 3d 84 5f ea 3d
       0.044348028 0.17605598 0.0757501 0.114439994

2.weight f4 [24, 32]
000000 5c 0b 5f 3e ab 81 e9 3d a7 3a f1 3b cf e5 08 3e
       0.21781677 0.11401685 0.007361728 0.13368915
000010 06 4f 4f 3b 2a f1 f6 3d 0e e4 1f 3d 7c 97 6d bc
       0.0031632795 0.12057717 0.03903585 -0.014501449
000020 23 2e 80 3e c3 c9 1c 3e 4c 87 67 bd e1 2a 73 bd
       0.250352 0.15311341 -0.056525514 -0.059367064
000030 91 6c 74 3e 6b 4d af 3d e5 3a 58 3e d6 10 e4 3c
       0.2386954 0.08559688 0.21116216 0.02784006
000040 88 db be 3b 17 7e ee 3d 0f 47 15 3e c9 b3 ec 3d
       0.00582451 0.116451435 0.14577888 0.11557729
000050 bd ad 91 3d 42 d0 0d be 00 f1 06 3e 5a 1c 87 3e
       0.07113216 -0.13848975 0.13177872 0.26388818
000060 11 b2 35 3e 82 a9 30 ba d3 d2 0f 3d c6 b2 90 3d
       0.17743708 -0.0006739126 0.035113167 0.07065348
000070 a7 a9 c1 3c 4e 98 53 bc e3 29 71 3e ff 81 a3 3d
       0.023640467 -0.01291473 0.23551135 0.07983779
000080 62 4c 66 3e e2 51 09 3e 48 b9 1a 3d cb 72 4d 3e
       0.22490075 0.13410142 0.037774354 0.20063321
000090 bc 01 d6 3d fd 2c e2 3d a0 26 0f be fe e8 86 bc
       0.104495496 0.11043737 -0.13979578 -0.016468521
0000a0 a4 82 a4 bd 54 17 a0 bd 54 f6 82 3c fa 83 09 3e
       -0.0803273 -0.078169495 0.015986599 0.13429251
0000b0 58 d4 85 3d c9 d5 72 3d 3e 0b 82 bd 69 4f 4e bd
       0.06534642 0.059285913 -0.063498005 -0.0503687
0000c0 21 92 8a 3d 15 22 1f 3e f4 eb 51 3d 16 3b 2d 3d
       0.06766153 0.15540345 0.051250413 0.042292677
0000d0 ab 03 40 3e 6a 04 69 3c e6 b8 85 bd 70 42 5a bd
       0.18751399 0.014222244 -0.06529407 -0.053286016
0000e0 fd 5a 5f 3e df d8 21 3e ae ef d4 3d c8 bf b4 bd
       0.21812053 0.15805386 0.10397278 -0.08825642
0000f0 37 19 1e 3e e4 c6 31 3e 95 c1 40 3e 70 81 7a bb
       0.15439306 0.17361027 0.18823846 -0.0038224123
000100 cc 68 43 3e 0f e6 3e 3e 41 c2 01 be 83 a9 b6 bd
       0.19082946 0.18642448 -0.12671758 -0.089190505
000110 e8 38 bc 3d 5f 00 70 3e 3f 5f 67 bd 52 36 bb 3d
       0.091905415 0.23437642 -0.056487318 0.0914122
000120 4d 6a 4c 3e b3 54 16 3e cb a5 2f 3e 7c 80 0a 3d
       0.19962426 0.14680748 0.17153089 0.03381394
000130 db 7a 99 bd d1 82 8e bd 89 e6 12 be 87 fa d4 3d
       -0.07494136 -0.06958545 -0.14345755 0.10399347
000140 6e b6 44 3c 8b 95 19 3e 93 8c 35 3e fe 37 ce 3d
       0.012006385 0.14998452 0.17729406 0.100692734
000150 1f 9c 99 3d d7 c6 9c 3b 0e 44 a0 bd b2 af 60 3c
       0.07500481 0.0047844457 -0.078254804 0.013713764
000160 57 9f 4e 3d fe 27 ec 3c 1b 92 18 3d b9 89 56 3e
       0.050444927 0.028827664 0.037248712 0.20950975
000170 d3 f0 2f 3d 4c e2 0b bd 2a f9 82 3c 04 4f 18 be
       0.042954277 -0.03415136 0.015987951 -0.14873892
000180 5d ed 41 3e 20 61 6e 3e 95 b8 1e bd 20 3c 5a 3e
       0.18938203 0.23279238 -0.03875025 0.21311998
000190 c7 4c 09 be 1a bd c1 bc 49 af e3 bd c3 0a 3e 3e
       -0.13408194 -0.023649741 -0.11117417 0.18558793
0001a0 6d d6 92 3c ab 8a df 3d 48 2c e5 bc 24 73 7d 3c
       0.017924512 0.10915121 -0.027975217 0.015469346
0001b0 f8 5c 34 3e 10 15 48 bd 59 53 dd 3d 7c 95 a7 bd
       0.1761359 -0.04884821 0.10806913 -0.08182809
0001c0 40 76 36 3e 28 d7 a1 bd da d1 93 3d 9b 2e 5e 3e
       0.17818546 -0.07902366 0.072177604 0.21697466
0001d0 18 ce 26 be 03 31 a0 bb 94 0f 69 3c 51 4c c9 bc
       -0.16289556 -0.004888655 0.0142249055 -0.024572523
0001e0 12 33 d2 3c f1 08 f7 bd 7e 33 83 bd bd 61 8d 3d
       0.025659118 -0.12062252 -0.06406306 0.06903408
0001f0 8e 2e 5c 3e b0 58 a8 3c 32 11 8a bc 24 0b 26 be
       0.21502134 0.020550102 -0.016853902 -0.16215187
000200 ee 79 64 3d ef e9 b3 3d 97 79 67 bc cf 4b 81 3c
       0.055780344 0.08784854 -0.01412811 0.015783219
000210 7b 7d 18 bd 7c bc ed bc cc 59 fc bd 11 0f 86 bd
       -0.037229043 -0.02902054 -0.12321815 -0.065458424
000220 84 7f 70 3c ff 8d ca bd bb 70 e0 bd 80 05 63 3c
       0.01467884 -0.09890365 -0.10959002 0.013856292
000230 a7 b1 28 be 70 d2 8d bd 83 1c 5b bd 64 c6 e5 3c
       -0.16474019 -0.069249034 -0.053493988 0.028048702
000240 85 e3 24 be 17 68 45 bc e3 ff c1 3c 71 29 0a be
       -0.16102417 -0.012048743 0.023681587 -0.13492371
000250 88 46 d1 3d d5 47 dc bd 05 65 9c 3c 88 d9 3f bd
       0.10218531 -0.107558884 0.019091139 -0.046838313
000260 fb 1c 31 be 5d 4d 14 be ef 4c 2b bd 18 78 82 3b
       -0.17296211 -0.14482637 -0.041821416 0.0039816014
000270 ed 6f 4d 3c d7 34 1e bd 99 5d 9f bd dc 64 e4 bd
       0.012538892 -0.03862461 -0.07781524 -0.1115205
000280 7a 38 22 be 8c 3b 4a 3d 89 5b 93 bd 00 bc 15 be
       -0.15841857 0.049373195 -0.07195193 -0.14622498
000290 9d 65 0a be cb 57 11 be 04 a3 96 3d 85 9c 7f 3d
       -0.13515325 -0.14193647 0.073553115 0.062405128
0002a0 8b d5 0b 3d b1 79 31 3e 99 ea d8 bd e1 24 dc 3c
       0.034139197 0.17331578 -0.10591621 0.026873054
0002b0 d4 1e 1f be 9c df d8 3d 54 cb fb 3d b0 3b a8 3b
       -0.15539104 0.10589525 0.12294641 0.0051340684
0002c0 dc 5f a2 bc bf 48 82 bc fa 05 0c be 55 f8 0c be
       -0.0198211 -0.015903829 -0.13674155 -0.13766606
0002d0 49 31 d8 3d 1f 5a dc bd 31 30 6b bc 5e 84 1e 3e
       0.105562754 -0.10759377 -0.014354751 0.15480182
0002e0 c3 bd b0 bd a6 5f de bd fc 64 e9 3d 33 4a 0a be
       -0.08629944 -0.10858087 0.11396214 -0.13504867
0002f0 fc 1e 1f 3e f8 14 0c 3e ff 3a 0c bd 7f e7 ca bd
       0.15539163 0.13679874 -0.03423595 -0.099074356
000300 a2 c2 14 3e 92 67 39 3c c3 0d c0 bd 76 74 40 3e
       0.14527372 0.011316197 -0.09377625 0.18794426
000310 e5 51 ff 3d e9 67 da bd 9c 93 9b 3d 16 75 0e 3d
       0.12466792 -0.106643505 0.07596514 0.03477963
000320 db 7b 83 bc e2 5c 4c 3e b5 ac 21 3e 52 2e 02 3d
       -0.01605027 0.19957307 0.15788539 0.031782456
000330 3a 27 5d 3e 0a e6 51 3e 7a cf 1b be d1 64 34 3d
       0.21596995 0.20497909 -0.15215865 0.04404146
000340 90 8d d1 bb ba f0 a8 bd 74 62 31 3e b0 06 46 3e
       -0.0063950494 -0.0824904 0.17322713 0.19338489
000350 ec c0 f3 3d 2f 65 9d 3d 98 2f 3f 3c c5 b3 9f bc
       0.11902031 0.07685315 0.011669062 -0.0194949
000360 6a 39 eb 3d 49 67 3c bb 19 ce 81 3e 05 f1 bb 3d
       0.1148556 -0.0028748086 0.25352553 0.0917683
000370 48 81 57 bc 9b 2e f6 3d 00 63 b7 ba bb f1 28 3e
       -0.013153382 0.12020608 -0.0013991296 0.16498463
000380 e3 eb bb bd ff 58 a7 3d 12 0d a8 3d 6d a0 11 3e
       -0.09175851 0.081712715 0.08205618 0.14221354
000390 aa 04 21 3e b8 2e d1 bd 62 46 24 3d 84 d0 94 3d
       0.15724435 -0.10213989 0.040106185 0.07266334
0003a0 03 57 26 be 78 f0 b2 bd 12 30 13 3d 59 37 e8 bc
       -0.1624413 -0.08737272 0.035934515 -0.028346704
0003b0 e4 c4 88 3c ed 33 6b 3d 87 58 fb 3d f4 20 be 3d
       0.016695447 0.057422567 0.122727446 0.09283629
0003c0 d6 1b c2 3d 43 a3 fc bc 01 10 42 3d 30 ec cf bd
       0.094779655 -0.030839568 0.047378544 -0.10152471
0003d0 bd 9c 86 bc cc 79 18 be af 5e 22 3e 4c 13 16 bc
       -0.01643216 -0.14890212 0.15856431 -0.009159874
0003e0 f9 dc e8 bd 80 4b 7d 3d be 66 7e 3d 21 73 c7 bd
       -0.11370272 0.06183958 0.0621097 -0.09738756
0003f0 32 d8 1e bd 1a 92 ce 3c 1a 8d a0 bd 1a 7e 08 3e
       -0.0387804 0.025216151 -0.07839413 0.13329354

2.bias f4 [24]
000000 54 2a 24 3e c2 cb f7 3d 06 b9 bb 3d 18 9a 17 3d
       0.16031772 0.120994106 0.0916615 0.03701219
000010 6e 38 1c 3c 3f 3d d4 3d 7f 89 99 3c 91 47 96 bd
       0.009534938 0.10363244 0.018742321 -0.07337869
000020 8d 90 62 3e eb fa 3a 3d 46 c9 a6 3d 84 ce c7 bd
       0.22125454 0.04564945 0.081438586 -0.097561866
000030 bf f2 cc bd 30 41 06 3e 65 a0 be bc ed 59 85 bd
       -0.10007238 0.13110805 -0.023269841 -0.065112926
000040 65 22 51 3d 88 55 d9 3d ef f4 59 bd 80 75 9c 3d
       0.05105819 0.10612017 -0.053212103 0.07639599
000050 71 91 0b 3e a7 b7 c0 3d 30 a1 2a 3d 79 bf b1 bc
       0.136297 0.09410029 0.041657627 -0.021697747

5.weight f4 [18, 24]
000000 ad d0 4f 3e 83 85 02 3e 1b d1 89 3e 31 3e 23 3e
       0.20294447 0.12746243 0.26917347 0.15941693
000010 3e f4 56 bd 24 90 3a be 10 db 7f 3e 10 14 8e 3d
       -0.05247902 -0.18219048 0.2498591 0.0693742
000020 d7 de 1b 3e fb 2f b8 3d d9 f1 ff 3d 23 3e e7 3c
       0.15221725 0.089935265 0.12497301 0.028227871
000030 ea c7 36 3e 7c d2 35 be 49 29 83 3e 03 19 66 3d
       0.17849699 -0.17756075 0.25617436 0.056176197
000040 b0 21 c4 3c 73 e4 f9 bd 6f 16 68 3e 3b f5 46 3e
       0.023941845 -0.12201776 0.22664808 0.19429485
000050 db 80 18 3e 72 2c bf 3d 90 76 0d be 17 24 e9 3d
       0.14892904 0.09334649 -0.13814759 0.11383837
000060 fa 48 73 be 14 b3 0c 3e c7 7d 2d be a3 ba 03 be
       -0.23758307 0.13740188 -0.16942511 -0.12864165
000070 75 de ca 3d 8e 4c 53 3d 01 1d 25 3e 82 b8 2d bd
       0.099057116 0.05158668 0.16124345 -0.04241229
000080 42 12 0e 3e b6 f4 01 3e e0 6c 97 bd 8c 19 5c 3c
       0.13874152 0.12691006 -0.07393813 0.013433825
000090 89 36 7a bd e3 fb 1e be 10 5e 04 3e 81 ee 46 be
       -0.061087165 -0.15525775 0.12926507 -0.1942692
0000a0 46 6c 0c be 59 99 12 3d c2 a8 4d be 89 28 40 bd
       -0.13713178 0.035790775 -0.20083907 -0.046913657
0000b0 0c b9 97 3d 36 12 92 3d ef d6 47 bd cb 07 77 bd
       0.07408342 0.0713238 -0.04878896 -0.060310166
0000c0 d3 72 1d bc e2 68 1e 3c 67 a7 5e 3d c9 fe 75 3d
       -0.009609896 0.009668561 0.054358866 0.060057435
0000d0 14 28 4c 3e 5a 63 3c 3e a3 ac 6e bc fe 1b ff bc
       0.19937164 0.18397275 -0.014567527 -0.031141277
0000e0 29 9c 77 3e 44 9e 09 3e ef f7 86 3e 98 2b 04 be
       0.24180664 0.1343928 0.26361033 -0.12907255
0000f0 94 be b2 3d 59 85 cf bd 2a 5e 49 3e b7 9c a6 3d
       0.08727756 -0.10132856 0.19664827 0.0813536
000100 54 ee f9 bd b5 aa 4e 3e ee 7d 1d 3e 54 f2 76 bd
       -0.122036606 0.20182307 0.1538007 -0.060289696
000110 7b 42 1c be 9b 73 e4 3c 09 7f e4 3c f8 30 84 3e
       -0.15259735 0.027887156 0.027892606 0.2581861
000120 0d 18 19 bd 37 36 8d bd 75 a9 13 3e f9 fc 48 3e
       -0.037376452 -0.06895106 0.14420111 0.19627751
000130 ef d4 ca 3c b1 6e 26 bd 10 49 ac bc b4 52 7f bd
       0.024759738 -0.040632907 -0.021030933 -0.06233473
000140 45 05 4f 3d 1a 1a e3 3c b9 d2 41 3c 3b 4d c7 3c
       0.050542135 0.027722407 0.011830025 0.024328819
000150 93 7d 08 3e c8 a5 1a be f9 4f 90 3e f5 b1 84 3e
       0.13329153 -0.15102303 0.28186014 0.2591702
000160 30 a7 19 be fa 8c bd bd 92 f6 70 3e 63 66 e2 bd
       -0.15005183 -0.09255405 0.23531559 -0.11054685
000170 78 13 1f 3e 37 ce c0 3d c2 0d 2b be c4 e3 96 3c
       0.1553477 0.09414332 -0.16704467 0.018419154
000180 db 46 dd 3c 92 bd 33 3d 22 53 01 bd 6a 9c 8a 3e
       0.027011326 0.04388196 -0.031573422 0.2707246
000190 92 ff 4d 3e 06 07 7c 3d 4d 26 d2 bd 87 ce f2 bc
       0.20117024 0.061530136 -0.102612115 -0.029639496
0001a0 25 37 85 3e 92 40 61 3e 2c ba 28 bd f4 05 2e 3e
       0.26018634 0.21997288 -0.041193172 0.16994458
0001b0 4f 42 3c 3e 25 99 ce bd c8 c0 32 3d dd d9 56 3e
       0.1838467 -0.10087804 0.04364088 0.20981546
0001c0 f9 03 60 3e 8a 7a 2b 3e d6 a2 84 3e d4 cf 04 be
       0.21876515 0.16745964 0.25905484 -0.12969905
0001d0 2b e7 57 3d 9b 19 84 3e de 06 8b bd 2c ed 1f 3e
       0.052710693 0.25800785 -0.06788419 0.15617818
0001e0 c8 10 ef bd b4 a7 f1 3d e6 78 fc 3d ad 5d 21 be
       -0.11673123 0.11799565 0.12327747 -0.1575839
0001f0 a0 fc 3c be 0a d2 c6 bb 73 a6 5e be 82 a8 02 be
       -0.18455744 -0.006067519 -0.21743183 -0.12759593
000200 13 3b 3a 3e 4f f3 51 3e 77 39 16 3e 6e 2e 0e be
       0.18186598 0.20502971 0.14670359 -0.13884899
000210 87 1b b3 3c 79 20 b2 3d 84 f4 1e 3e 2a 0d 55 3e
       0.021863712 0.086976 0.15522963 0.20805803
000220 51 cf dd 3c 84 c6 3e 3e 32 7b 65 be e3 1b 06 3c
       0.027076395 0.18630415 -0.22410277 0.00818536
000230 7e f0 25 3e c6 5a b2 bd 49 cd 1d be 34 59 a8 3d
       0.16205022 -0.0870872 -0.15410341 0.08220139
000240 3c ae 94 3e 83 c8 6f bd ad aa 2c 3e 9f 8d 53 bd
       0.2903918 -0.058540832 0.16861983 -0.051648732
000250 e1 34 0d 3e fb c1 16 be 3f a0 46 ba 8a ac 02 3d
       0.13789703 -0.14722435 -0.0007576979 0.031902827
000260 ae 77 69 3e e3 77 46 3d 49 af 5c 3e 0a 79 58 3e
       0.2279956 0.048454177 0.21551241 0.21139923
000270 55 e1 79 3e a0 b9 22 3e 0a 75 ae bd 51 09 2f 3e
       0.24402364 0.15891123 -0.08518417 0.17093398
000280 a6 b1 b6 bc bb db 9a bd 58 eb 09 be 2c 8d f9 bc
       -0.022301506 -0.075614415 -0.13468683 -0.030462824
000290 62 02 18 be 14 08 0c bd cc ab 37 be f6 14 99 3c
       -0.14844659 -0.03418739 -0.17936629 0.018686753
0002a0 9c 51 a5 bd 88 58 47 3e 88 2b 99 3d 44 a0 39 bd
       -0.080722064 0.19467366 0.07479006 -0.045318857
0002b0 0c d4 2d 3e 0e 3b 1c be ed 78 67 3e 38 62 e4 bc
       0.1697542 -0.15256903 0.22604723 -0.027878866
0002c0 8c ae f8 3c 88 32 db 3d f8 dc 97 3e 92 08 06 be
       0.030356668 0.107029974 0.29660773 -0.13089207
0002d0 df b9 43 3c 1b ef 13 bd af 58 88 3e da 5a 44 3e
       0.011946171 -0.0361167 0.2663016 0.19175282
0002e0 b6 6b 24 3e 72 62 c1 3d 22 1b 4e 3e f2 b7 38 3e
       0.16056713 0.09442605 0.20127538 0.1803892
0002f0 5a d9 05 3d 48 02 e2 3d 50 d8 d6 bd 2a e0 83 bc
       0.032677986 0.11035591 -0.10490477 -0.0160981
000300 fd f9 cf bd bd 12 dd 3d 22 c5 87 bd 2e c7 84 bc
       -0.10155103 0.1079459 -0.06629397 -0.016208258
000310 e7 d5 c1 bd 4a 8b 43 be 72 e7 82 bd 34 be 46 3e
       -0.09464627 -0.19096103 -0.06391801 0.19408494
000320 fb 62 bd 3d a7 bf f7 3d 92 ad d7 bd e2 c9 07 3d
       0.09247395 0.12097102 -0.10531153 0.033151515
000330 81 02 02 be b6 a3 a0 bd 35 2b 0d 3e bd f4 9b 3d
       -0.12696268 -0.078437254 0.13786013 0.076150395
000340 01 ad 3c 3e f5 02 0d be 03 26 5d 3e 4c b1 3e be
       0.18425371 -0.1377066 0.21596532 -0.18622321
000350 d6 b3 ef 3d 87 51 d7 3b ff d7 4a 3e 38 5a 47 bc
       0.11704223 0.006570998 0.19808958 -0.012167506
000360 78 a5 1d be f0 ae 57 3e 6f b6 6e 3e 43 d7 61 3d
       -0.15395153 0.21062827 0.2331178 0.05513693
000370 10 03 2f 3e 7d 86 8f 3d d7 1e f2 bd 69 81 02 3e
       0.17091012 0.070080735 -0.118222885 0.12744679
000380 cf bd 1c be 8b 61 0e be 02 58 5e 3e ef ab ce 3d
       -0.15306781 -0.13904397 0.2171326 0.100913875
000390 eb 91 32 be 28 2f 9f 3d e5 99 27 3e ea f3 20 3e
       -0.17438476 0.07772666 0.163673 0.15718046
0003a0 b4 86 8c 3d b1 ff 14 3e e2 75 cb bd 4f 1c 2a bd
       0.0686163 0.14550664 -0.09934594 -0.041530903
0003b0 18 e8 d8 bd c4 7f ef bd 16 b0 dc 3b a5 59 bb 3d
       -0.10591143 -0.11694291 0.0067348583 0.09147958
0003c0 87 85 0c 3e c4 2c 3c 3d b6 26 5f be f9 02 03 bd
       0.13722812 0.04594113 -0.21792111 -0.031985257
0003d0 77 ac 1f be f2 0f d9 3c 83 b9 47 be 6e 89 0c be
       -0.15593134 0.026496861 -0.19504361 -0.137243
0003e0 57 65 f9 3d b0 44 34 be d4 40 56 3d fa 82 40 3e
       0.12177532 -0.17604327 0.05230792 0.18799964
0003f0 ac 30 f6 bd 59 97 cc 3d d9 f4 01 3b 52 2b 29 3d
       -0.12021002 0.09989805 0.0019829778 0.04130108

5.bias f4 [18]
000000 49 52 ab 3d e1 38 ad bd 2a dc 15 bd c1 18 9b 3e
       0.08365304 -0.084581144 -0.036586918 0.30292323
000010 e9 18 15 3e 16 15 15 3e c1 4d b8 3d 45 40 3d 3c
       0.14560284 0.14558825 0.089992054 0.011550968
000020 90 4f 35 3e 2a 1a 3f bc b5 70 b0 bd 9b c9 6f bd
       0.17706132 -0.011663953 -0.08615247 -0.058541875
000030 b2 f7 72 bd 58 81 db 3d 7a 59 71 be 11 3b 26 3d
       -0.059318252 0.1071803 -0.23569289 0.040583674
000040 b6 24 12 3e 83 8c 4b 3e
       0.14271817 0.1987782

7.weight f4 [13, 18]
000000 9b 9e 42 3d 28 f2 1d bd 06 f2 09 3e 80 93 63 3e
       0.04751454 -0.038561016 0.13471231 0.22224236
000010 10 f4 72 ba be aa 8a 3e a4 04 aa 3e c4 46 3c 3d
       -0.00092679355 0.2708339 0.33206666 0.045965925
000020 81 21 d2 3d 53 d9 82 3e af cb 79 3e 07 96 05 3e
       0.102602966 0.2555643 0.24394105 0.13045512
000030 ad b2 5e 3e dc 81 bf 3e 5c af 7a 3e 31 a9 6c bd
       0.21747847 0.37403762 0.24480957 -0.05777854
000040 bd 58 d7 bd aa 6b 9c 3d b7 a7 13 3e d9 ae e0 3c
       -0.10514972 0.07637723 0.14419447 0.027427124
000050 f6 f9 c1 3c 17 ee ac 3e 2b 19 90 3e fe 97 55 3d
       0.023678761 0.33775398 0.28144202 0.052146904
000060 9b 2a 69 3e 14 4f 95 3c b1 19 f7 3d 69 3e 5a 3d
       0.22770159 0.018226184 0.12065447 0.053282175
000070 d6 0e 1a 3e 46 b5 32 be 40 e6 17 3e 8f c6 22 3e
       0.15044722 -0.17451963 0.14833927 0.15896057
000080 59 7b 9d 3c 52 52 95 3d 7f 6c 0e 3e 98 73 5d 3e
       0.019223856 0.07291092 0.13908575 0.21626127
000090 53 94 1a 3e 7c 0a f2 bb f7 34 64 3e 6e f6 0e bd
       0.15095644 -0.0073865037 0.2228583 -0.034902982
0000a0 82 74 78 3e 27 4a 87 3b b1 5f 6b 3e 36 ab a4 3e
       0.24263194 0.0041287127 0.22985722 0.32161874
0000b0 b1 66 39 3e e9 c5 be bd 24 a8 31 3d 12 e0 f8 3d
       0.1810558 -0.09315092 0.043373242 0.12152113
0000c0 87 79 23 3e c9 dd 18 3e 53 9f b1 bd 4d 03 a0 3e
       0.15964328 0.14928354 -0.08672967 0.31252518
0000d0 0d 6c 5b 3b 9d 27 19 3e 19 a4 a0 3e d9 4d 6a 3e
       0.0033481151 0.14956518 0.31375197 0.22881259
0000e0 4b 02 5b 3c 36 53 89 3e 25 ae 29 bc b4 3b 53 3e
       0.013367246 0.26821297 -0.010356461 0.20628244
0000f0 df 91 86 bd 65 ad 1c 3e f8 24 24 3e 9a 84 68 3e
       -0.065707915 0.1530052 0.16029727 0.22706833
000100 3a e6 ca 3c 75 d9 53 3e 66 3e aa 3e 5e 3a 85 3e
       0.024767984 0.20688422 0.3325073 0.26021093
000110 2b 10 4c be 3e a6 42 3e a6 b5 48 bd 1d 04 52 3b
       -0.19928043 0.19008729 -0.04900136 0.0032045909
000120 63 4d 88 3e 5e 1c b3 bc d1 b9 53 3e 40 88 89 3e
       0.2662154 -0.021864112 0.20676352 0.26861763
000130 72 5d 68 3d 9b 45 88 3d 45 bf 23 3e 0e c5 7f 3e
       0.05672974 0.06653901 0.15990932 0.24977514
000140 11 b7 8c 3e 34 c5 57 3d 17 c3 0c be 37 d0 05 be
       0.2748342 0.052678302 -0.13746296 -0.13067709
000150 e5 54 8e 3e cb 34 88 3d ea c1 19 be cf 55 17 3e
       0.27799144 0.066506945 -0.15015379 0.14778827
000160 63 07 e0 bc 5c c2 55 3e 11 9a a3 3d 42 3a 85 bd
       -0.027347272 0.20874923 0.0798837 -0.065052524
000170 dd ad 9d 3e 28 5d c3 3e 7b a4 b7 3d a2 c1 df 3d
       0.3079671 0.3815701 0.08966919 0.109256044
000180 35 fd 97 3e 73 fd ee 3d 6e ad d1 3e 82 d6 cd 3e
       0.2968537 0.11669435 0.4095263 0.4020272
000190 33 78 c3 3d af 09 49 3e 81 22 53 3e eb bc 17 3e
       0.095444106 0.196326 0.20618631 0.1481816
0001a0 9b c1 e9 3b c4 0f 61 3e 90 f4 13 3d 33 2a 4d 3d
       0.0071336753 0.2197867 0.036121905 0.050089072
0001b0 f4 6b be 3e f9 6f 1b 3e a3 fd c0 3e 27 26 ae 3e
       0.37191737 0.15179433 0.3769351 0.34013483
0001c0 cf df 2d 3d 00 04 d5 bb b8 9c 4e bd f4 36 af 3d
       0.04244977 -0.006500721 -0.050442427 0.08555403
0001d0 93 31 32 3e 82 ad c2 3e db 7b 97 3e e8 bf 26 bd
       0.17401724 0.38023 0.29586682 -0.04071036
0001e0 96 66 ed 3c ad cc c0 3e 18 c9 aa 3d 6d 8f 84 3e
       0.02897958 0.37656155 0.08339137 0.25890675
0001f0 63 fb 20 bd 91 83 8b bd 38 06 98 3e d7 a0 37 bd
       -0.03930224 -0.06812204 0.29692245 -0.044831123
000200 b9 73 01 3e 44 af bb 3e 15 b9 70 bd 89 95 38 3e
       0.12641801 0.36657155 -0.058770258 0.18025793
000210 0d 2e 56 bd 75 de 9e 3e 2a 1e 66 3d e5 9c ac 3e
       -0.05229001 0.31029096 0.05618111 0.3371345
000220 66 32 58 3e b0 c9 9e 3e fe 3c 96 3e 17 86 a7 3e
       0.21112975 0.3101325 0.29343408 0.3271949
000230 3f 1a 9a 3e 97 82 f6 3d 51 90 6b bd d7 4a 47 3d
       0.3009815 0.12036627 -0.057510678 0.048655357
000240 45 a8 2f 3e 17 f8 b7 3b 5f 49 c1 3e c7 f5 24 3c
       0.17154033 0.0056142914 0.3775129 0.0100683635
000250 fc ab 8e 3e 28 ab 3c 3e 8e 5c 40 3d 35 91 b3 3e
       0.2786559 0.18424666 0.046963267 0.35071722
000260 f2 31 09 3e aa 7c 5c 3e b4 65 b9 3d 75 6a 6c 3e
       0.13397959 0.2153193 0.090526015 0.23087485
000270 24 07 b6 bc da 4f 21 3d e1 86 68 3e 9e 54 82 3e
       -0.022220202 0.039382793 0.22707702 0.25455183
000280 77 fa d5 3d 45 db a3 bd f0 f2 aa 3e c7 8d 8e bd
       0.10448163 -0.08000807 0.33388472 -0.06960636
000290 ad 61 da 3d 48 12 e7 bc a8 44 bd 3e e9 e3 8c bb
       0.106631614 -0.02820696 0.36966443 -0.00429963
0002a0 a7 b2 83 3e 58 f9 1e bd d7 92 f1 3d ea a4 07 bd
       0.25722238 -0.03881201 0.117955856 -0.03311626
0002b0 4a 84 b2 bd 81 c6 2f 3e eb 3a 55 bc 66 7f 4b 3e
       -0.087166384 0.17165567 -0.013014535 0.19872817
0002c0 3d 29 a4 3d ee 69 80 3e eb fc f9 3d e2 8b 71 3e
       0.08015678 0.25080818 0.122064434 0.23588517
0002d0 f7 b7 5d 3d c3 a7 7a 3e bf fa d9 3c 0d 9b d6 3e
       0.05413052 0.24478059 0.026608823 0.4191517
0002e0 b5 5e a7 3e 59 2c a3 3e 8a 30 77 3e dc 55 c0 3e
       0.32689443 0.31869772 0.2413961 0.37565506
0002f0 b1 81 d8 3e 42 4e 77 3d 36 1f d7 3c 8e f8 bd bd
       0.42286447 0.060377367 0.02626 -0.09275924
000300 a1 74 08 3e fc 94 33 3e 0e f6 c4 bd 31 a6 e5 3c
       0.1332574 0.17537302 -0.09617244 0.028033348
000310 45 51 cb bd c1 90 0e bd b3 db c8 3c 87 b9 10 3e
       -0.0992761 -0.034806017 0.024518823 0.14133273
000320 25 be a0 3e 40 5e ba 3e 83 16 82 3e 07 73 1a 3c
       0.3139507 0.36400032 0.254078 0.009426839
000330 28 d3 38 3e a6 c7 14 3c 36 6a a8 3d 30 df 15 3e
       0.180493 0.009080803 0.08223383 0.1463592
000340 ad 21 3a bd b8 93 95 3d d9 7d a8 3e 46 35 56 3e
       -0.045442272 0.07303566 0.32908514 0.2091876
000350 33 fe f6 3d eb 57 09 3e 86 a6 a3 3d 07 ce 45 3e
       0.120602034 0.13412444 0.07990746 0.19316874
000360 53 12 55 3e c8 dd 38 3e 55 21 bb 3e dc 60 ca 3e
       0.20807771 0.18053353 0.36548868 0.39527023
000370 2a f3 95 3d df 4f 62 bd 1b 79 82 3e 97 30 bf bc
       0.073217705 -0.055251952 0.2548302 -0.0233386
000380 d6 85 c0 3e d0 31 aa 3e 79 e4 f4 3c b3 1d 1a bd
       0.3760211 0.3324113 0.0298941 -0.03762598
000390 20 20 94 3e 1b f8 92 3e 19 75 96 bd a0 9f 8e bc
       0.2893076 0.28704914 -0.07346553 -0.0174101
0003a0 4c 70 83 3e 67 80 d7 3c
       0.25671613 0.026306344

7.bias f4 [13]
000000 46 21 99 3e b0 e5 a4 3e 40 3e 5b 3e a7 35 36 3e
       0.29908198 0.32206488 0.21410465 0.17793904
000010 68 59 16 3e 0e 15 c0 3c 9f a0 0a 3e d9 1f 3c 3e
       0.14682543 0.02344754 0.13537835 0.18371524
000020 b9 32 d6 3c d9 21 92 3e 93 cb f4 3d 70 ce 4c 3e
       0.026147233 0.2854145 0.11952891 0.20000625
000030 9a d9 50 3e
       0.20395508
